program(1.0)
[buildInfo = dict<tensor<string, []>, tensor<string, []>>({{"coremlc-component-MIL", "3520.4.1"}, {"coremlc-version", "3520.5.1"}, {"coremltools-component-torch", "2.12.0"}, {"coremltools-source-dialect", "TorchScript"}, {"coremltools-version", "9.0"}})]
{
    func main<ios16>(tensor<fp16, [1, 3, 512, 512]> input) {
            tensor<string, []> input_1_pad_type_0 = const()[name = tensor<string, []>("input_1_pad_type_0"), val = tensor<string, []>("custom")];
            tensor<int32, [4]> input_1_pad_0 = const()[name = tensor<string, []>("input_1_pad_0"), val = tensor<int32, [4]>([1, 1, 1, 1])];
            tensor<int32, [2]> input_1_strides_0 = const()[name = tensor<string, []>("input_1_strides_0"), val = tensor<int32, [2]>([1, 1])];
            tensor<int32, [2]> input_1_dilations_0 = const()[name = tensor<string, []>("input_1_dilations_0"), val = tensor<int32, [2]>([1, 1])];
            tensor<int32, []> input_1_groups_0 = const()[name = tensor<string, []>("input_1_groups_0"), val = tensor<int32, []>(1)];
            tensor<fp16, [64, 3, 3, 3]> conv_first_weight_to_fp16 = const()[name = tensor<string, []>("conv_first_weight_to_fp16"), val = tensor<fp16, [64, 3, 3, 3]>(BLOBFILE(path = tensor<string, []>("@model_path/weights/weight.bin"), offset = tensor<uint64, []>(64)))];
            tensor<fp16, [64]> conv_first_bias_to_fp16 = const()[name = tensor<string, []>("conv_first_bias_to_fp16"), val = tensor<fp16, [64]>(BLOBFILE(path = tensor<string, []>("@model_path/weights/weight.bin"), offset = tensor<uint64, []>(3584)))];
            tensor<fp16, [1, 64, 512, 512]> input_1_cast_fp16 = conv(bias = conv_first_bias_to_fp16, dilations = input_1_dilations_0, groups = input_1_groups_0, pad = input_1_pad_0, pad_type = input_1_pad_type_0, strides = input_1_strides_0, weight = conv_first_weight_to_fp16, x = input)[name = tensor<string, []>("input_1_cast_fp16")];
            tensor<int32, []> var_21 = const()[name = tensor<string, []>("op_21"), val = tensor<int32, []>(1)];
            tensor<string, []> input_3_pad_type_0 = const()[name = tensor<string, []>("input_3_pad_type_0"), val = tensor<string, []>("custom")];
            tensor<int32, [4]> input_3_pad_0 = const()[name = tensor<string, []>("input_3_pad_0"), val = tensor<int32, [4]>([1, 1, 1, 1])];
            tensor<int32, [2]> input_3_strides_0 = const()[name = tensor<string, []>("input_3_strides_0"), val = tensor<int32, [2]>([1, 1])];
            tensor<int32, [2]> input_3_dilations_0 = const()[name = tensor<string, []>("input_3_dilations_0"), val = tensor<int32, [2]>([1, 1])];
            tensor<int32, []> input_3_groups_0 = const()[name = tensor<string, []>("input_3_groups_0"), val = tensor<int32, []>(1)];
            tensor<fp16, [32, 64, 3, 3]> body_0_rdb1_conv1_weight_to_fp16 = const()[name = tensor<string, []>("body_0_rdb1_conv1_weight_to_fp16"), val = tensor<fp16, [32, 64, 3, 3]>(BLOBFILE(path = tensor<string, []>("@model_path/weights/weight.bin"), offset = tensor<uint64, []>(3776)))];
            tensor<fp16, [32]> body_0_rdb1_conv1_bias_to_fp16 = const()[name = tensor<string, []>("body_0_rdb1_conv1_bias_to_fp16"), val = tensor<fp16, [32]>(BLOBFILE(path = tensor<string, []>("@model_path/weights/weight.bin"), offset = tensor<uint64, []>(40704)))];
            tensor<fp16, [1, 32, 512, 512]> input_3_cast_fp16 = conv(bias = body_0_rdb1_conv1_bias_to_fp16, dilations = input_3_dilations_0, groups = input_3_groups_0, pad = input_3_pad_0, pad_type = input_3_pad_type_0, strides = input_3_strides_0, weight = body_0_rdb1_conv1_weight_to_fp16, x = input_1_cast_fp16)[name = tensor<string, []>("input_3_cast_fp16")];
            tensor<fp16, []> var_20_to_fp16 = const()[name = tensor<string, []>("op_20_to_fp16"), val = tensor<fp16, []>(0x1.998p-3)];
            tensor<fp16, [1, 32, 512, 512]> x1_1_cast_fp16 = leaky_relu(alpha = var_20_to_fp16, x = input_3_cast_fp16)[name = tensor<string, []>("x1_1_cast_fp16")];
            tensor<bool, []> input_5_interleave_0 = const()[name = tensor<string, []>("input_5_interleave_0"), val = tensor<bool, []>(false)];
            tensor<fp16, [1, 96, 512, 512]> input_5_cast_fp16 = concat(axis = var_21, interleave = input_5_interleave_0, values = (input_1_cast_fp16, x1_1_cast_fp16))[name = tensor<string, []>("input_5_cast_fp16")];
            tensor<string, []> input_7_pad_type_0 = const()[name = tensor<string, []>("input_7_pad_type_0"), val = tensor<string, []>("custom")];
            tensor<int32, [4]> input_7_pad_0 = const()[name = tensor<string, []>("input_7_pad_0"), val = tensor<int32, [4]>([1, 1, 1, 1])];
            tensor<int32, [2]> input_7_strides_0 = const()[name = tensor<string, []>("input_7_strides_0"), val = tensor<int32, [2]>([1, 1])];
            tensor<int32, [2]> input_7_dilations_0 = const()[name = tensor<string, []>("input_7_dilations_0"), val = tensor<int32, [2]>([1, 1])];
            tensor<int32, []> input_7_groups_0 = const()[name = tensor<string, []>("input_7_groups_0"), val = tensor<int32, []>(1)];
            tensor<fp16, [32, 96, 3, 3]> body_0_rdb1_conv2_weight_to_fp16 = const()[name = tensor<string, []>("body_0_rdb1_conv2_weight_to_fp16"), val = tensor<fp16, [32, 96, 3, 3]>(BLOBFILE(path = tensor<string, []>("@model_path/weights/weight.bin"), offset = tensor<uint64, []>(40832)))];
            tensor<fp16, [32]> body_0_rdb1_conv2_bias_to_fp16 = const()[name = tensor<string, []>("body_0_rdb1_conv2_bias_to_fp16"), val = tensor<fp16, [32]>(BLOBFILE(path = tensor<string, []>("@model_path/weights/weight.bin"), offset = tensor<uint64, []>(96192)))];
            tensor<fp16, [1, 32, 512, 512]> input_7_cast_fp16 = conv(bias = body_0_rdb1_conv2_bias_to_fp16, dilations = input_7_dilations_0, groups = input_7_groups_0, pad = input_7_pad_0, pad_type = input_7_pad_type_0, strides = input_7_strides_0, weight = body_0_rdb1_conv2_weight_to_fp16, x = input_5_cast_fp16)[name = tensor<string, []>("input_7_cast_fp16")];
            tensor<fp16, [1, 32, 512, 512]> x2_1_cast_fp16 = leaky_relu(alpha = var_20_to_fp16, x = input_7_cast_fp16)[name = tensor<string, []>("x2_1_cast_fp16")];
            tensor<bool, []> input_9_interleave_0 = const()[name = tensor<string, []>("input_9_interleave_0"), val = tensor<bool, []>(false)];
            tensor<fp16, [1, 128, 512, 512]> input_9_cast_fp16 = concat(axis = var_21, interleave = input_9_interleave_0, values = (input_1_cast_fp16, x1_1_cast_fp16, x2_1_cast_fp16))[name = tensor<string, []>("input_9_cast_fp16")];
            tensor<string, []> input_11_pad_type_0 = const()[name = tensor<string, []>("input_11_pad_type_0"), val = tensor<string, []>("custom")];
            tensor<int32, [4]> input_11_pad_0 = const()[name = tensor<string, []>("input_11_pad_0"), val = tensor<int32, [4]>([1, 1, 1, 1])];
            tensor<int32, [2]> input_11_strides_0 = const()[name = tensor<string, []>("input_11_strides_0"), val = tensor<int32, [2]>([1, 1])];
            tensor<int32, [2]> input_11_dilations_0 = const()[name = tensor<string, []>("input_11_dilations_0"), val = tensor<int32, [2]>([1, 1])];
            tensor<int32, []> input_11_groups_0 = const()[name = tensor<string, []>("input_11_groups_0"), val = tensor<int32, []>(1)];
            tensor<fp16, [32, 128, 3, 3]> body_0_rdb1_conv3_weight_to_fp16 = const()[name = tensor<string, []>("body_0_rdb1_conv3_weight_to_fp16"), val = tensor<fp16, [32, 128, 3, 3]>(BLOBFILE(path = tensor<string, []>("@model_path/weights/weight.bin"), offset = tensor<uint64, []>(96320)))];
            tensor<fp16, [32]> body_0_rdb1_conv3_bias_to_fp16 = const()[name = tensor<string, []>("body_0_rdb1_conv3_bias_to_fp16"), val = tensor<fp16, [32]>(BLOBFILE(path = tensor<string, []>("@model_path/weights/weight.bin"), offset = tensor<uint64, []>(170112)))];
            tensor<fp16, [1, 32, 512, 512]> input_11_cast_fp16 = conv(bias = body_0_rdb1_conv3_bias_to_fp16, dilations = input_11_dilations_0, groups = input_11_groups_0, pad = input_11_pad_0, pad_type = input_11_pad_type_0, strides = input_11_strides_0, weight = body_0_rdb1_conv3_weight_to_fp16, x = input_9_cast_fp16)[name = tensor<string, []>("input_11_cast_fp16")];
            tensor<fp16, [1, 32, 512, 512]> x3_1_cast_fp16 = leaky_relu(alpha = var_20_to_fp16, x = input_11_cast_fp16)[name = tensor<string, []>("x3_1_cast_fp16")];
            tensor<bool, []> input_13_interleave_0 = const()[name = tensor<string, []>("input_13_interleave_0"), val = tensor<bool, []>(false)];
            tensor<fp16, [1, 160, 512, 512]> input_13_cast_fp16 = concat(axis = var_21, interleave = input_13_interleave_0, values = (input_1_cast_fp16, x1_1_cast_fp16, x2_1_cast_fp16, x3_1_cast_fp16))[name = tensor<string, []>("input_13_cast_fp16")];
            tensor<string, []> input_15_pad_type_0 = const()[name = tensor<string, []>("input_15_pad_type_0"), val = tensor<string, []>("custom")];
            tensor<int32, [4]> input_15_pad_0 = const()[name = tensor<string, []>("input_15_pad_0"), val = tensor<int32, [4]>([1, 1, 1, 1])];
            tensor<int32, [2]> input_15_strides_0 = const()[name = tensor<string, []>("input_15_strides_0"), val = tensor<int32, [2]>([1, 1])];
            tensor<int32, [2]> input_15_dilations_0 = const()[name = tensor<string, []>("input_15_dilations_0"), val = tensor<int32, [2]>([1, 1])];
            tensor<int32, []> input_15_groups_0 = const()[name = tensor<string, []>("input_15_groups_0"), val = tensor<int32, []>(1)];
            tensor<fp16, [32, 160, 3, 3]> body_0_rdb1_conv4_weight_to_fp16 = const()[name = tensor<string, []>("body_0_rdb1_conv4_weight_to_fp16"), val = tensor<fp16, [32, 160, 3, 3]>(BLOBFILE(path = tensor<string, []>("@model_path/weights/weight.bin"), offset = tensor<uint64, []>(170240)))];
            tensor<fp16, [32]> body_0_rdb1_conv4_bias_to_fp16 = const()[name = tensor<string, []>("body_0_rdb1_conv4_bias_to_fp16"), val = tensor<fp16, [32]>(BLOBFILE(path = tensor<string, []>("@model_path/weights/weight.bin"), offset = tensor<uint64, []>(262464)))];
            tensor<fp16, [1, 32, 512, 512]> input_15_cast_fp16 = conv(bias = body_0_rdb1_conv4_bias_to_fp16, dilations = input_15_dilations_0, groups = input_15_groups_0, pad = input_15_pad_0, pad_type = input_15_pad_type_0, strides = input_15_strides_0, weight = body_0_rdb1_conv4_weight_to_fp16, x = input_13_cast_fp16)[name = tensor<string, []>("input_15_cast_fp16")];
            tensor<fp16, [1, 32, 512, 512]> x4_1_cast_fp16 = leaky_relu(alpha = var_20_to_fp16, x = input_15_cast_fp16)[name = tensor<string, []>("x4_1_cast_fp16")];
            tensor<bool, []> input_17_interleave_0 = const()[name = tensor<string, []>("input_17_interleave_0"), val = tensor<bool, []>(false)];
            tensor<fp16, [1, 192, 512, 512]> input_17_cast_fp16 = concat(axis = var_21, interleave = input_17_interleave_0, values = (input_1_cast_fp16, x1_1_cast_fp16, x2_1_cast_fp16, x3_1_cast_fp16, x4_1_cast_fp16))[name = tensor<string, []>("input_17_cast_fp16")];
            tensor<string, []> x5_1_pad_type_0 = const()[name = tensor<string, []>("x5_1_pad_type_0"), val = tensor<string, []>("custom")];
            tensor<int32, [4]> x5_1_pad_0 = const()[name = tensor<string, []>("x5_1_pad_0"), val = tensor<int32, [4]>([1, 1, 1, 1])];
            tensor<int32, [2]> x5_1_strides_0 = const()[name = tensor<string, []>("x5_1_strides_0"), val = tensor<int32, [2]>([1, 1])];
            tensor<int32, [2]> x5_1_dilations_0 = const()[name = tensor<string, []>("x5_1_dilations_0"), val = tensor<int32, [2]>([1, 1])];
            tensor<int32, []> x5_1_groups_0 = const()[name = tensor<string, []>("x5_1_groups_0"), val = tensor<int32, []>(1)];
            tensor<fp16, [64, 192, 3, 3]> var_104_weight_0_to_fp16 = const()[name = tensor<string, []>("op_104_weight_0_to_fp16"), val = tensor<fp16, [64, 192, 3, 3]>(BLOBFILE(path = tensor<string, []>("@model_path/weights/weight.bin"), offset = tensor<uint64, []>(262592)))];
            tensor<fp16, [64]> var_104_bias_0_to_fp16 = const()[name = tensor<string, []>("op_104_bias_0_to_fp16"), val = tensor<fp16, [64]>(BLOBFILE(path = tensor<string, []>("@model_path/weights/weight.bin"), offset = tensor<uint64, []>(483840)))];
            tensor<fp16, [1, 64, 512, 512]> var_104_cast_fp16 = conv(bias = var_104_bias_0_to_fp16, dilations = x5_1_dilations_0, groups = x5_1_groups_0, pad = x5_1_pad_0, pad_type = x5_1_pad_type_0, strides = x5_1_strides_0, weight = var_104_weight_0_to_fp16, x = input_17_cast_fp16)[name = tensor<string, []>("op_104_cast_fp16")];
            tensor<fp16, [1, 64, 512, 512]> input_19_cast_fp16 = add(x = var_104_cast_fp16, y = input_1_cast_fp16)[name = tensor<string, []>("input_19_cast_fp16")];
            tensor<string, []> input_21_pad_type_0 = const()[name = tensor<string, []>("input_21_pad_type_0"), val = tensor<string, []>("custom")];
            tensor<int32, [4]> input_21_pad_0 = const()[name = tensor<string, []>("input_21_pad_0"), val = tensor<int32, [4]>([1, 1, 1, 1])];
            tensor<int32, [2]> input_21_strides_0 = const()[name = tensor<string, []>("input_21_strides_0"), val = tensor<int32, [2]>([1, 1])];
            tensor<int32, [2]> input_21_dilations_0 = const()[name = tensor<string, []>("input_21_dilations_0"), val = tensor<int32, [2]>([1, 1])];
            tensor<int32, []> input_21_groups_0 = const()[name = tensor<string, []>("input_21_groups_0"), val = tensor<int32, []>(1)];
            tensor<fp16, [32, 64, 3, 3]> body_0_rdb2_conv1_weight_to_fp16 = const()[name = tensor<string, []>("body_0_rdb2_conv1_weight_to_fp16"), val = tensor<fp16, [32, 64, 3, 3]>(BLOBFILE(path = tensor<string, []>("@model_path/weights/weight.bin"), offset = tensor<uint64, []>(484032)))];
            tensor<fp16, [32]> body_0_rdb2_conv1_bias_to_fp16 = const()[name = tensor<string, []>("body_0_rdb2_conv1_bias_to_fp16"), val = tensor<fp16, [32]>(BLOBFILE(path = tensor<string, []>("@model_path/weights/weight.bin"), offset = tensor<uint64, []>(520960)))];
            tensor<fp16, [1, 32, 512, 512]> input_21_cast_fp16 = conv(bias = body_0_rdb2_conv1_bias_to_fp16, dilations = input_21_dilations_0, groups = input_21_groups_0, pad = input_21_pad_0, pad_type = input_21_pad_type_0, strides = input_21_strides_0, weight = body_0_rdb2_conv1_weight_to_fp16, x = input_19_cast_fp16)[name = tensor<string, []>("input_21_cast_fp16")];
            tensor<fp16, [1, 32, 512, 512]> x1_3_cast_fp16 = leaky_relu(alpha = var_20_to_fp16, x = input_21_cast_fp16)[name = tensor<string, []>("x1_3_cast_fp16")];
            tensor<bool, []> input_23_interleave_0 = const()[name = tensor<string, []>("input_23_interleave_0"), val = tensor<bool, []>(false)];
            tensor<fp16, [1, 96, 512, 512]> input_23_cast_fp16 = concat(axis = var_21, interleave = input_23_interleave_0, values = (input_19_cast_fp16, x1_3_cast_fp16))[name = tensor<string, []>("input_23_cast_fp16")];
            tensor<string, []> input_25_pad_type_0 = const()[name = tensor<string, []>("input_25_pad_type_0"), val = tensor<string, []>("custom")];
            tensor<int32, [4]> input_25_pad_0 = const()[name = tensor<string, []>("input_25_pad_0"), val = tensor<int32, [4]>([1, 1, 1, 1])];
            tensor<int32, [2]> input_25_strides_0 = const()[name = tensor<string, []>("input_25_strides_0"), val = tensor<int32, [2]>([1, 1])];
            tensor<int32, [2]> input_25_dilations_0 = const()[name = tensor<string, []>("input_25_dilations_0"), val = tensor<int32, [2]>([1, 1])];
            tensor<int32, []> input_25_groups_0 = const()[name = tensor<string, []>("input_25_groups_0"), val = tensor<int32, []>(1)];
            tensor<fp16, [32, 96, 3, 3]> body_0_rdb2_conv2_weight_to_fp16 = const()[name = tensor<string, []>("body_0_rdb2_conv2_weight_to_fp16"), val = tensor<fp16, [32, 96, 3, 3]>(BLOBFILE(path = tensor<string, []>("@model_path/weights/weight.bin"), offset = tensor<uint64, []>(521088)))];
            tensor<fp16, [32]> body_0_rdb2_conv2_bias_to_fp16 = const()[name = tensor<string, []>("body_0_rdb2_conv2_bias_to_fp16"), val = tensor<fp16, [32]>(BLOBFILE(path = tensor<string, []>("@model_path/weights/weight.bin"), offset = tensor<uint64, []>(576448)))];
            tensor<fp16, [1, 32, 512, 512]> input_25_cast_fp16 = conv(bias = body_0_rdb2_conv2_bias_to_fp16, dilations = input_25_dilations_0, groups = input_25_groups_0, pad = input_25_pad_0, pad_type = input_25_pad_type_0, strides = input_25_strides_0, weight = body_0_rdb2_conv2_weight_to_fp16, x = input_23_cast_fp16)[name = tensor<string, []>("input_25_cast_fp16")];
            tensor<fp16, [1, 32, 512, 512]> x2_3_cast_fp16 = leaky_relu(alpha = var_20_to_fp16, x = input_25_cast_fp16)[name = tensor<string, []>("x2_3_cast_fp16")];
            tensor<bool, []> input_27_interleave_0 = const()[name = tensor<string, []>("input_27_interleave_0"), val = tensor<bool, []>(false)];
            tensor<fp16, [1, 128, 512, 512]> input_27_cast_fp16 = concat(axis = var_21, interleave = input_27_interleave_0, values = (input_19_cast_fp16, x1_3_cast_fp16, x2_3_cast_fp16))[name = tensor<string, []>("input_27_cast_fp16")];
            tensor<string, []> input_29_pad_type_0 = const()[name = tensor<string, []>("input_29_pad_type_0"), val = tensor<string, []>("custom")];
            tensor<int32, [4]> input_29_pad_0 = const()[name = tensor<string, []>("input_29_pad_0"), val = tensor<int32, [4]>([1, 1, 1, 1])];
            tensor<int32, [2]> input_29_strides_0 = const()[name = tensor<string, []>("input_29_strides_0"), val = tensor<int32, [2]>([1, 1])];
            tensor<int32, [2]> input_29_dilations_0 = const()[name = tensor<string, []>("input_29_dilations_0"), val = tensor<int32, [2]>([1, 1])];
            tensor<int32, []> input_29_groups_0 = const()[name = tensor<string, []>("input_29_groups_0"), val = tensor<int32, []>(1)];
            tensor<fp16, [32, 128, 3, 3]> body_0_rdb2_conv3_weight_to_fp16 = const()[name = tensor<string, []>("body_0_rdb2_conv3_weight_to_fp16"), val = tensor<fp16, [32, 128, 3, 3]>(BLOBFILE(path = tensor<string, []>("@model_path/weights/weight.bin"), offset = tensor<uint64, []>(576576)))];
            tensor<fp16, [32]> body_0_rdb2_conv3_bias_to_fp16 = const()[name = tensor<string, []>("body_0_rdb2_conv3_bias_to_fp16"), val = tensor<fp16, [32]>(BLOBFILE(path = tensor<string, []>("@model_path/weights/weight.bin"), offset = tensor<uint64, []>(650368)))];
            tensor<fp16, [1, 32, 512, 512]> input_29_cast_fp16 = conv(bias = body_0_rdb2_conv3_bias_to_fp16, dilations = input_29_dilations_0, groups = input_29_groups_0, pad = input_29_pad_0, pad_type = input_29_pad_type_0, strides = input_29_strides_0, weight = body_0_rdb2_conv3_weight_to_fp16, x = input_27_cast_fp16)[name = tensor<string, []>("input_29_cast_fp16")];
            tensor<fp16, [1, 32, 512, 512]> x3_3_cast_fp16 = leaky_relu(alpha = var_20_to_fp16, x = input_29_cast_fp16)[name = tensor<string, []>("x3_3_cast_fp16")];
            tensor<bool, []> input_31_interleave_0 = const()[name = tensor<string, []>("input_31_interleave_0"), val = tensor<bool, []>(false)];
            tensor<fp16, [1, 160, 512, 512]> input_31_cast_fp16 = concat(axis = var_21, interleave = input_31_interleave_0, values = (input_19_cast_fp16, x1_3_cast_fp16, x2_3_cast_fp16, x3_3_cast_fp16))[name = tensor<string, []>("input_31_cast_fp16")];
            tensor<string, []> input_33_pad_type_0 = const()[name = tensor<string, []>("input_33_pad_type_0"), val = tensor<string, []>("custom")];
            tensor<int32, [4]> input_33_pad_0 = const()[name = tensor<string, []>("input_33_pad_0"), val = tensor<int32, [4]>([1, 1, 1, 1])];
            tensor<int32, [2]> input_33_strides_0 = const()[name = tensor<string, []>("input_33_strides_0"), val = tensor<int32, [2]>([1, 1])];
            tensor<int32, [2]> input_33_dilations_0 = const()[name = tensor<string, []>("input_33_dilations_0"), val = tensor<int32, [2]>([1, 1])];
            tensor<int32, []> input_33_groups_0 = const()[name = tensor<string, []>("input_33_groups_0"), val = tensor<int32, []>(1)];
            tensor<fp16, [32, 160, 3, 3]> body_0_rdb2_conv4_weight_to_fp16 = const()[name = tensor<string, []>("body_0_rdb2_conv4_weight_to_fp16"), val = tensor<fp16, [32, 160, 3, 3]>(BLOBFILE(path = tensor<string, []>("@model_path/weights/weight.bin"), offset = tensor<uint64, []>(650496)))];
            tensor<fp16, [32]> body_0_rdb2_conv4_bias_to_fp16 = const()[name = tensor<string, []>("body_0_rdb2_conv4_bias_to_fp16"), val = tensor<fp16, [32]>(BLOBFILE(path = tensor<string, []>("@model_path/weights/weight.bin"), offset = tensor<uint64, []>(742720)))];
            tensor<fp16, [1, 32, 512, 512]> input_33_cast_fp16 = conv(bias = body_0_rdb2_conv4_bias_to_fp16, dilations = input_33_dilations_0, groups = input_33_groups_0, pad = input_33_pad_0, pad_type = input_33_pad_type_0, strides = input_33_strides_0, weight = body_0_rdb2_conv4_weight_to_fp16, x = input_31_cast_fp16)[name = tensor<string, []>("input_33_cast_fp16")];
            tensor<fp16, [1, 32, 512, 512]> x4_3_cast_fp16 = leaky_relu(alpha = var_20_to_fp16, x = input_33_cast_fp16)[name = tensor<string, []>("x4_3_cast_fp16")];
            tensor<bool, []> input_35_interleave_0 = const()[name = tensor<string, []>("input_35_interleave_0"), val = tensor<bool, []>(false)];
            tensor<fp16, [1, 192, 512, 512]> input_35_cast_fp16 = concat(axis = var_21, interleave = input_35_interleave_0, values = (input_19_cast_fp16, x1_3_cast_fp16, x2_3_cast_fp16, x3_3_cast_fp16, x4_3_cast_fp16))[name = tensor<string, []>("input_35_cast_fp16")];
            tensor<string, []> x5_3_pad_type_0 = const()[name = tensor<string, []>("x5_3_pad_type_0"), val = tensor<string, []>("custom")];
            tensor<int32, [4]> x5_3_pad_0 = const()[name = tensor<string, []>("x5_3_pad_0"), val = tensor<int32, [4]>([1, 1, 1, 1])];
            tensor<int32, [2]> x5_3_strides_0 = const()[name = tensor<string, []>("x5_3_strides_0"), val = tensor<int32, [2]>([1, 1])];
            tensor<int32, [2]> x5_3_dilations_0 = const()[name = tensor<string, []>("x5_3_dilations_0"), val = tensor<int32, [2]>([1, 1])];
            tensor<int32, []> x5_3_groups_0 = const()[name = tensor<string, []>("x5_3_groups_0"), val = tensor<int32, []>(1)];
            tensor<fp16, [64, 192, 3, 3]> var_159_weight_0_to_fp16 = const()[name = tensor<string, []>("op_159_weight_0_to_fp16"), val = tensor<fp16, [64, 192, 3, 3]>(BLOBFILE(path = tensor<string, []>("@model_path/weights/weight.bin"), offset = tensor<uint64, []>(742848)))];
            tensor<fp16, [64]> var_159_bias_0_to_fp16 = const()[name = tensor<string, []>("op_159_bias_0_to_fp16"), val = tensor<fp16, [64]>(BLOBFILE(path = tensor<string, []>("@model_path/weights/weight.bin"), offset = tensor<uint64, []>(964096)))];
            tensor<fp16, [1, 64, 512, 512]> var_159_cast_fp16 = conv(bias = var_159_bias_0_to_fp16, dilations = x5_3_dilations_0, groups = x5_3_groups_0, pad = x5_3_pad_0, pad_type = x5_3_pad_type_0, strides = x5_3_strides_0, weight = var_159_weight_0_to_fp16, x = input_35_cast_fp16)[name = tensor<string, []>("op_159_cast_fp16")];
            tensor<fp16, [1, 64, 512, 512]> input_37_cast_fp16 = add(x = var_159_cast_fp16, y = input_19_cast_fp16)[name = tensor<string, []>("input_37_cast_fp16")];
            tensor<string, []> input_39_pad_type_0 = const()[name = tensor<string, []>("input_39_pad_type_0"), val = tensor<string, []>("custom")];
            tensor<int32, [4]> input_39_pad_0 = const()[name = tensor<string, []>("input_39_pad_0"), val = tensor<int32, [4]>([1, 1, 1, 1])];
            tensor<int32, [2]> input_39_strides_0 = const()[name = tensor<string, []>("input_39_strides_0"), val = tensor<int32, [2]>([1, 1])];
            tensor<int32, [2]> input_39_dilations_0 = const()[name = tensor<string, []>("input_39_dilations_0"), val = tensor<int32, [2]>([1, 1])];
            tensor<int32, []> input_39_groups_0 = const()[name = tensor<string, []>("input_39_groups_0"), val = tensor<int32, []>(1)];
            tensor<fp16, [32, 64, 3, 3]> body_0_rdb3_conv1_weight_to_fp16 = const()[name = tensor<string, []>("body_0_rdb3_conv1_weight_to_fp16"), val = tensor<fp16, [32, 64, 3, 3]>(BLOBFILE(path = tensor<string, []>("@model_path/weights/weight.bin"), offset = tensor<uint64, []>(964288)))];
            tensor<fp16, [32]> body_0_rdb3_conv1_bias_to_fp16 = const()[name = tensor<string, []>("body_0_rdb3_conv1_bias_to_fp16"), val = tensor<fp16, [32]>(BLOBFILE(path = tensor<string, []>("@model_path/weights/weight.bin"), offset = tensor<uint64, []>(1001216)))];
            tensor<fp16, [1, 32, 512, 512]> input_39_cast_fp16 = conv(bias = body_0_rdb3_conv1_bias_to_fp16, dilations = input_39_dilations_0, groups = input_39_groups_0, pad = input_39_pad_0, pad_type = input_39_pad_type_0, strides = input_39_strides_0, weight = body_0_rdb3_conv1_weight_to_fp16, x = input_37_cast_fp16)[name = tensor<string, []>("input_39_cast_fp16")];
            tensor<fp16, [1, 32, 512, 512]> x1_5_cast_fp16 = leaky_relu(alpha = var_20_to_fp16, x = input_39_cast_fp16)[name = tensor<string, []>("x1_5_cast_fp16")];
            tensor<bool, []> input_41_interleave_0 = const()[name = tensor<string, []>("input_41_interleave_0"), val = tensor<bool, []>(false)];
            tensor<fp16, [1, 96, 512, 512]> input_41_cast_fp16 = concat(axis = var_21, interleave = input_41_interleave_0, values = (input_37_cast_fp16, x1_5_cast_fp16))[name = tensor<string, []>("input_41_cast_fp16")];
            tensor<string, []> input_43_pad_type_0 = const()[name = tensor<string, []>("input_43_pad_type_0"), val = tensor<string, []>("custom")];
            tensor<int32, [4]> input_43_pad_0 = const()[name = tensor<string, []>("input_43_pad_0"), val = tensor<int32, [4]>([1, 1, 1, 1])];
            tensor<int32, [2]> input_43_strides_0 = const()[name = tensor<string, []>("input_43_strides_0"), val = tensor<int32, [2]>([1, 1])];
            tensor<int32, [2]> input_43_dilations_0 = const()[name = tensor<string, []>("input_43_dilations_0"), val = tensor<int32, [2]>([1, 1])];
            tensor<int32, []> input_43_groups_0 = const()[name = tensor<string, []>("input_43_groups_0"), val = tensor<int32, []>(1)];
            tensor<fp16, [32, 96, 3, 3]> body_0_rdb3_conv2_weight_to_fp16 = const()[name = tensor<string, []>("body_0_rdb3_conv2_weight_to_fp16"), val = tensor<fp16, [32, 96, 3, 3]>(BLOBFILE(path = tensor<string, []>("@model_path/weights/weight.bin"), offset = tensor<uint64, []>(1001344)))];
            tensor<fp16, [32]> body_0_rdb3_conv2_bias_to_fp16 = const()[name = tensor<string, []>("body_0_rdb3_conv2_bias_to_fp16"), val = tensor<fp16, [32]>(BLOBFILE(path = tensor<string, []>("@model_path/weights/weight.bin"), offset = tensor<uint64, []>(1056704)))];
            tensor<fp16, [1, 32, 512, 512]> input_43_cast_fp16 = conv(bias = body_0_rdb3_conv2_bias_to_fp16, dilations = input_43_dilations_0, groups = input_43_groups_0, pad = input_43_pad_0, pad_type = input_43_pad_type_0, strides = input_43_strides_0, weight = body_0_rdb3_conv2_weight_to_fp16, x = input_41_cast_fp16)[name = tensor<string, []>("input_43_cast_fp16")];
            tensor<fp16, [1, 32, 512, 512]> x2_5_cast_fp16 = leaky_relu(alpha = var_20_to_fp16, x = input_43_cast_fp16)[name = tensor<string, []>("x2_5_cast_fp16")];
            tensor<bool, []> input_45_interleave_0 = const()[name = tensor<string, []>("input_45_interleave_0"), val = tensor<bool, []>(false)];
            tensor<fp16, [1, 128, 512, 512]> input_45_cast_fp16 = concat(axis = var_21, interleave = input_45_interleave_0, values = (input_37_cast_fp16, x1_5_cast_fp16, x2_5_cast_fp16))[name = tensor<string, []>("input_45_cast_fp16")];
            tensor<string, []> input_47_pad_type_0 = const()[name = tensor<string, []>("input_47_pad_type_0"), val = tensor<string, []>("custom")];
            tensor<int32, [4]> input_47_pad_0 = const()[name = tensor<string, []>("input_47_pad_0"), val = tensor<int32, [4]>([1, 1, 1, 1])];
            tensor<int32, [2]> input_47_strides_0 = const()[name = tensor<string, []>("input_47_strides_0"), val = tensor<int32, [2]>([1, 1])];
            tensor<int32, [2]> input_47_dilations_0 = const()[name = tensor<string, []>("input_47_dilations_0"), val = tensor<int32, [2]>([1, 1])];
            tensor<int32, []> input_47_groups_0 = const()[name = tensor<string, []>("input_47_groups_0"), val = tensor<int32, []>(1)];
            tensor<fp16, [32, 128, 3, 3]> body_0_rdb3_conv3_weight_to_fp16 = const()[name = tensor<string, []>("body_0_rdb3_conv3_weight_to_fp16"), val = tensor<fp16, [32, 128, 3, 3]>(BLOBFILE(path = tensor<string, []>("@model_path/weights/weight.bin"), offset = tensor<uint64, []>(1056832)))];
            tensor<fp16, [32]> body_0_rdb3_conv3_bias_to_fp16 = const()[name = tensor<string, []>("body_0_rdb3_conv3_bias_to_fp16"), val = tensor<fp16, [32]>(BLOBFILE(path = tensor<string, []>("@model_path/weights/weight.bin"), offset = tensor<uint64, []>(1130624)))];
            tensor<fp16, [1, 32, 512, 512]> input_47_cast_fp16 = conv(bias = body_0_rdb3_conv3_bias_to_fp16, dilations = input_47_dilations_0, groups = input_47_groups_0, pad = input_47_pad_0, pad_type = input_47_pad_type_0, strides = input_47_strides_0, weight = body_0_rdb3_conv3_weight_to_fp16, x = input_45_cast_fp16)[name = tensor<string, []>("input_47_cast_fp16")];
            tensor<fp16, [1, 32, 512, 512]> x3_5_cast_fp16 = leaky_relu(alpha = var_20_to_fp16, x = input_47_cast_fp16)[name = tensor<string, []>("x3_5_cast_fp16")];
            tensor<bool, []> input_49_interleave_0 = const()[name = tensor<string, []>("input_49_interleave_0"), val = tensor<bool, []>(false)];
            tensor<fp16, [1, 160, 512, 512]> input_49_cast_fp16 = concat(axis = var_21, interleave = input_49_interleave_0, values = (input_37_cast_fp16, x1_5_cast_fp16, x2_5_cast_fp16, x3_5_cast_fp16))[name = tensor<string, []>("input_49_cast_fp16")];
            tensor<string, []> input_51_pad_type_0 = const()[name = tensor<string, []>("input_51_pad_type_0"), val = tensor<string, []>("custom")];
            tensor<int32, [4]> input_51_pad_0 = const()[name = tensor<string, []>("input_51_pad_0"), val = tensor<int32, [4]>([1, 1, 1, 1])];
            tensor<int32, [2]> input_51_strides_0 = const()[name = tensor<string, []>("input_51_strides_0"), val = tensor<int32, [2]>([1, 1])];
            tensor<int32, [2]> input_51_dilations_0 = const()[name = tensor<string, []>("input_51_dilations_0"), val = tensor<int32, [2]>([1, 1])];
            tensor<int32, []> input_51_groups_0 = const()[name = tensor<string, []>("input_51_groups_0"), val = tensor<int32, []>(1)];
            tensor<fp16, [32, 160, 3, 3]> body_0_rdb3_conv4_weight_to_fp16 = const()[name = tensor<string, []>("body_0_rdb3_conv4_weight_to_fp16"), val = tensor<fp16, [32, 160, 3, 3]>(BLOBFILE(path = tensor<string, []>("@model_path/weights/weight.bin"), offset = tensor<uint64, []>(1130752)))];
            tensor<fp16, [32]> body_0_rdb3_conv4_bias_to_fp16 = const()[name = tensor<string, []>("body_0_rdb3_conv4_bias_to_fp16"), val = tensor<fp16, [32]>(BLOBFILE(path = tensor<string, []>("@model_path/weights/weight.bin"), offset = tensor<uint64, []>(1222976)))];
            tensor<fp16, [1, 32, 512, 512]> input_51_cast_fp16 = conv(bias = body_0_rdb3_conv4_bias_to_fp16, dilations = input_51_dilations_0, groups = input_51_groups_0, pad = input_51_pad_0, pad_type = input_51_pad_type_0, strides = input_51_strides_0, weight = body_0_rdb3_conv4_weight_to_fp16, x = input_49_cast_fp16)[name = tensor<string, []>("input_51_cast_fp16")];
            tensor<fp16, [1, 32, 512, 512]> x4_5_cast_fp16 = leaky_relu(alpha = var_20_to_fp16, x = input_51_cast_fp16)[name = tensor<string, []>("x4_5_cast_fp16")];
            tensor<bool, []> input_53_interleave_0 = const()[name = tensor<string, []>("input_53_interleave_0"), val = tensor<bool, []>(false)];
            tensor<fp16, [1, 192, 512, 512]> input_53_cast_fp16 = concat(axis = var_21, interleave = input_53_interleave_0, values = (input_37_cast_fp16, x1_5_cast_fp16, x2_5_cast_fp16, x3_5_cast_fp16, x4_5_cast_fp16))[name = tensor<string, []>("input_53_cast_fp16")];
            tensor<string, []> x5_5_pad_type_0 = const()[name = tensor<string, []>("x5_5_pad_type_0"), val = tensor<string, []>("custom")];
            tensor<int32, [4]> x5_5_pad_0 = const()[name = tensor<string, []>("x5_5_pad_0"), val = tensor<int32, [4]>([1, 1, 1, 1])];
            tensor<int32, [2]> x5_5_strides_0 = const()[name = tensor<string, []>("x5_5_strides_0"), val = tensor<int32, [2]>([1, 1])];
            tensor<int32, [2]> x5_5_dilations_0 = const()[name = tensor<string, []>("x5_5_dilations_0"), val = tensor<int32, [2]>([1, 1])];
            tensor<int32, []> x5_5_groups_0 = const()[name = tensor<string, []>("x5_5_groups_0"), val = tensor<int32, []>(1)];
            tensor<fp16, [64, 192, 3, 3]> var_214_weight_0_to_fp16 = const()[name = tensor<string, []>("op_214_weight_0_to_fp16"), val = tensor<fp16, [64, 192, 3, 3]>(BLOBFILE(path = tensor<string, []>("@model_path/weights/weight.bin"), offset = tensor<uint64, []>(1223104)))];
            tensor<fp16, [64]> var_214_bias_0_to_fp16 = const()[name = tensor<string, []>("op_214_bias_0_to_fp16"), val = tensor<fp16, [64]>(BLOBFILE(path = tensor<string, []>("@model_path/weights/weight.bin"), offset = tensor<uint64, []>(1444352)))];
            tensor<fp16, [1, 64, 512, 512]> var_214_cast_fp16 = conv(bias = var_214_bias_0_to_fp16, dilations = x5_5_dilations_0, groups = x5_5_groups_0, pad = x5_5_pad_0, pad_type = x5_5_pad_type_0, strides = x5_5_strides_0, weight = var_214_weight_0_to_fp16, x = input_53_cast_fp16)[name = tensor<string, []>("op_214_cast_fp16")];
            tensor<fp16, [1, 64, 512, 512]> out_1_cast_fp16 = add(x = var_214_cast_fp16, y = input_37_cast_fp16)[name = tensor<string, []>("out_1_cast_fp16")];
            tensor<fp16, []> var_216_to_fp16 = const()[name = tensor<string, []>("op_216_to_fp16"), val = tensor<fp16, []>(0x1.998p-3)];
            tensor<fp16, [1, 64, 512, 512]> var_217_cast_fp16 = mul(x = out_1_cast_fp16, y = var_216_to_fp16)[name = tensor<string, []>("op_217_cast_fp16")];
            tensor<fp16, [1, 64, 512, 512]> input_55_cast_fp16 = add(x = var_217_cast_fp16, y = input_1_cast_fp16)[name = tensor<string, []>("input_55_cast_fp16")];
            tensor<string, []> input_57_pad_type_0 = const()[name = tensor<string, []>("input_57_pad_type_0"), val = tensor<string, []>("custom")];
            tensor<int32, [4]> input_57_pad_0 = const()[name = tensor<string, []>("input_57_pad_0"), val = tensor<int32, [4]>([1, 1, 1, 1])];
            tensor<int32, [2]> input_57_strides_0 = const()[name = tensor<string, []>("input_57_strides_0"), val = tensor<int32, [2]>([1, 1])];
            tensor<int32, [2]> input_57_dilations_0 = const()[name = tensor<string, []>("input_57_dilations_0"), val = tensor<int32, [2]>([1, 1])];
            tensor<int32, []> input_57_groups_0 = const()[name = tensor<string, []>("input_57_groups_0"), val = tensor<int32, []>(1)];
            tensor<fp16, [32, 64, 3, 3]> body_1_rdb1_conv1_weight_to_fp16 = const()[name = tensor<string, []>("body_1_rdb1_conv1_weight_to_fp16"), val = tensor<fp16, [32, 64, 3, 3]>(BLOBFILE(path = tensor<string, []>("@model_path/weights/weight.bin"), offset = tensor<uint64, []>(1444544)))];
            tensor<fp16, [32]> body_1_rdb1_conv1_bias_to_fp16 = const()[name = tensor<string, []>("body_1_rdb1_conv1_bias_to_fp16"), val = tensor<fp16, [32]>(BLOBFILE(path = tensor<string, []>("@model_path/weights/weight.bin"), offset = tensor<uint64, []>(1481472)))];
            tensor<fp16, [1, 32, 512, 512]> input_57_cast_fp16 = conv(bias = body_1_rdb1_conv1_bias_to_fp16, dilations = input_57_dilations_0, groups = input_57_groups_0, pad = input_57_pad_0, pad_type = input_57_pad_type_0, strides = input_57_strides_0, weight = body_1_rdb1_conv1_weight_to_fp16, x = input_55_cast_fp16)[name = tensor<string, []>("input_57_cast_fp16")];
            tensor<fp16, [1, 32, 512, 512]> x1_7_cast_fp16 = leaky_relu(alpha = var_20_to_fp16, x = input_57_cast_fp16)[name = tensor<string, []>("x1_7_cast_fp16")];
            tensor<bool, []> input_59_interleave_0 = const()[name = tensor<string, []>("input_59_interleave_0"), val = tensor<bool, []>(false)];
            tensor<fp16, [1, 96, 512, 512]> input_59_cast_fp16 = concat(axis = var_21, interleave = input_59_interleave_0, values = (input_55_cast_fp16, x1_7_cast_fp16))[name = tensor<string, []>("input_59_cast_fp16")];
            tensor<string, []> input_61_pad_type_0 = const()[name = tensor<string, []>("input_61_pad_type_0"), val = tensor<string, []>("custom")];
            tensor<int32, [4]> input_61_pad_0 = const()[name = tensor<string, []>("input_61_pad_0"), val = tensor<int32, [4]>([1, 1, 1, 1])];
            tensor<int32, [2]> input_61_strides_0 = const()[name = tensor<string, []>("input_61_strides_0"), val = tensor<int32, [2]>([1, 1])];
            tensor<int32, [2]> input_61_dilations_0 = const()[name = tensor<string, []>("input_61_dilations_0"), val = tensor<int32, [2]>([1, 1])];
            tensor<int32, []> input_61_groups_0 = const()[name = tensor<string, []>("input_61_groups_0"), val = tensor<int32, []>(1)];
            tensor<fp16, [32, 96, 3, 3]> body_1_rdb1_conv2_weight_to_fp16 = const()[name = tensor<string, []>("body_1_rdb1_conv2_weight_to_fp16"), val = tensor<fp16, [32, 96, 3, 3]>(BLOBFILE(path = tensor<string, []>("@model_path/weights/weight.bin"), offset = tensor<uint64, []>(1481600)))];
            tensor<fp16, [32]> body_1_rdb1_conv2_bias_to_fp16 = const()[name = tensor<string, []>("body_1_rdb1_conv2_bias_to_fp16"), val = tensor<fp16, [32]>(BLOBFILE(path = tensor<string, []>("@model_path/weights/weight.bin"), offset = tensor<uint64, []>(1536960)))];
            tensor<fp16, [1, 32, 512, 512]> input_61_cast_fp16 = conv(bias = body_1_rdb1_conv2_bias_to_fp16, dilations = input_61_dilations_0, groups = input_61_groups_0, pad = input_61_pad_0, pad_type = input_61_pad_type_0, strides = input_61_strides_0, weight = body_1_rdb1_conv2_weight_to_fp16, x = input_59_cast_fp16)[name = tensor<string, []>("input_61_cast_fp16")];
            tensor<fp16, [1, 32, 512, 512]> x2_7_cast_fp16 = leaky_relu(alpha = var_20_to_fp16, x = input_61_cast_fp16)[name = tensor<string, []>("x2_7_cast_fp16")];
            tensor<bool, []> input_63_interleave_0 = const()[name = tensor<string, []>("input_63_interleave_0"), val = tensor<bool, []>(false)];
            tensor<fp16, [1, 128, 512, 512]> input_63_cast_fp16 = concat(axis = var_21, interleave = input_63_interleave_0, values = (input_55_cast_fp16, x1_7_cast_fp16, x2_7_cast_fp16))[name = tensor<string, []>("input_63_cast_fp16")];
            tensor<string, []> input_65_pad_type_0 = const()[name = tensor<string, []>("input_65_pad_type_0"), val = tensor<string, []>("custom")];
            tensor<int32, [4]> input_65_pad_0 = const()[name = tensor<string, []>("input_65_pad_0"), val = tensor<int32, [4]>([1, 1, 1, 1])];
            tensor<int32, [2]> input_65_strides_0 = const()[name = tensor<string, []>("input_65_strides_0"), val = tensor<int32, [2]>([1, 1])];
            tensor<int32, [2]> input_65_dilations_0 = const()[name = tensor<string, []>("input_65_dilations_0"), val = tensor<int32, [2]>([1, 1])];
            tensor<int32, []> input_65_groups_0 = const()[name = tensor<string, []>("input_65_groups_0"), val = tensor<int32, []>(1)];
            tensor<fp16, [32, 128, 3, 3]> body_1_rdb1_conv3_weight_to_fp16 = const()[name = tensor<string, []>("body_1_rdb1_conv3_weight_to_fp16"), val = tensor<fp16, [32, 128, 3, 3]>(BLOBFILE(path = tensor<string, []>("@model_path/weights/weight.bin"), offset = tensor<uint64, []>(1537088)))];
            tensor<fp16, [32]> body_1_rdb1_conv3_bias_to_fp16 = const()[name = tensor<string, []>("body_1_rdb1_conv3_bias_to_fp16"), val = tensor<fp16, [32]>(BLOBFILE(path = tensor<string, []>("@model_path/weights/weight.bin"), offset = tensor<uint64, []>(1610880)))];
            tensor<fp16, [1, 32, 512, 512]> input_65_cast_fp16 = conv(bias = body_1_rdb1_conv3_bias_to_fp16, dilations = input_65_dilations_0, groups = input_65_groups_0, pad = input_65_pad_0, pad_type = input_65_pad_type_0, strides = input_65_strides_0, weight = body_1_rdb1_conv3_weight_to_fp16, x = input_63_cast_fp16)[name = tensor<string, []>("input_65_cast_fp16")];
            tensor<fp16, [1, 32, 512, 512]> x3_7_cast_fp16 = leaky_relu(alpha = var_20_to_fp16, x = input_65_cast_fp16)[name = tensor<string, []>("x3_7_cast_fp16")];
            tensor<bool, []> input_67_interleave_0 = const()[name = tensor<string, []>("input_67_interleave_0"), val = tensor<bool, []>(false)];
            tensor<fp16, [1, 160, 512, 512]> input_67_cast_fp16 = concat(axis = var_21, interleave = input_67_interleave_0, values = (input_55_cast_fp16, x1_7_cast_fp16, x2_7_cast_fp16, x3_7_cast_fp16))[name = tensor<string, []>("input_67_cast_fp16")];
            tensor<string, []> input_69_pad_type_0 = const()[name = tensor<string, []>("input_69_pad_type_0"), val = tensor<string, []>("custom")];
            tensor<int32, [4]> input_69_pad_0 = const()[name = tensor<string, []>("input_69_pad_0"), val = tensor<int32, [4]>([1, 1, 1, 1])];
            tensor<int32, [2]> input_69_strides_0 = const()[name = tensor<string, []>("input_69_strides_0"), val = tensor<int32, [2]>([1, 1])];
            tensor<int32, [2]> input_69_dilations_0 = const()[name = tensor<string, []>("input_69_dilations_0"), val = tensor<int32, [2]>([1, 1])];
            tensor<int32, []> input_69_groups_0 = const()[name = tensor<string, []>("input_69_groups_0"), val = tensor<int32, []>(1)];
            tensor<fp16, [32, 160, 3, 3]> body_1_rdb1_conv4_weight_to_fp16 = const()[name = tensor<string, []>("body_1_rdb1_conv4_weight_to_fp16"), val = tensor<fp16, [32, 160, 3, 3]>(BLOBFILE(path = tensor<string, []>("@model_path/weights/weight.bin"), offset = tensor<uint64, []>(1611008)))];
            tensor<fp16, [32]> body_1_rdb1_conv4_bias_to_fp16 = const()[name = tensor<string, []>("body_1_rdb1_conv4_bias_to_fp16"), val = tensor<fp16, [32]>(BLOBFILE(path = tensor<string, []>("@model_path/weights/weight.bin"), offset = tensor<uint64, []>(1703232)))];
            tensor<fp16, [1, 32, 512, 512]> input_69_cast_fp16 = conv(bias = body_1_rdb1_conv4_bias_to_fp16, dilations = input_69_dilations_0, groups = input_69_groups_0, pad = input_69_pad_0, pad_type = input_69_pad_type_0, strides = input_69_strides_0, weight = body_1_rdb1_conv4_weight_to_fp16, x = input_67_cast_fp16)[name = tensor<string, []>("input_69_cast_fp16")];
            tensor<fp16, [1, 32, 512, 512]> x4_7_cast_fp16 = leaky_relu(alpha = var_20_to_fp16, x = input_69_cast_fp16)[name = tensor<string, []>("x4_7_cast_fp16")];
            tensor<bool, []> input_71_interleave_0 = const()[name = tensor<string, []>("input_71_interleave_0"), val = tensor<bool, []>(false)];
            tensor<fp16, [1, 192, 512, 512]> input_71_cast_fp16 = concat(axis = var_21, interleave = input_71_interleave_0, values = (input_55_cast_fp16, x1_7_cast_fp16, x2_7_cast_fp16, x3_7_cast_fp16, x4_7_cast_fp16))[name = tensor<string, []>("input_71_cast_fp16")];
            tensor<string, []> x5_7_pad_type_0 = const()[name = tensor<string, []>("x5_7_pad_type_0"), val = tensor<string, []>("custom")];
            tensor<int32, [4]> x5_7_pad_0 = const()[name = tensor<string, []>("x5_7_pad_0"), val = tensor<int32, [4]>([1, 1, 1, 1])];
            tensor<int32, [2]> x5_7_strides_0 = const()[name = tensor<string, []>("x5_7_strides_0"), val = tensor<int32, [2]>([1, 1])];
            tensor<int32, [2]> x5_7_dilations_0 = const()[name = tensor<string, []>("x5_7_dilations_0"), val = tensor<int32, [2]>([1, 1])];
            tensor<int32, []> x5_7_groups_0 = const()[name = tensor<string, []>("x5_7_groups_0"), val = tensor<int32, []>(1)];
            tensor<fp16, [64, 192, 3, 3]> var_275_weight_0_to_fp16 = const()[name = tensor<string, []>("op_275_weight_0_to_fp16"), val = tensor<fp16, [64, 192, 3, 3]>(BLOBFILE(path = tensor<string, []>("@model_path/weights/weight.bin"), offset = tensor<uint64, []>(1703360)))];
            tensor<fp16, [64]> var_275_bias_0_to_fp16 = const()[name = tensor<string, []>("op_275_bias_0_to_fp16"), val = tensor<fp16, [64]>(BLOBFILE(path = tensor<string, []>("@model_path/weights/weight.bin"), offset = tensor<uint64, []>(1924608)))];
            tensor<fp16, [1, 64, 512, 512]> var_275_cast_fp16 = conv(bias = var_275_bias_0_to_fp16, dilations = x5_7_dilations_0, groups = x5_7_groups_0, pad = x5_7_pad_0, pad_type = x5_7_pad_type_0, strides = x5_7_strides_0, weight = var_275_weight_0_to_fp16, x = input_71_cast_fp16)[name = tensor<string, []>("op_275_cast_fp16")];
            tensor<fp16, [1, 64, 512, 512]> input_73_cast_fp16 = add(x = var_275_cast_fp16, y = input_55_cast_fp16)[name = tensor<string, []>("input_73_cast_fp16")];
            tensor<string, []> input_75_pad_type_0 = const()[name = tensor<string, []>("input_75_pad_type_0"), val = tensor<string, []>("custom")];
            tensor<int32, [4]> input_75_pad_0 = const()[name = tensor<string, []>("input_75_pad_0"), val = tensor<int32, [4]>([1, 1, 1, 1])];
            tensor<int32, [2]> input_75_strides_0 = const()[name = tensor<string, []>("input_75_strides_0"), val = tensor<int32, [2]>([1, 1])];
            tensor<int32, [2]> input_75_dilations_0 = const()[name = tensor<string, []>("input_75_dilations_0"), val = tensor<int32, [2]>([1, 1])];
            tensor<int32, []> input_75_groups_0 = const()[name = tensor<string, []>("input_75_groups_0"), val = tensor<int32, []>(1)];
            tensor<fp16, [32, 64, 3, 3]> body_1_rdb2_conv1_weight_to_fp16 = const()[name = tensor<string, []>("body_1_rdb2_conv1_weight_to_fp16"), val = tensor<fp16, [32, 64, 3, 3]>(BLOBFILE(path = tensor<string, []>("@model_path/weights/weight.bin"), offset = tensor<uint64, []>(1924800)))];
            tensor<fp16, [32]> body_1_rdb2_conv1_bias_to_fp16 = const()[name = tensor<string, []>("body_1_rdb2_conv1_bias_to_fp16"), val = tensor<fp16, [32]>(BLOBFILE(path = tensor<string, []>("@model_path/weights/weight.bin"), offset = tensor<uint64, []>(1961728)))];
            tensor<fp16, [1, 32, 512, 512]> input_75_cast_fp16 = conv(bias = body_1_rdb2_conv1_bias_to_fp16, dilations = input_75_dilations_0, groups = input_75_groups_0, pad = input_75_pad_0, pad_type = input_75_pad_type_0, strides = input_75_strides_0, weight = body_1_rdb2_conv1_weight_to_fp16, x = input_73_cast_fp16)[name = tensor<string, []>("input_75_cast_fp16")];
            tensor<fp16, [1, 32, 512, 512]> x1_9_cast_fp16 = leaky_relu(alpha = var_20_to_fp16, x = input_75_cast_fp16)[name = tensor<string, []>("x1_9_cast_fp16")];
            tensor<bool, []> input_77_interleave_0 = const()[name = tensor<string, []>("input_77_interleave_0"), val = tensor<bool, []>(false)];
            tensor<fp16, [1, 96, 512, 512]> input_77_cast_fp16 = concat(axis = var_21, interleave = input_77_interleave_0, values = (input_73_cast_fp16, x1_9_cast_fp16))[name = tensor<string, []>("input_77_cast_fp16")];
            tensor<string, []> input_79_pad_type_0 = const()[name = tensor<string, []>("input_79_pad_type_0"), val = tensor<string, []>("custom")];
            tensor<int32, [4]> input_79_pad_0 = const()[name = tensor<string, []>("input_79_pad_0"), val = tensor<int32, [4]>([1, 1, 1, 1])];
            tensor<int32, [2]> input_79_strides_0 = const()[name = tensor<string, []>("input_79_strides_0"), val = tensor<int32, [2]>([1, 1])];
            tensor<int32, [2]> input_79_dilations_0 = const()[name = tensor<string, []>("input_79_dilations_0"), val = tensor<int32, [2]>([1, 1])];
            tensor<int32, []> input_79_groups_0 = const()[name = tensor<string, []>("input_79_groups_0"), val = tensor<int32, []>(1)];
            tensor<fp16, [32, 96, 3, 3]> body_1_rdb2_conv2_weight_to_fp16 = const()[name = tensor<string, []>("body_1_rdb2_conv2_weight_to_fp16"), val = tensor<fp16, [32, 96, 3, 3]>(BLOBFILE(path = tensor<string, []>("@model_path/weights/weight.bin"), offset = tensor<uint64, []>(1961856)))];
            tensor<fp16, [32]> body_1_rdb2_conv2_bias_to_fp16 = const()[name = tensor<string, []>("body_1_rdb2_conv2_bias_to_fp16"), val = tensor<fp16, [32]>(BLOBFILE(path = tensor<string, []>("@model_path/weights/weight.bin"), offset = tensor<uint64, []>(2017216)))];
            tensor<fp16, [1, 32, 512, 512]> input_79_cast_fp16 = conv(bias = body_1_rdb2_conv2_bias_to_fp16, dilations = input_79_dilations_0, groups = input_79_groups_0, pad = input_79_pad_0, pad_type = input_79_pad_type_0, strides = input_79_strides_0, weight = body_1_rdb2_conv2_weight_to_fp16, x = input_77_cast_fp16)[name = tensor<string, []>("input_79_cast_fp16")];
            tensor<fp16, [1, 32, 512, 512]> x2_9_cast_fp16 = leaky_relu(alpha = var_20_to_fp16, x = input_79_cast_fp16)[name = tensor<string, []>("x2_9_cast_fp16")];
            tensor<bool, []> input_81_interleave_0 = const()[name = tensor<string, []>("input_81_interleave_0"), val = tensor<bool, []>(false)];
            tensor<fp16, [1, 128, 512, 512]> input_81_cast_fp16 = concat(axis = var_21, interleave = input_81_interleave_0, values = (input_73_cast_fp16, x1_9_cast_fp16, x2_9_cast_fp16))[name = tensor<string, []>("input_81_cast_fp16")];
            tensor<string, []> input_83_pad_type_0 = const()[name = tensor<string, []>("input_83_pad_type_0"), val = tensor<string, []>("custom")];
            tensor<int32, [4]> input_83_pad_0 = const()[name = tensor<string, []>("input_83_pad_0"), val = tensor<int32, [4]>([1, 1, 1, 1])];
            tensor<int32, [2]> input_83_strides_0 = const()[name = tensor<string, []>("input_83_strides_0"), val = tensor<int32, [2]>([1, 1])];
            tensor<int32, [2]> input_83_dilations_0 = const()[name = tensor<string, []>("input_83_dilations_0"), val = tensor<int32, [2]>([1, 1])];
            tensor<int32, []> input_83_groups_0 = const()[name = tensor<string, []>("input_83_groups_0"), val = tensor<int32, []>(1)];
            tensor<fp16, [32, 128, 3, 3]> body_1_rdb2_conv3_weight_to_fp16 = const()[name = tensor<string, []>("body_1_rdb2_conv3_weight_to_fp16"), val = tensor<fp16, [32, 128, 3, 3]>(BLOBFILE(path = tensor<string, []>("@model_path/weights/weight.bin"), offset = tensor<uint64, []>(2017344)))];
            tensor<fp16, [32]> body_1_rdb2_conv3_bias_to_fp16 = const()[name = tensor<string, []>("body_1_rdb2_conv3_bias_to_fp16"), val = tensor<fp16, [32]>(BLOBFILE(path = tensor<string, []>("@model_path/weights/weight.bin"), offset = tensor<uint64, []>(2091136)))];
            tensor<fp16, [1, 32, 512, 512]> input_83_cast_fp16 = conv(bias = body_1_rdb2_conv3_bias_to_fp16, dilations = input_83_dilations_0, groups = input_83_groups_0, pad = input_83_pad_0, pad_type = input_83_pad_type_0, strides = input_83_strides_0, weight = body_1_rdb2_conv3_weight_to_fp16, x = input_81_cast_fp16)[name = tensor<string, []>("input_83_cast_fp16")];
            tensor<fp16, [1, 32, 512, 512]> x3_9_cast_fp16 = leaky_relu(alpha = var_20_to_fp16, x = input_83_cast_fp16)[name = tensor<string, []>("x3_9_cast_fp16")];
            tensor<bool, []> input_85_interleave_0 = const()[name = tensor<string, []>("input_85_interleave_0"), val = tensor<bool, []>(false)];
            tensor<fp16, [1, 160, 512, 512]> input_85_cast_fp16 = concat(axis = var_21, interleave = input_85_interleave_0, values = (input_73_cast_fp16, x1_9_cast_fp16, x2_9_cast_fp16, x3_9_cast_fp16))[name = tensor<string, []>("input_85_cast_fp16")];
            tensor<string, []> input_87_pad_type_0 = const()[name = tensor<string, []>("input_87_pad_type_0"), val = tensor<string, []>("custom")];
            tensor<int32, [4]> input_87_pad_0 = const()[name = tensor<string, []>("input_87_pad_0"), val = tensor<int32, [4]>([1, 1, 1, 1])];
            tensor<int32, [2]> input_87_strides_0 = const()[name = tensor<string, []>("input_87_strides_0"), val = tensor<int32, [2]>([1, 1])];
            tensor<int32, [2]> input_87_dilations_0 = const()[name = tensor<string, []>("input_87_dilations_0"), val = tensor<int32, [2]>([1, 1])];
            tensor<int32, []> input_87_groups_0 = const()[name = tensor<string, []>("input_87_groups_0"), val = tensor<int32, []>(1)];
            tensor<fp16, [32, 160, 3, 3]> body_1_rdb2_conv4_weight_to_fp16 = const()[name = tensor<string, []>("body_1_rdb2_conv4_weight_to_fp16"), val = tensor<fp16, [32, 160, 3, 3]>(BLOBFILE(path = tensor<string, []>("@model_path/weights/weight.bin"), offset = tensor<uint64, []>(2091264)))];
            tensor<fp16, [32]> body_1_rdb2_conv4_bias_to_fp16 = const()[name = tensor<string, []>("body_1_rdb2_conv4_bias_to_fp16"), val = tensor<fp16, [32]>(BLOBFILE(path = tensor<string, []>("@model_path/weights/weight.bin"), offset = tensor<uint64, []>(2183488)))];
            tensor<fp16, [1, 32, 512, 512]> input_87_cast_fp16 = conv(bias = body_1_rdb2_conv4_bias_to_fp16, dilations = input_87_dilations_0, groups = input_87_groups_0, pad = input_87_pad_0, pad_type = input_87_pad_type_0, strides = input_87_strides_0, weight = body_1_rdb2_conv4_weight_to_fp16, x = input_85_cast_fp16)[name = tensor<string, []>("input_87_cast_fp16")];
            tensor<fp16, [1, 32, 512, 512]> x4_9_cast_fp16 = leaky_relu(alpha = var_20_to_fp16, x = input_87_cast_fp16)[name = tensor<string, []>("x4_9_cast_fp16")];
            tensor<bool, []> input_89_interleave_0 = const()[name = tensor<string, []>("input_89_interleave_0"), val = tensor<bool, []>(false)];
            tensor<fp16, [1, 192, 512, 512]> input_89_cast_fp16 = concat(axis = var_21, interleave = input_89_interleave_0, values = (input_73_cast_fp16, x1_9_cast_fp16, x2_9_cast_fp16, x3_9_cast_fp16, x4_9_cast_fp16))[name = tensor<string, []>("input_89_cast_fp16")];
            tensor<string, []> x5_9_pad_type_0 = const()[name = tensor<string, []>("x5_9_pad_type_0"), val = tensor<string, []>("custom")];
            tensor<int32, [4]> x5_9_pad_0 = const()[name = tensor<string, []>("x5_9_pad_0"), val = tensor<int32, [4]>([1, 1, 1, 1])];
            tensor<int32, [2]> x5_9_strides_0 = const()[name = tensor<string, []>("x5_9_strides_0"), val = tensor<int32, [2]>([1, 1])];
            tensor<int32, [2]> x5_9_dilations_0 = const()[name = tensor<string, []>("x5_9_dilations_0"), val = tensor<int32, [2]>([1, 1])];
            tensor<int32, []> x5_9_groups_0 = const()[name = tensor<string, []>("x5_9_groups_0"), val = tensor<int32, []>(1)];
            tensor<fp16, [64, 192, 3, 3]> var_330_weight_0_to_fp16 = const()[name = tensor<string, []>("op_330_weight_0_to_fp16"), val = tensor<fp16, [64, 192, 3, 3]>(BLOBFILE(path = tensor<string, []>("@model_path/weights/weight.bin"), offset = tensor<uint64, []>(2183616)))];
            tensor<fp16, [64]> var_330_bias_0_to_fp16 = const()[name = tensor<string, []>("op_330_bias_0_to_fp16"), val = tensor<fp16, [64]>(BLOBFILE(path = tensor<string, []>("@model_path/weights/weight.bin"), offset = tensor<uint64, []>(2404864)))];
            tensor<fp16, [1, 64, 512, 512]> var_330_cast_fp16 = conv(bias = var_330_bias_0_to_fp16, dilations = x5_9_dilations_0, groups = x5_9_groups_0, pad = x5_9_pad_0, pad_type = x5_9_pad_type_0, strides = x5_9_strides_0, weight = var_330_weight_0_to_fp16, x = input_89_cast_fp16)[name = tensor<string, []>("op_330_cast_fp16")];
            tensor<fp16, [1, 64, 512, 512]> input_91_cast_fp16 = add(x = var_330_cast_fp16, y = input_73_cast_fp16)[name = tensor<string, []>("input_91_cast_fp16")];
            tensor<string, []> input_93_pad_type_0 = const()[name = tensor<string, []>("input_93_pad_type_0"), val = tensor<string, []>("custom")];
            tensor<int32, [4]> input_93_pad_0 = const()[name = tensor<string, []>("input_93_pad_0"), val = tensor<int32, [4]>([1, 1, 1, 1])];
            tensor<int32, [2]> input_93_strides_0 = const()[name = tensor<string, []>("input_93_strides_0"), val = tensor<int32, [2]>([1, 1])];
            tensor<int32, [2]> input_93_dilations_0 = const()[name = tensor<string, []>("input_93_dilations_0"), val = tensor<int32, [2]>([1, 1])];
            tensor<int32, []> input_93_groups_0 = const()[name = tensor<string, []>("input_93_groups_0"), val = tensor<int32, []>(1)];
            tensor<fp16, [32, 64, 3, 3]> body_1_rdb3_conv1_weight_to_fp16 = const()[name = tensor<string, []>("body_1_rdb3_conv1_weight_to_fp16"), val = tensor<fp16, [32, 64, 3, 3]>(BLOBFILE(path = tensor<string, []>("@model_path/weights/weight.bin"), offset = tensor<uint64, []>(2405056)))];
            tensor<fp16, [32]> body_1_rdb3_conv1_bias_to_fp16 = const()[name = tensor<string, []>("body_1_rdb3_conv1_bias_to_fp16"), val = tensor<fp16, [32]>(BLOBFILE(path = tensor<string, []>("@model_path/weights/weight.bin"), offset = tensor<uint64, []>(2441984)))];
            tensor<fp16, [1, 32, 512, 512]> input_93_cast_fp16 = conv(bias = body_1_rdb3_conv1_bias_to_fp16, dilations = input_93_dilations_0, groups = input_93_groups_0, pad = input_93_pad_0, pad_type = input_93_pad_type_0, strides = input_93_strides_0, weight = body_1_rdb3_conv1_weight_to_fp16, x = input_91_cast_fp16)[name = tensor<string, []>("input_93_cast_fp16")];
            tensor<fp16, [1, 32, 512, 512]> x1_11_cast_fp16 = leaky_relu(alpha = var_20_to_fp16, x = input_93_cast_fp16)[name = tensor<string, []>("x1_11_cast_fp16")];
            tensor<bool, []> input_95_interleave_0 = const()[name = tensor<string, []>("input_95_interleave_0"), val = tensor<bool, []>(false)];
            tensor<fp16, [1, 96, 512, 512]> input_95_cast_fp16 = concat(axis = var_21, interleave = input_95_interleave_0, values = (input_91_cast_fp16, x1_11_cast_fp16))[name = tensor<string, []>("input_95_cast_fp16")];
            tensor<string, []> input_97_pad_type_0 = const()[name = tensor<string, []>("input_97_pad_type_0"), val = tensor<string, []>("custom")];
            tensor<int32, [4]> input_97_pad_0 = const()[name = tensor<string, []>("input_97_pad_0"), val = tensor<int32, [4]>([1, 1, 1, 1])];
            tensor<int32, [2]> input_97_strides_0 = const()[name = tensor<string, []>("input_97_strides_0"), val = tensor<int32, [2]>([1, 1])];
            tensor<int32, [2]> input_97_dilations_0 = const()[name = tensor<string, []>("input_97_dilations_0"), val = tensor<int32, [2]>([1, 1])];
            tensor<int32, []> input_97_groups_0 = const()[name = tensor<string, []>("input_97_groups_0"), val = tensor<int32, []>(1)];
            tensor<fp16, [32, 96, 3, 3]> body_1_rdb3_conv2_weight_to_fp16 = const()[name = tensor<string, []>("body_1_rdb3_conv2_weight_to_fp16"), val = tensor<fp16, [32, 96, 3, 3]>(BLOBFILE(path = tensor<string, []>("@model_path/weights/weight.bin"), offset = tensor<uint64, []>(2442112)))];
            tensor<fp16, [32]> body_1_rdb3_conv2_bias_to_fp16 = const()[name = tensor<string, []>("body_1_rdb3_conv2_bias_to_fp16"), val = tensor<fp16, [32]>(BLOBFILE(path = tensor<string, []>("@model_path/weights/weight.bin"), offset = tensor<uint64, []>(2497472)))];
            tensor<fp16, [1, 32, 512, 512]> input_97_cast_fp16 = conv(bias = body_1_rdb3_conv2_bias_to_fp16, dilations = input_97_dilations_0, groups = input_97_groups_0, pad = input_97_pad_0, pad_type = input_97_pad_type_0, strides = input_97_strides_0, weight = body_1_rdb3_conv2_weight_to_fp16, x = input_95_cast_fp16)[name = tensor<string, []>("input_97_cast_fp16")];
            tensor<fp16, [1, 32, 512, 512]> x2_11_cast_fp16 = leaky_relu(alpha = var_20_to_fp16, x = input_97_cast_fp16)[name = tensor<string, []>("x2_11_cast_fp16")];
            tensor<bool, []> input_99_interleave_0 = const()[name = tensor<string, []>("input_99_interleave_0"), val = tensor<bool, []>(false)];
            tensor<fp16, [1, 128, 512, 512]> input_99_cast_fp16 = concat(axis = var_21, interleave = input_99_interleave_0, values = (input_91_cast_fp16, x1_11_cast_fp16, x2_11_cast_fp16))[name = tensor<string, []>("input_99_cast_fp16")];
            tensor<string, []> input_101_pad_type_0 = const()[name = tensor<string, []>("input_101_pad_type_0"), val = tensor<string, []>("custom")];
            tensor<int32, [4]> input_101_pad_0 = const()[name = tensor<string, []>("input_101_pad_0"), val = tensor<int32, [4]>([1, 1, 1, 1])];
            tensor<int32, [2]> input_101_strides_0 = const()[name = tensor<string, []>("input_101_strides_0"), val = tensor<int32, [2]>([1, 1])];
            tensor<int32, [2]> input_101_dilations_0 = const()[name = tensor<string, []>("input_101_dilations_0"), val = tensor<int32, [2]>([1, 1])];
            tensor<int32, []> input_101_groups_0 = const()[name = tensor<string, []>("input_101_groups_0"), val = tensor<int32, []>(1)];
            tensor<fp16, [32, 128, 3, 3]> body_1_rdb3_conv3_weight_to_fp16 = const()[name = tensor<string, []>("body_1_rdb3_conv3_weight_to_fp16"), val = tensor<fp16, [32, 128, 3, 3]>(BLOBFILE(path = tensor<string, []>("@model_path/weights/weight.bin"), offset = tensor<uint64, []>(2497600)))];
            tensor<fp16, [32]> body_1_rdb3_conv3_bias_to_fp16 = const()[name = tensor<string, []>("body_1_rdb3_conv3_bias_to_fp16"), val = tensor<fp16, [32]>(BLOBFILE(path = tensor<string, []>("@model_path/weights/weight.bin"), offset = tensor<uint64, []>(2571392)))];
            tensor<fp16, [1, 32, 512, 512]> input_101_cast_fp16 = conv(bias = body_1_rdb3_conv3_bias_to_fp16, dilations = input_101_dilations_0, groups = input_101_groups_0, pad = input_101_pad_0, pad_type = input_101_pad_type_0, strides = input_101_strides_0, weight = body_1_rdb3_conv3_weight_to_fp16, x = input_99_cast_fp16)[name = tensor<string, []>("input_101_cast_fp16")];
            tensor<fp16, [1, 32, 512, 512]> x3_11_cast_fp16 = leaky_relu(alpha = var_20_to_fp16, x = input_101_cast_fp16)[name = tensor<string, []>("x3_11_cast_fp16")];
            tensor<bool, []> input_103_interleave_0 = const()[name = tensor<string, []>("input_103_interleave_0"), val = tensor<bool, []>(false)];
            tensor<fp16, [1, 160, 512, 512]> input_103_cast_fp16 = concat(axis = var_21, interleave = input_103_interleave_0, values = (input_91_cast_fp16, x1_11_cast_fp16, x2_11_cast_fp16, x3_11_cast_fp16))[name = tensor<string, []>("input_103_cast_fp16")];
            tensor<string, []> input_105_pad_type_0 = const()[name = tensor<string, []>("input_105_pad_type_0"), val = tensor<string, []>("custom")];
            tensor<int32, [4]> input_105_pad_0 = const()[name = tensor<string, []>("input_105_pad_0"), val = tensor<int32, [4]>([1, 1, 1, 1])];
            tensor<int32, [2]> input_105_strides_0 = const()[name = tensor<string, []>("input_105_strides_0"), val = tensor<int32, [2]>([1, 1])];
            tensor<int32, [2]> input_105_dilations_0 = const()[name = tensor<string, []>("input_105_dilations_0"), val = tensor<int32, [2]>([1, 1])];
            tensor<int32, []> input_105_groups_0 = const()[name = tensor<string, []>("input_105_groups_0"), val = tensor<int32, []>(1)];
            tensor<fp16, [32, 160, 3, 3]> body_1_rdb3_conv4_weight_to_fp16 = const()[name = tensor<string, []>("body_1_rdb3_conv4_weight_to_fp16"), val = tensor<fp16, [32, 160, 3, 3]>(BLOBFILE(path = tensor<string, []>("@model_path/weights/weight.bin"), offset = tensor<uint64, []>(2571520)))];
            tensor<fp16, [32]> body_1_rdb3_conv4_bias_to_fp16 = const()[name = tensor<string, []>("body_1_rdb3_conv4_bias_to_fp16"), val = tensor<fp16, [32]>(BLOBFILE(path = tensor<string, []>("@model_path/weights/weight.bin"), offset = tensor<uint64, []>(2663744)))];
            tensor<fp16, [1, 32, 512, 512]> input_105_cast_fp16 = conv(bias = body_1_rdb3_conv4_bias_to_fp16, dilations = input_105_dilations_0, groups = input_105_groups_0, pad = input_105_pad_0, pad_type = input_105_pad_type_0, strides = input_105_strides_0, weight = body_1_rdb3_conv4_weight_to_fp16, x = input_103_cast_fp16)[name = tensor<string, []>("input_105_cast_fp16")];
            tensor<fp16, [1, 32, 512, 512]> x4_11_cast_fp16 = leaky_relu(alpha = var_20_to_fp16, x = input_105_cast_fp16)[name = tensor<string, []>("x4_11_cast_fp16")];
            tensor<bool, []> input_107_interleave_0 = const()[name = tensor<string, []>("input_107_interleave_0"), val = tensor<bool, []>(false)];
            tensor<fp16, [1, 192, 512, 512]> input_107_cast_fp16 = concat(axis = var_21, interleave = input_107_interleave_0, values = (input_91_cast_fp16, x1_11_cast_fp16, x2_11_cast_fp16, x3_11_cast_fp16, x4_11_cast_fp16))[name = tensor<string, []>("input_107_cast_fp16")];
            tensor<string, []> x5_11_pad_type_0 = const()[name = tensor<string, []>("x5_11_pad_type_0"), val = tensor<string, []>("custom")];
            tensor<int32, [4]> x5_11_pad_0 = const()[name = tensor<string, []>("x5_11_pad_0"), val = tensor<int32, [4]>([1, 1, 1, 1])];
            tensor<int32, [2]> x5_11_strides_0 = const()[name = tensor<string, []>("x5_11_strides_0"), val = tensor<int32, [2]>([1, 1])];
            tensor<int32, [2]> x5_11_dilations_0 = const()[name = tensor<string, []>("x5_11_dilations_0"), val = tensor<int32, [2]>([1, 1])];
            tensor<int32, []> x5_11_groups_0 = const()[name = tensor<string, []>("x5_11_groups_0"), val = tensor<int32, []>(1)];
            tensor<fp16, [64, 192, 3, 3]> var_385_weight_0_to_fp16 = const()[name = tensor<string, []>("op_385_weight_0_to_fp16"), val = tensor<fp16, [64, 192, 3, 3]>(BLOBFILE(path = tensor<string, []>("@model_path/weights/weight.bin"), offset = tensor<uint64, []>(2663872)))];
            tensor<fp16, [64]> var_385_bias_0_to_fp16 = const()[name = tensor<string, []>("op_385_bias_0_to_fp16"), val = tensor<fp16, [64]>(BLOBFILE(path = tensor<string, []>("@model_path/weights/weight.bin"), offset = tensor<uint64, []>(2885120)))];
            tensor<fp16, [1, 64, 512, 512]> var_385_cast_fp16 = conv(bias = var_385_bias_0_to_fp16, dilations = x5_11_dilations_0, groups = x5_11_groups_0, pad = x5_11_pad_0, pad_type = x5_11_pad_type_0, strides = x5_11_strides_0, weight = var_385_weight_0_to_fp16, x = input_107_cast_fp16)[name = tensor<string, []>("op_385_cast_fp16")];
            tensor<fp16, [1, 64, 512, 512]> out_3_cast_fp16 = add(x = var_385_cast_fp16, y = input_91_cast_fp16)[name = tensor<string, []>("out_3_cast_fp16")];
            tensor<fp16, []> var_387_to_fp16 = const()[name = tensor<string, []>("op_387_to_fp16"), val = tensor<fp16, []>(0x1.998p-3)];
            tensor<fp16, [1, 64, 512, 512]> var_388_cast_fp16 = mul(x = out_3_cast_fp16, y = var_387_to_fp16)[name = tensor<string, []>("op_388_cast_fp16")];
            tensor<fp16, [1, 64, 512, 512]> input_109_cast_fp16 = add(x = var_388_cast_fp16, y = input_55_cast_fp16)[name = tensor<string, []>("input_109_cast_fp16")];
            tensor<string, []> input_111_pad_type_0 = const()[name = tensor<string, []>("input_111_pad_type_0"), val = tensor<string, []>("custom")];
            tensor<int32, [4]> input_111_pad_0 = const()[name = tensor<string, []>("input_111_pad_0"), val = tensor<int32, [4]>([1, 1, 1, 1])];
            tensor<int32, [2]> input_111_strides_0 = const()[name = tensor<string, []>("input_111_strides_0"), val = tensor<int32, [2]>([1, 1])];
            tensor<int32, [2]> input_111_dilations_0 = const()[name = tensor<string, []>("input_111_dilations_0"), val = tensor<int32, [2]>([1, 1])];
            tensor<int32, []> input_111_groups_0 = const()[name = tensor<string, []>("input_111_groups_0"), val = tensor<int32, []>(1)];
            tensor<fp16, [32, 64, 3, 3]> body_2_rdb1_conv1_weight_to_fp16 = const()[name = tensor<string, []>("body_2_rdb1_conv1_weight_to_fp16"), val = tensor<fp16, [32, 64, 3, 3]>(BLOBFILE(path = tensor<string, []>("@model_path/weights/weight.bin"), offset = tensor<uint64, []>(2885312)))];
            tensor<fp16, [32]> body_2_rdb1_conv1_bias_to_fp16 = const()[name = tensor<string, []>("body_2_rdb1_conv1_bias_to_fp16"), val = tensor<fp16, [32]>(BLOBFILE(path = tensor<string, []>("@model_path/weights/weight.bin"), offset = tensor<uint64, []>(2922240)))];
            tensor<fp16, [1, 32, 512, 512]> input_111_cast_fp16 = conv(bias = body_2_rdb1_conv1_bias_to_fp16, dilations = input_111_dilations_0, groups = input_111_groups_0, pad = input_111_pad_0, pad_type = input_111_pad_type_0, strides = input_111_strides_0, weight = body_2_rdb1_conv1_weight_to_fp16, x = input_109_cast_fp16)[name = tensor<string, []>("input_111_cast_fp16")];
            tensor<fp16, [1, 32, 512, 512]> x1_13_cast_fp16 = leaky_relu(alpha = var_20_to_fp16, x = input_111_cast_fp16)[name = tensor<string, []>("x1_13_cast_fp16")];
            tensor<bool, []> input_113_interleave_0 = const()[name = tensor<string, []>("input_113_interleave_0"), val = tensor<bool, []>(false)];
            tensor<fp16, [1, 96, 512, 512]> input_113_cast_fp16 = concat(axis = var_21, interleave = input_113_interleave_0, values = (input_109_cast_fp16, x1_13_cast_fp16))[name = tensor<string, []>("input_113_cast_fp16")];
            tensor<string, []> input_115_pad_type_0 = const()[name = tensor<string, []>("input_115_pad_type_0"), val = tensor<string, []>("custom")];
            tensor<int32, [4]> input_115_pad_0 = const()[name = tensor<string, []>("input_115_pad_0"), val = tensor<int32, [4]>([1, 1, 1, 1])];
            tensor<int32, [2]> input_115_strides_0 = const()[name = tensor<string, []>("input_115_strides_0"), val = tensor<int32, [2]>([1, 1])];
            tensor<int32, [2]> input_115_dilations_0 = const()[name = tensor<string, []>("input_115_dilations_0"), val = tensor<int32, [2]>([1, 1])];
            tensor<int32, []> input_115_groups_0 = const()[name = tensor<string, []>("input_115_groups_0"), val = tensor<int32, []>(1)];
            tensor<fp16, [32, 96, 3, 3]> body_2_rdb1_conv2_weight_to_fp16 = const()[name = tensor<string, []>("body_2_rdb1_conv2_weight_to_fp16"), val = tensor<fp16, [32, 96, 3, 3]>(BLOBFILE(path = tensor<string, []>("@model_path/weights/weight.bin"), offset = tensor<uint64, []>(2922368)))];
            tensor<fp16, [32]> body_2_rdb1_conv2_bias_to_fp16 = const()[name = tensor<string, []>("body_2_rdb1_conv2_bias_to_fp16"), val = tensor<fp16, [32]>(BLOBFILE(path = tensor<string, []>("@model_path/weights/weight.bin"), offset = tensor<uint64, []>(2977728)))];
            tensor<fp16, [1, 32, 512, 512]> input_115_cast_fp16 = conv(bias = body_2_rdb1_conv2_bias_to_fp16, dilations = input_115_dilations_0, groups = input_115_groups_0, pad = input_115_pad_0, pad_type = input_115_pad_type_0, strides = input_115_strides_0, weight = body_2_rdb1_conv2_weight_to_fp16, x = input_113_cast_fp16)[name = tensor<string, []>("input_115_cast_fp16")];
            tensor<fp16, [1, 32, 512, 512]> x2_13_cast_fp16 = leaky_relu(alpha = var_20_to_fp16, x = input_115_cast_fp16)[name = tensor<string, []>("x2_13_cast_fp16")];
            tensor<bool, []> input_117_interleave_0 = const()[name = tensor<string, []>("input_117_interleave_0"), val = tensor<bool, []>(false)];
            tensor<fp16, [1, 128, 512, 512]> input_117_cast_fp16 = concat(axis = var_21, interleave = input_117_interleave_0, values = (input_109_cast_fp16, x1_13_cast_fp16, x2_13_cast_fp16))[name = tensor<string, []>("input_117_cast_fp16")];
            tensor<string, []> input_119_pad_type_0 = const()[name = tensor<string, []>("input_119_pad_type_0"), val = tensor<string, []>("custom")];
            tensor<int32, [4]> input_119_pad_0 = const()[name = tensor<string, []>("input_119_pad_0"), val = tensor<int32, [4]>([1, 1, 1, 1])];
            tensor<int32, [2]> input_119_strides_0 = const()[name = tensor<string, []>("input_119_strides_0"), val = tensor<int32, [2]>([1, 1])];
            tensor<int32, [2]> input_119_dilations_0 = const()[name = tensor<string, []>("input_119_dilations_0"), val = tensor<int32, [2]>([1, 1])];
            tensor<int32, []> input_119_groups_0 = const()[name = tensor<string, []>("input_119_groups_0"), val = tensor<int32, []>(1)];
            tensor<fp16, [32, 128, 3, 3]> body_2_rdb1_conv3_weight_to_fp16 = const()[name = tensor<string, []>("body_2_rdb1_conv3_weight_to_fp16"), val = tensor<fp16, [32, 128, 3, 3]>(BLOBFILE(path = tensor<string, []>("@model_path/weights/weight.bin"), offset = tensor<uint64, []>(2977856)))];
            tensor<fp16, [32]> body_2_rdb1_conv3_bias_to_fp16 = const()[name = tensor<string, []>("body_2_rdb1_conv3_bias_to_fp16"), val = tensor<fp16, [32]>(BLOBFILE(path = tensor<string, []>("@model_path/weights/weight.bin"), offset = tensor<uint64, []>(3051648)))];
            tensor<fp16, [1, 32, 512, 512]> input_119_cast_fp16 = conv(bias = body_2_rdb1_conv3_bias_to_fp16, dilations = input_119_dilations_0, groups = input_119_groups_0, pad = input_119_pad_0, pad_type = input_119_pad_type_0, strides = input_119_strides_0, weight = body_2_rdb1_conv3_weight_to_fp16, x = input_117_cast_fp16)[name = tensor<string, []>("input_119_cast_fp16")];
            tensor<fp16, [1, 32, 512, 512]> x3_13_cast_fp16 = leaky_relu(alpha = var_20_to_fp16, x = input_119_cast_fp16)[name = tensor<string, []>("x3_13_cast_fp16")];
            tensor<bool, []> input_121_interleave_0 = const()[name = tensor<string, []>("input_121_interleave_0"), val = tensor<bool, []>(false)];
            tensor<fp16, [1, 160, 512, 512]> input_121_cast_fp16 = concat(axis = var_21, interleave = input_121_interleave_0, values = (input_109_cast_fp16, x1_13_cast_fp16, x2_13_cast_fp16, x3_13_cast_fp16))[name = tensor<string, []>("input_121_cast_fp16")];
            tensor<string, []> input_123_pad_type_0 = const()[name = tensor<string, []>("input_123_pad_type_0"), val = tensor<string, []>("custom")];
            tensor<int32, [4]> input_123_pad_0 = const()[name = tensor<string, []>("input_123_pad_0"), val = tensor<int32, [4]>([1, 1, 1, 1])];
            tensor<int32, [2]> input_123_strides_0 = const()[name = tensor<string, []>("input_123_strides_0"), val = tensor<int32, [2]>([1, 1])];
            tensor<int32, [2]> input_123_dilations_0 = const()[name = tensor<string, []>("input_123_dilations_0"), val = tensor<int32, [2]>([1, 1])];
            tensor<int32, []> input_123_groups_0 = const()[name = tensor<string, []>("input_123_groups_0"), val = tensor<int32, []>(1)];
            tensor<fp16, [32, 160, 3, 3]> body_2_rdb1_conv4_weight_to_fp16 = const()[name = tensor<string, []>("body_2_rdb1_conv4_weight_to_fp16"), val = tensor<fp16, [32, 160, 3, 3]>(BLOBFILE(path = tensor<string, []>("@model_path/weights/weight.bin"), offset = tensor<uint64, []>(3051776)))];
            tensor<fp16, [32]> body_2_rdb1_conv4_bias_to_fp16 = const()[name = tensor<string, []>("body_2_rdb1_conv4_bias_to_fp16"), val = tensor<fp16, [32]>(BLOBFILE(path = tensor<string, []>("@model_path/weights/weight.bin"), offset = tensor<uint64, []>(3144000)))];
            tensor<fp16, [1, 32, 512, 512]> input_123_cast_fp16 = conv(bias = body_2_rdb1_conv4_bias_to_fp16, dilations = input_123_dilations_0, groups = input_123_groups_0, pad = input_123_pad_0, pad_type = input_123_pad_type_0, strides = input_123_strides_0, weight = body_2_rdb1_conv4_weight_to_fp16, x = input_121_cast_fp16)[name = tensor<string, []>("input_123_cast_fp16")];
            tensor<fp16, [1, 32, 512, 512]> x4_13_cast_fp16 = leaky_relu(alpha = var_20_to_fp16, x = input_123_cast_fp16)[name = tensor<string, []>("x4_13_cast_fp16")];
            tensor<bool, []> input_125_interleave_0 = const()[name = tensor<string, []>("input_125_interleave_0"), val = tensor<bool, []>(false)];
            tensor<fp16, [1, 192, 512, 512]> input_125_cast_fp16 = concat(axis = var_21, interleave = input_125_interleave_0, values = (input_109_cast_fp16, x1_13_cast_fp16, x2_13_cast_fp16, x3_13_cast_fp16, x4_13_cast_fp16))[name = tensor<string, []>("input_125_cast_fp16")];
            tensor<string, []> x5_13_pad_type_0 = const()[name = tensor<string, []>("x5_13_pad_type_0"), val = tensor<string, []>("custom")];
            tensor<int32, [4]> x5_13_pad_0 = const()[name = tensor<string, []>("x5_13_pad_0"), val = tensor<int32, [4]>([1, 1, 1, 1])];
            tensor<int32, [2]> x5_13_strides_0 = const()[name = tensor<string, []>("x5_13_strides_0"), val = tensor<int32, [2]>([1, 1])];
            tensor<int32, [2]> x5_13_dilations_0 = const()[name = tensor<string, []>("x5_13_dilations_0"), val = tensor<int32, [2]>([1, 1])];
            tensor<int32, []> x5_13_groups_0 = const()[name = tensor<string, []>("x5_13_groups_0"), val = tensor<int32, []>(1)];
            tensor<fp16, [64, 192, 3, 3]> var_446_weight_0_to_fp16 = const()[name = tensor<string, []>("op_446_weight_0_to_fp16"), val = tensor<fp16, [64, 192, 3, 3]>(BLOBFILE(path = tensor<string, []>("@model_path/weights/weight.bin"), offset = tensor<uint64, []>(3144128)))];
            tensor<fp16, [64]> var_446_bias_0_to_fp16 = const()[name = tensor<string, []>("op_446_bias_0_to_fp16"), val = tensor<fp16, [64]>(BLOBFILE(path = tensor<string, []>("@model_path/weights/weight.bin"), offset = tensor<uint64, []>(3365376)))];
            tensor<fp16, [1, 64, 512, 512]> var_446_cast_fp16 = conv(bias = var_446_bias_0_to_fp16, dilations = x5_13_dilations_0, groups = x5_13_groups_0, pad = x5_13_pad_0, pad_type = x5_13_pad_type_0, strides = x5_13_strides_0, weight = var_446_weight_0_to_fp16, x = input_125_cast_fp16)[name = tensor<string, []>("op_446_cast_fp16")];
            tensor<fp16, [1, 64, 512, 512]> input_127_cast_fp16 = add(x = var_446_cast_fp16, y = input_109_cast_fp16)[name = tensor<string, []>("input_127_cast_fp16")];
            tensor<string, []> input_129_pad_type_0 = const()[name = tensor<string, []>("input_129_pad_type_0"), val = tensor<string, []>("custom")];
            tensor<int32, [4]> input_129_pad_0 = const()[name = tensor<string, []>("input_129_pad_0"), val = tensor<int32, [4]>([1, 1, 1, 1])];
            tensor<int32, [2]> input_129_strides_0 = const()[name = tensor<string, []>("input_129_strides_0"), val = tensor<int32, [2]>([1, 1])];
            tensor<int32, [2]> input_129_dilations_0 = const()[name = tensor<string, []>("input_129_dilations_0"), val = tensor<int32, [2]>([1, 1])];
            tensor<int32, []> input_129_groups_0 = const()[name = tensor<string, []>("input_129_groups_0"), val = tensor<int32, []>(1)];
            tensor<fp16, [32, 64, 3, 3]> body_2_rdb2_conv1_weight_to_fp16 = const()[name = tensor<string, []>("body_2_rdb2_conv1_weight_to_fp16"), val = tensor<fp16, [32, 64, 3, 3]>(BLOBFILE(path = tensor<string, []>("@model_path/weights/weight.bin"), offset = tensor<uint64, []>(3365568)))];
            tensor<fp16, [32]> body_2_rdb2_conv1_bias_to_fp16 = const()[name = tensor<string, []>("body_2_rdb2_conv1_bias_to_fp16"), val = tensor<fp16, [32]>(BLOBFILE(path = tensor<string, []>("@model_path/weights/weight.bin"), offset = tensor<uint64, []>(3402496)))];
            tensor<fp16, [1, 32, 512, 512]> input_129_cast_fp16 = conv(bias = body_2_rdb2_conv1_bias_to_fp16, dilations = input_129_dilations_0, groups = input_129_groups_0, pad = input_129_pad_0, pad_type = input_129_pad_type_0, strides = input_129_strides_0, weight = body_2_rdb2_conv1_weight_to_fp16, x = input_127_cast_fp16)[name = tensor<string, []>("input_129_cast_fp16")];
            tensor<fp16, [1, 32, 512, 512]> x1_15_cast_fp16 = leaky_relu(alpha = var_20_to_fp16, x = input_129_cast_fp16)[name = tensor<string, []>("x1_15_cast_fp16")];
            tensor<bool, []> input_131_interleave_0 = const()[name = tensor<string, []>("input_131_interleave_0"), val = tensor<bool, []>(false)];
            tensor<fp16, [1, 96, 512, 512]> input_131_cast_fp16 = concat(axis = var_21, interleave = input_131_interleave_0, values = (input_127_cast_fp16, x1_15_cast_fp16))[name = tensor<string, []>("input_131_cast_fp16")];
            tensor<string, []> input_133_pad_type_0 = const()[name = tensor<string, []>("input_133_pad_type_0"), val = tensor<string, []>("custom")];
            tensor<int32, [4]> input_133_pad_0 = const()[name = tensor<string, []>("input_133_pad_0"), val = tensor<int32, [4]>([1, 1, 1, 1])];
            tensor<int32, [2]> input_133_strides_0 = const()[name = tensor<string, []>("input_133_strides_0"), val = tensor<int32, [2]>([1, 1])];
            tensor<int32, [2]> input_133_dilations_0 = const()[name = tensor<string, []>("input_133_dilations_0"), val = tensor<int32, [2]>([1, 1])];
            tensor<int32, []> input_133_groups_0 = const()[name = tensor<string, []>("input_133_groups_0"), val = tensor<int32, []>(1)];
            tensor<fp16, [32, 96, 3, 3]> body_2_rdb2_conv2_weight_to_fp16 = const()[name = tensor<string, []>("body_2_rdb2_conv2_weight_to_fp16"), val = tensor<fp16, [32, 96, 3, 3]>(BLOBFILE(path = tensor<string, []>("@model_path/weights/weight.bin"), offset = tensor<uint64, []>(3402624)))];
            tensor<fp16, [32]> body_2_rdb2_conv2_bias_to_fp16 = const()[name = tensor<string, []>("body_2_rdb2_conv2_bias_to_fp16"), val = tensor<fp16, [32]>(BLOBFILE(path = tensor<string, []>("@model_path/weights/weight.bin"), offset = tensor<uint64, []>(3457984)))];
            tensor<fp16, [1, 32, 512, 512]> input_133_cast_fp16 = conv(bias = body_2_rdb2_conv2_bias_to_fp16, dilations = input_133_dilations_0, groups = input_133_groups_0, pad = input_133_pad_0, pad_type = input_133_pad_type_0, strides = input_133_strides_0, weight = body_2_rdb2_conv2_weight_to_fp16, x = input_131_cast_fp16)[name = tensor<string, []>("input_133_cast_fp16")];
            tensor<fp16, [1, 32, 512, 512]> x2_15_cast_fp16 = leaky_relu(alpha = var_20_to_fp16, x = input_133_cast_fp16)[name = tensor<string, []>("x2_15_cast_fp16")];
            tensor<bool, []> input_135_interleave_0 = const()[name = tensor<string, []>("input_135_interleave_0"), val = tensor<bool, []>(false)];
            tensor<fp16, [1, 128, 512, 512]> input_135_cast_fp16 = concat(axis = var_21, interleave = input_135_interleave_0, values = (input_127_cast_fp16, x1_15_cast_fp16, x2_15_cast_fp16))[name = tensor<string, []>("input_135_cast_fp16")];
            tensor<string, []> input_137_pad_type_0 = const()[name = tensor<string, []>("input_137_pad_type_0"), val = tensor<string, []>("custom")];
            tensor<int32, [4]> input_137_pad_0 = const()[name = tensor<string, []>("input_137_pad_0"), val = tensor<int32, [4]>([1, 1, 1, 1])];
            tensor<int32, [2]> input_137_strides_0 = const()[name = tensor<string, []>("input_137_strides_0"), val = tensor<int32, [2]>([1, 1])];
            tensor<int32, [2]> input_137_dilations_0 = const()[name = tensor<string, []>("input_137_dilations_0"), val = tensor<int32, [2]>([1, 1])];
            tensor<int32, []> input_137_groups_0 = const()[name = tensor<string, []>("input_137_groups_0"), val = tensor<int32, []>(1)];
            tensor<fp16, [32, 128, 3, 3]> body_2_rdb2_conv3_weight_to_fp16 = const()[name = tensor<string, []>("body_2_rdb2_conv3_weight_to_fp16"), val = tensor<fp16, [32, 128, 3, 3]>(BLOBFILE(path = tensor<string, []>("@model_path/weights/weight.bin"), offset = tensor<uint64, []>(3458112)))];
            tensor<fp16, [32]> body_2_rdb2_conv3_bias_to_fp16 = const()[name = tensor<string, []>("body_2_rdb2_conv3_bias_to_fp16"), val = tensor<fp16, [32]>(BLOBFILE(path = tensor<string, []>("@model_path/weights/weight.bin"), offset = tensor<uint64, []>(3531904)))];
            tensor<fp16, [1, 32, 512, 512]> input_137_cast_fp16 = conv(bias = body_2_rdb2_conv3_bias_to_fp16, dilations = input_137_dilations_0, groups = input_137_groups_0, pad = input_137_pad_0, pad_type = input_137_pad_type_0, strides = input_137_strides_0, weight = body_2_rdb2_conv3_weight_to_fp16, x = input_135_cast_fp16)[name = tensor<string, []>("input_137_cast_fp16")];
            tensor<fp16, [1, 32, 512, 512]> x3_15_cast_fp16 = leaky_relu(alpha = var_20_to_fp16, x = input_137_cast_fp16)[name = tensor<string, []>("x3_15_cast_fp16")];
            tensor<bool, []> input_139_interleave_0 = const()[name = tensor<string, []>("input_139_interleave_0"), val = tensor<bool, []>(false)];
            tensor<fp16, [1, 160, 512, 512]> input_139_cast_fp16 = concat(axis = var_21, interleave = input_139_interleave_0, values = (input_127_cast_fp16, x1_15_cast_fp16, x2_15_cast_fp16, x3_15_cast_fp16))[name = tensor<string, []>("input_139_cast_fp16")];
            tensor<string, []> input_141_pad_type_0 = const()[name = tensor<string, []>("input_141_pad_type_0"), val = tensor<string, []>("custom")];
            tensor<int32, [4]> input_141_pad_0 = const()[name = tensor<string, []>("input_141_pad_0"), val = tensor<int32, [4]>([1, 1, 1, 1])];
            tensor<int32, [2]> input_141_strides_0 = const()[name = tensor<string, []>("input_141_strides_0"), val = tensor<int32, [2]>([1, 1])];
            tensor<int32, [2]> input_141_dilations_0 = const()[name = tensor<string, []>("input_141_dilations_0"), val = tensor<int32, [2]>([1, 1])];
            tensor<int32, []> input_141_groups_0 = const()[name = tensor<string, []>("input_141_groups_0"), val = tensor<int32, []>(1)];
            tensor<fp16, [32, 160, 3, 3]> body_2_rdb2_conv4_weight_to_fp16 = const()[name = tensor<string, []>("body_2_rdb2_conv4_weight_to_fp16"), val = tensor<fp16, [32, 160, 3, 3]>(BLOBFILE(path = tensor<string, []>("@model_path/weights/weight.bin"), offset = tensor<uint64, []>(3532032)))];
            tensor<fp16, [32]> body_2_rdb2_conv4_bias_to_fp16 = const()[name = tensor<string, []>("body_2_rdb2_conv4_bias_to_fp16"), val = tensor<fp16, [32]>(BLOBFILE(path = tensor<string, []>("@model_path/weights/weight.bin"), offset = tensor<uint64, []>(3624256)))];
            tensor<fp16, [1, 32, 512, 512]> input_141_cast_fp16 = conv(bias = body_2_rdb2_conv4_bias_to_fp16, dilations = input_141_dilations_0, groups = input_141_groups_0, pad = input_141_pad_0, pad_type = input_141_pad_type_0, strides = input_141_strides_0, weight = body_2_rdb2_conv4_weight_to_fp16, x = input_139_cast_fp16)[name = tensor<string, []>("input_141_cast_fp16")];
            tensor<fp16, [1, 32, 512, 512]> x4_15_cast_fp16 = leaky_relu(alpha = var_20_to_fp16, x = input_141_cast_fp16)[name = tensor<string, []>("x4_15_cast_fp16")];
            tensor<bool, []> input_143_interleave_0 = const()[name = tensor<string, []>("input_143_interleave_0"), val = tensor<bool, []>(false)];
            tensor<fp16, [1, 192, 512, 512]> input_143_cast_fp16 = concat(axis = var_21, interleave = input_143_interleave_0, values = (input_127_cast_fp16, x1_15_cast_fp16, x2_15_cast_fp16, x3_15_cast_fp16, x4_15_cast_fp16))[name = tensor<string, []>("input_143_cast_fp16")];
            tensor<string, []> x5_15_pad_type_0 = const()[name = tensor<string, []>("x5_15_pad_type_0"), val = tensor<string, []>("custom")];
            tensor<int32, [4]> x5_15_pad_0 = const()[name = tensor<string, []>("x5_15_pad_0"), val = tensor<int32, [4]>([1, 1, 1, 1])];
            tensor<int32, [2]> x5_15_strides_0 = const()[name = tensor<string, []>("x5_15_strides_0"), val = tensor<int32, [2]>([1, 1])];
            tensor<int32, [2]> x5_15_dilations_0 = const()[name = tensor<string, []>("x5_15_dilations_0"), val = tensor<int32, [2]>([1, 1])];
            tensor<int32, []> x5_15_groups_0 = const()[name = tensor<string, []>("x5_15_groups_0"), val = tensor<int32, []>(1)];
            tensor<fp16, [64, 192, 3, 3]> var_501_weight_0_to_fp16 = const()[name = tensor<string, []>("op_501_weight_0_to_fp16"), val = tensor<fp16, [64, 192, 3, 3]>(BLOBFILE(path = tensor<string, []>("@model_path/weights/weight.bin"), offset = tensor<uint64, []>(3624384)))];
            tensor<fp16, [64]> var_501_bias_0_to_fp16 = const()[name = tensor<string, []>("op_501_bias_0_to_fp16"), val = tensor<fp16, [64]>(BLOBFILE(path = tensor<string, []>("@model_path/weights/weight.bin"), offset = tensor<uint64, []>(3845632)))];
            tensor<fp16, [1, 64, 512, 512]> var_501_cast_fp16 = conv(bias = var_501_bias_0_to_fp16, dilations = x5_15_dilations_0, groups = x5_15_groups_0, pad = x5_15_pad_0, pad_type = x5_15_pad_type_0, strides = x5_15_strides_0, weight = var_501_weight_0_to_fp16, x = input_143_cast_fp16)[name = tensor<string, []>("op_501_cast_fp16")];
            tensor<fp16, [1, 64, 512, 512]> input_145_cast_fp16 = add(x = var_501_cast_fp16, y = input_127_cast_fp16)[name = tensor<string, []>("input_145_cast_fp16")];
            tensor<string, []> input_147_pad_type_0 = const()[name = tensor<string, []>("input_147_pad_type_0"), val = tensor<string, []>("custom")];
            tensor<int32, [4]> input_147_pad_0 = const()[name = tensor<string, []>("input_147_pad_0"), val = tensor<int32, [4]>([1, 1, 1, 1])];
            tensor<int32, [2]> input_147_strides_0 = const()[name = tensor<string, []>("input_147_strides_0"), val = tensor<int32, [2]>([1, 1])];
            tensor<int32, [2]> input_147_dilations_0 = const()[name = tensor<string, []>("input_147_dilations_0"), val = tensor<int32, [2]>([1, 1])];
            tensor<int32, []> input_147_groups_0 = const()[name = tensor<string, []>("input_147_groups_0"), val = tensor<int32, []>(1)];
            tensor<fp16, [32, 64, 3, 3]> body_2_rdb3_conv1_weight_to_fp16 = const()[name = tensor<string, []>("body_2_rdb3_conv1_weight_to_fp16"), val = tensor<fp16, [32, 64, 3, 3]>(BLOBFILE(path = tensor<string, []>("@model_path/weights/weight.bin"), offset = tensor<uint64, []>(3845824)))];
            tensor<fp16, [32]> body_2_rdb3_conv1_bias_to_fp16 = const()[name = tensor<string, []>("body_2_rdb3_conv1_bias_to_fp16"), val = tensor<fp16, [32]>(BLOBFILE(path = tensor<string, []>("@model_path/weights/weight.bin"), offset = tensor<uint64, []>(3882752)))];
            tensor<fp16, [1, 32, 512, 512]> input_147_cast_fp16 = conv(bias = body_2_rdb3_conv1_bias_to_fp16, dilations = input_147_dilations_0, groups = input_147_groups_0, pad = input_147_pad_0, pad_type = input_147_pad_type_0, strides = input_147_strides_0, weight = body_2_rdb3_conv1_weight_to_fp16, x = input_145_cast_fp16)[name = tensor<string, []>("input_147_cast_fp16")];
            tensor<fp16, [1, 32, 512, 512]> x1_17_cast_fp16 = leaky_relu(alpha = var_20_to_fp16, x = input_147_cast_fp16)[name = tensor<string, []>("x1_17_cast_fp16")];
            tensor<bool, []> input_149_interleave_0 = const()[name = tensor<string, []>("input_149_interleave_0"), val = tensor<bool, []>(false)];
            tensor<fp16, [1, 96, 512, 512]> input_149_cast_fp16 = concat(axis = var_21, interleave = input_149_interleave_0, values = (input_145_cast_fp16, x1_17_cast_fp16))[name = tensor<string, []>("input_149_cast_fp16")];
            tensor<string, []> input_151_pad_type_0 = const()[name = tensor<string, []>("input_151_pad_type_0"), val = tensor<string, []>("custom")];
            tensor<int32, [4]> input_151_pad_0 = const()[name = tensor<string, []>("input_151_pad_0"), val = tensor<int32, [4]>([1, 1, 1, 1])];
            tensor<int32, [2]> input_151_strides_0 = const()[name = tensor<string, []>("input_151_strides_0"), val = tensor<int32, [2]>([1, 1])];
            tensor<int32, [2]> input_151_dilations_0 = const()[name = tensor<string, []>("input_151_dilations_0"), val = tensor<int32, [2]>([1, 1])];
            tensor<int32, []> input_151_groups_0 = const()[name = tensor<string, []>("input_151_groups_0"), val = tensor<int32, []>(1)];
            tensor<fp16, [32, 96, 3, 3]> body_2_rdb3_conv2_weight_to_fp16 = const()[name = tensor<string, []>("body_2_rdb3_conv2_weight_to_fp16"), val = tensor<fp16, [32, 96, 3, 3]>(BLOBFILE(path = tensor<string, []>("@model_path/weights/weight.bin"), offset = tensor<uint64, []>(3882880)))];
            tensor<fp16, [32]> body_2_rdb3_conv2_bias_to_fp16 = const()[name = tensor<string, []>("body_2_rdb3_conv2_bias_to_fp16"), val = tensor<fp16, [32]>(BLOBFILE(path = tensor<string, []>("@model_path/weights/weight.bin"), offset = tensor<uint64, []>(3938240)))];
            tensor<fp16, [1, 32, 512, 512]> input_151_cast_fp16 = conv(bias = body_2_rdb3_conv2_bias_to_fp16, dilations = input_151_dilations_0, groups = input_151_groups_0, pad = input_151_pad_0, pad_type = input_151_pad_type_0, strides = input_151_strides_0, weight = body_2_rdb3_conv2_weight_to_fp16, x = input_149_cast_fp16)[name = tensor<string, []>("input_151_cast_fp16")];
            tensor<fp16, [1, 32, 512, 512]> x2_17_cast_fp16 = leaky_relu(alpha = var_20_to_fp16, x = input_151_cast_fp16)[name = tensor<string, []>("x2_17_cast_fp16")];
            tensor<bool, []> input_153_interleave_0 = const()[name = tensor<string, []>("input_153_interleave_0"), val = tensor<bool, []>(false)];
            tensor<fp16, [1, 128, 512, 512]> input_153_cast_fp16 = concat(axis = var_21, interleave = input_153_interleave_0, values = (input_145_cast_fp16, x1_17_cast_fp16, x2_17_cast_fp16))[name = tensor<string, []>("input_153_cast_fp16")];
            tensor<string, []> input_155_pad_type_0 = const()[name = tensor<string, []>("input_155_pad_type_0"), val = tensor<string, []>("custom")];
            tensor<int32, [4]> input_155_pad_0 = const()[name = tensor<string, []>("input_155_pad_0"), val = tensor<int32, [4]>([1, 1, 1, 1])];
            tensor<int32, [2]> input_155_strides_0 = const()[name = tensor<string, []>("input_155_strides_0"), val = tensor<int32, [2]>([1, 1])];
            tensor<int32, [2]> input_155_dilations_0 = const()[name = tensor<string, []>("input_155_dilations_0"), val = tensor<int32, [2]>([1, 1])];
            tensor<int32, []> input_155_groups_0 = const()[name = tensor<string, []>("input_155_groups_0"), val = tensor<int32, []>(1)];
            tensor<fp16, [32, 128, 3, 3]> body_2_rdb3_conv3_weight_to_fp16 = const()[name = tensor<string, []>("body_2_rdb3_conv3_weight_to_fp16"), val = tensor<fp16, [32, 128, 3, 3]>(BLOBFILE(path = tensor<string, []>("@model_path/weights/weight.bin"), offset = tensor<uint64, []>(3938368)))];
            tensor<fp16, [32]> body_2_rdb3_conv3_bias_to_fp16 = const()[name = tensor<string, []>("body_2_rdb3_conv3_bias_to_fp16"), val = tensor<fp16, [32]>(BLOBFILE(path = tensor<string, []>("@model_path/weights/weight.bin"), offset = tensor<uint64, []>(4012160)))];
            tensor<fp16, [1, 32, 512, 512]> input_155_cast_fp16 = conv(bias = body_2_rdb3_conv3_bias_to_fp16, dilations = input_155_dilations_0, groups = input_155_groups_0, pad = input_155_pad_0, pad_type = input_155_pad_type_0, strides = input_155_strides_0, weight = body_2_rdb3_conv3_weight_to_fp16, x = input_153_cast_fp16)[name = tensor<string, []>("input_155_cast_fp16")];
            tensor<fp16, [1, 32, 512, 512]> x3_17_cast_fp16 = leaky_relu(alpha = var_20_to_fp16, x = input_155_cast_fp16)[name = tensor<string, []>("x3_17_cast_fp16")];
            tensor<bool, []> input_157_interleave_0 = const()[name = tensor<string, []>("input_157_interleave_0"), val = tensor<bool, []>(false)];
            tensor<fp16, [1, 160, 512, 512]> input_157_cast_fp16 = concat(axis = var_21, interleave = input_157_interleave_0, values = (input_145_cast_fp16, x1_17_cast_fp16, x2_17_cast_fp16, x3_17_cast_fp16))[name = tensor<string, []>("input_157_cast_fp16")];
            tensor<string, []> input_159_pad_type_0 = const()[name = tensor<string, []>("input_159_pad_type_0"), val = tensor<string, []>("custom")];
            tensor<int32, [4]> input_159_pad_0 = const()[name = tensor<string, []>("input_159_pad_0"), val = tensor<int32, [4]>([1, 1, 1, 1])];
            tensor<int32, [2]> input_159_strides_0 = const()[name = tensor<string, []>("input_159_strides_0"), val = tensor<int32, [2]>([1, 1])];
            tensor<int32, [2]> input_159_dilations_0 = const()[name = tensor<string, []>("input_159_dilations_0"), val = tensor<int32, [2]>([1, 1])];
            tensor<int32, []> input_159_groups_0 = const()[name = tensor<string, []>("input_159_groups_0"), val = tensor<int32, []>(1)];
            tensor<fp16, [32, 160, 3, 3]> body_2_rdb3_conv4_weight_to_fp16 = const()[name = tensor<string, []>("body_2_rdb3_conv4_weight_to_fp16"), val = tensor<fp16, [32, 160, 3, 3]>(BLOBFILE(path = tensor<string, []>("@model_path/weights/weight.bin"), offset = tensor<uint64, []>(4012288)))];
            tensor<fp16, [32]> body_2_rdb3_conv4_bias_to_fp16 = const()[name = tensor<string, []>("body_2_rdb3_conv4_bias_to_fp16"), val = tensor<fp16, [32]>(BLOBFILE(path = tensor<string, []>("@model_path/weights/weight.bin"), offset = tensor<uint64, []>(4104512)))];
            tensor<fp16, [1, 32, 512, 512]> input_159_cast_fp16 = conv(bias = body_2_rdb3_conv4_bias_to_fp16, dilations = input_159_dilations_0, groups = input_159_groups_0, pad = input_159_pad_0, pad_type = input_159_pad_type_0, strides = input_159_strides_0, weight = body_2_rdb3_conv4_weight_to_fp16, x = input_157_cast_fp16)[name = tensor<string, []>("input_159_cast_fp16")];
            tensor<fp16, [1, 32, 512, 512]> x4_17_cast_fp16 = leaky_relu(alpha = var_20_to_fp16, x = input_159_cast_fp16)[name = tensor<string, []>("x4_17_cast_fp16")];
            tensor<bool, []> input_161_interleave_0 = const()[name = tensor<string, []>("input_161_interleave_0"), val = tensor<bool, []>(false)];
            tensor<fp16, [1, 192, 512, 512]> input_161_cast_fp16 = concat(axis = var_21, interleave = input_161_interleave_0, values = (input_145_cast_fp16, x1_17_cast_fp16, x2_17_cast_fp16, x3_17_cast_fp16, x4_17_cast_fp16))[name = tensor<string, []>("input_161_cast_fp16")];
            tensor<string, []> x5_17_pad_type_0 = const()[name = tensor<string, []>("x5_17_pad_type_0"), val = tensor<string, []>("custom")];
            tensor<int32, [4]> x5_17_pad_0 = const()[name = tensor<string, []>("x5_17_pad_0"), val = tensor<int32, [4]>([1, 1, 1, 1])];
            tensor<int32, [2]> x5_17_strides_0 = const()[name = tensor<string, []>("x5_17_strides_0"), val = tensor<int32, [2]>([1, 1])];
            tensor<int32, [2]> x5_17_dilations_0 = const()[name = tensor<string, []>("x5_17_dilations_0"), val = tensor<int32, [2]>([1, 1])];
            tensor<int32, []> x5_17_groups_0 = const()[name = tensor<string, []>("x5_17_groups_0"), val = tensor<int32, []>(1)];
            tensor<fp16, [64, 192, 3, 3]> var_556_weight_0_to_fp16 = const()[name = tensor<string, []>("op_556_weight_0_to_fp16"), val = tensor<fp16, [64, 192, 3, 3]>(BLOBFILE(path = tensor<string, []>("@model_path/weights/weight.bin"), offset = tensor<uint64, []>(4104640)))];
            tensor<fp16, [64]> var_556_bias_0_to_fp16 = const()[name = tensor<string, []>("op_556_bias_0_to_fp16"), val = tensor<fp16, [64]>(BLOBFILE(path = tensor<string, []>("@model_path/weights/weight.bin"), offset = tensor<uint64, []>(4325888)))];
            tensor<fp16, [1, 64, 512, 512]> var_556_cast_fp16 = conv(bias = var_556_bias_0_to_fp16, dilations = x5_17_dilations_0, groups = x5_17_groups_0, pad = x5_17_pad_0, pad_type = x5_17_pad_type_0, strides = x5_17_strides_0, weight = var_556_weight_0_to_fp16, x = input_161_cast_fp16)[name = tensor<string, []>("op_556_cast_fp16")];
            tensor<fp16, [1, 64, 512, 512]> out_5_cast_fp16 = add(x = var_556_cast_fp16, y = input_145_cast_fp16)[name = tensor<string, []>("out_5_cast_fp16")];
            tensor<fp16, []> var_558_to_fp16 = const()[name = tensor<string, []>("op_558_to_fp16"), val = tensor<fp16, []>(0x1.998p-3)];
            tensor<fp16, [1, 64, 512, 512]> var_559_cast_fp16 = mul(x = out_5_cast_fp16, y = var_558_to_fp16)[name = tensor<string, []>("op_559_cast_fp16")];
            tensor<fp16, [1, 64, 512, 512]> input_163_cast_fp16 = add(x = var_559_cast_fp16, y = input_109_cast_fp16)[name = tensor<string, []>("input_163_cast_fp16")];
            tensor<string, []> input_165_pad_type_0 = const()[name = tensor<string, []>("input_165_pad_type_0"), val = tensor<string, []>("custom")];
            tensor<int32, [4]> input_165_pad_0 = const()[name = tensor<string, []>("input_165_pad_0"), val = tensor<int32, [4]>([1, 1, 1, 1])];
            tensor<int32, [2]> input_165_strides_0 = const()[name = tensor<string, []>("input_165_strides_0"), val = tensor<int32, [2]>([1, 1])];
            tensor<int32, [2]> input_165_dilations_0 = const()[name = tensor<string, []>("input_165_dilations_0"), val = tensor<int32, [2]>([1, 1])];
            tensor<int32, []> input_165_groups_0 = const()[name = tensor<string, []>("input_165_groups_0"), val = tensor<int32, []>(1)];
            tensor<fp16, [32, 64, 3, 3]> body_3_rdb1_conv1_weight_to_fp16 = const()[name = tensor<string, []>("body_3_rdb1_conv1_weight_to_fp16"), val = tensor<fp16, [32, 64, 3, 3]>(BLOBFILE(path = tensor<string, []>("@model_path/weights/weight.bin"), offset = tensor<uint64, []>(4326080)))];
            tensor<fp16, [32]> body_3_rdb1_conv1_bias_to_fp16 = const()[name = tensor<string, []>("body_3_rdb1_conv1_bias_to_fp16"), val = tensor<fp16, [32]>(BLOBFILE(path = tensor<string, []>("@model_path/weights/weight.bin"), offset = tensor<uint64, []>(4363008)))];
            tensor<fp16, [1, 32, 512, 512]> input_165_cast_fp16 = conv(bias = body_3_rdb1_conv1_bias_to_fp16, dilations = input_165_dilations_0, groups = input_165_groups_0, pad = input_165_pad_0, pad_type = input_165_pad_type_0, strides = input_165_strides_0, weight = body_3_rdb1_conv1_weight_to_fp16, x = input_163_cast_fp16)[name = tensor<string, []>("input_165_cast_fp16")];
            tensor<fp16, [1, 32, 512, 512]> x1_19_cast_fp16 = leaky_relu(alpha = var_20_to_fp16, x = input_165_cast_fp16)[name = tensor<string, []>("x1_19_cast_fp16")];
            tensor<bool, []> input_167_interleave_0 = const()[name = tensor<string, []>("input_167_interleave_0"), val = tensor<bool, []>(false)];
            tensor<fp16, [1, 96, 512, 512]> input_167_cast_fp16 = concat(axis = var_21, interleave = input_167_interleave_0, values = (input_163_cast_fp16, x1_19_cast_fp16))[name = tensor<string, []>("input_167_cast_fp16")];
            tensor<string, []> input_169_pad_type_0 = const()[name = tensor<string, []>("input_169_pad_type_0"), val = tensor<string, []>("custom")];
            tensor<int32, [4]> input_169_pad_0 = const()[name = tensor<string, []>("input_169_pad_0"), val = tensor<int32, [4]>([1, 1, 1, 1])];
            tensor<int32, [2]> input_169_strides_0 = const()[name = tensor<string, []>("input_169_strides_0"), val = tensor<int32, [2]>([1, 1])];
            tensor<int32, [2]> input_169_dilations_0 = const()[name = tensor<string, []>("input_169_dilations_0"), val = tensor<int32, [2]>([1, 1])];
            tensor<int32, []> input_169_groups_0 = const()[name = tensor<string, []>("input_169_groups_0"), val = tensor<int32, []>(1)];
            tensor<fp16, [32, 96, 3, 3]> body_3_rdb1_conv2_weight_to_fp16 = const()[name = tensor<string, []>("body_3_rdb1_conv2_weight_to_fp16"), val = tensor<fp16, [32, 96, 3, 3]>(BLOBFILE(path = tensor<string, []>("@model_path/weights/weight.bin"), offset = tensor<uint64, []>(4363136)))];
            tensor<fp16, [32]> body_3_rdb1_conv2_bias_to_fp16 = const()[name = tensor<string, []>("body_3_rdb1_conv2_bias_to_fp16"), val = tensor<fp16, [32]>(BLOBFILE(path = tensor<string, []>("@model_path/weights/weight.bin"), offset = tensor<uint64, []>(4418496)))];
            tensor<fp16, [1, 32, 512, 512]> input_169_cast_fp16 = conv(bias = body_3_rdb1_conv2_bias_to_fp16, dilations = input_169_dilations_0, groups = input_169_groups_0, pad = input_169_pad_0, pad_type = input_169_pad_type_0, strides = input_169_strides_0, weight = body_3_rdb1_conv2_weight_to_fp16, x = input_167_cast_fp16)[name = tensor<string, []>("input_169_cast_fp16")];
            tensor<fp16, [1, 32, 512, 512]> x2_19_cast_fp16 = leaky_relu(alpha = var_20_to_fp16, x = input_169_cast_fp16)[name = tensor<string, []>("x2_19_cast_fp16")];
            tensor<bool, []> input_171_interleave_0 = const()[name = tensor<string, []>("input_171_interleave_0"), val = tensor<bool, []>(false)];
            tensor<fp16, [1, 128, 512, 512]> input_171_cast_fp16 = concat(axis = var_21, interleave = input_171_interleave_0, values = (input_163_cast_fp16, x1_19_cast_fp16, x2_19_cast_fp16))[name = tensor<string, []>("input_171_cast_fp16")];
            tensor<string, []> input_173_pad_type_0 = const()[name = tensor<string, []>("input_173_pad_type_0"), val = tensor<string, []>("custom")];
            tensor<int32, [4]> input_173_pad_0 = const()[name = tensor<string, []>("input_173_pad_0"), val = tensor<int32, [4]>([1, 1, 1, 1])];
            tensor<int32, [2]> input_173_strides_0 = const()[name = tensor<string, []>("input_173_strides_0"), val = tensor<int32, [2]>([1, 1])];
            tensor<int32, [2]> input_173_dilations_0 = const()[name = tensor<string, []>("input_173_dilations_0"), val = tensor<int32, [2]>([1, 1])];
            tensor<int32, []> input_173_groups_0 = const()[name = tensor<string, []>("input_173_groups_0"), val = tensor<int32, []>(1)];
            tensor<fp16, [32, 128, 3, 3]> body_3_rdb1_conv3_weight_to_fp16 = const()[name = tensor<string, []>("body_3_rdb1_conv3_weight_to_fp16"), val = tensor<fp16, [32, 128, 3, 3]>(BLOBFILE(path = tensor<string, []>("@model_path/weights/weight.bin"), offset = tensor<uint64, []>(4418624)))];
            tensor<fp16, [32]> body_3_rdb1_conv3_bias_to_fp16 = const()[name = tensor<string, []>("body_3_rdb1_conv3_bias_to_fp16"), val = tensor<fp16, [32]>(BLOBFILE(path = tensor<string, []>("@model_path/weights/weight.bin"), offset = tensor<uint64, []>(4492416)))];
            tensor<fp16, [1, 32, 512, 512]> input_173_cast_fp16 = conv(bias = body_3_rdb1_conv3_bias_to_fp16, dilations = input_173_dilations_0, groups = input_173_groups_0, pad = input_173_pad_0, pad_type = input_173_pad_type_0, strides = input_173_strides_0, weight = body_3_rdb1_conv3_weight_to_fp16, x = input_171_cast_fp16)[name = tensor<string, []>("input_173_cast_fp16")];
            tensor<fp16, [1, 32, 512, 512]> x3_19_cast_fp16 = leaky_relu(alpha = var_20_to_fp16, x = input_173_cast_fp16)[name = tensor<string, []>("x3_19_cast_fp16")];
            tensor<bool, []> input_175_interleave_0 = const()[name = tensor<string, []>("input_175_interleave_0"), val = tensor<bool, []>(false)];
            tensor<fp16, [1, 160, 512, 512]> input_175_cast_fp16 = concat(axis = var_21, interleave = input_175_interleave_0, values = (input_163_cast_fp16, x1_19_cast_fp16, x2_19_cast_fp16, x3_19_cast_fp16))[name = tensor<string, []>("input_175_cast_fp16")];
            tensor<string, []> input_177_pad_type_0 = const()[name = tensor<string, []>("input_177_pad_type_0"), val = tensor<string, []>("custom")];
            tensor<int32, [4]> input_177_pad_0 = const()[name = tensor<string, []>("input_177_pad_0"), val = tensor<int32, [4]>([1, 1, 1, 1])];
            tensor<int32, [2]> input_177_strides_0 = const()[name = tensor<string, []>("input_177_strides_0"), val = tensor<int32, [2]>([1, 1])];
            tensor<int32, [2]> input_177_dilations_0 = const()[name = tensor<string, []>("input_177_dilations_0"), val = tensor<int32, [2]>([1, 1])];
            tensor<int32, []> input_177_groups_0 = const()[name = tensor<string, []>("input_177_groups_0"), val = tensor<int32, []>(1)];
            tensor<fp16, [32, 160, 3, 3]> body_3_rdb1_conv4_weight_to_fp16 = const()[name = tensor<string, []>("body_3_rdb1_conv4_weight_to_fp16"), val = tensor<fp16, [32, 160, 3, 3]>(BLOBFILE(path = tensor<string, []>("@model_path/weights/weight.bin"), offset = tensor<uint64, []>(4492544)))];
            tensor<fp16, [32]> body_3_rdb1_conv4_bias_to_fp16 = const()[name = tensor<string, []>("body_3_rdb1_conv4_bias_to_fp16"), val = tensor<fp16, [32]>(BLOBFILE(path = tensor<string, []>("@model_path/weights/weight.bin"), offset = tensor<uint64, []>(4584768)))];
            tensor<fp16, [1, 32, 512, 512]> input_177_cast_fp16 = conv(bias = body_3_rdb1_conv4_bias_to_fp16, dilations = input_177_dilations_0, groups = input_177_groups_0, pad = input_177_pad_0, pad_type = input_177_pad_type_0, strides = input_177_strides_0, weight = body_3_rdb1_conv4_weight_to_fp16, x = input_175_cast_fp16)[name = tensor<string, []>("input_177_cast_fp16")];
            tensor<fp16, [1, 32, 512, 512]> x4_19_cast_fp16 = leaky_relu(alpha = var_20_to_fp16, x = input_177_cast_fp16)[name = tensor<string, []>("x4_19_cast_fp16")];
            tensor<bool, []> input_179_interleave_0 = const()[name = tensor<string, []>("input_179_interleave_0"), val = tensor<bool, []>(false)];
            tensor<fp16, [1, 192, 512, 512]> input_179_cast_fp16 = concat(axis = var_21, interleave = input_179_interleave_0, values = (input_163_cast_fp16, x1_19_cast_fp16, x2_19_cast_fp16, x3_19_cast_fp16, x4_19_cast_fp16))[name = tensor<string, []>("input_179_cast_fp16")];
            tensor<string, []> x5_19_pad_type_0 = const()[name = tensor<string, []>("x5_19_pad_type_0"), val = tensor<string, []>("custom")];
            tensor<int32, [4]> x5_19_pad_0 = const()[name = tensor<string, []>("x5_19_pad_0"), val = tensor<int32, [4]>([1, 1, 1, 1])];
            tensor<int32, [2]> x5_19_strides_0 = const()[name = tensor<string, []>("x5_19_strides_0"), val = tensor<int32, [2]>([1, 1])];
            tensor<int32, [2]> x5_19_dilations_0 = const()[name = tensor<string, []>("x5_19_dilations_0"), val = tensor<int32, [2]>([1, 1])];
            tensor<int32, []> x5_19_groups_0 = const()[name = tensor<string, []>("x5_19_groups_0"), val = tensor<int32, []>(1)];
            tensor<fp16, [64, 192, 3, 3]> var_617_weight_0_to_fp16 = const()[name = tensor<string, []>("op_617_weight_0_to_fp16"), val = tensor<fp16, [64, 192, 3, 3]>(BLOBFILE(path = tensor<string, []>("@model_path/weights/weight.bin"), offset = tensor<uint64, []>(4584896)))];
            tensor<fp16, [64]> var_617_bias_0_to_fp16 = const()[name = tensor<string, []>("op_617_bias_0_to_fp16"), val = tensor<fp16, [64]>(BLOBFILE(path = tensor<string, []>("@model_path/weights/weight.bin"), offset = tensor<uint64, []>(4806144)))];
            tensor<fp16, [1, 64, 512, 512]> var_617_cast_fp16 = conv(bias = var_617_bias_0_to_fp16, dilations = x5_19_dilations_0, groups = x5_19_groups_0, pad = x5_19_pad_0, pad_type = x5_19_pad_type_0, strides = x5_19_strides_0, weight = var_617_weight_0_to_fp16, x = input_179_cast_fp16)[name = tensor<string, []>("op_617_cast_fp16")];
            tensor<fp16, [1, 64, 512, 512]> input_181_cast_fp16 = add(x = var_617_cast_fp16, y = input_163_cast_fp16)[name = tensor<string, []>("input_181_cast_fp16")];
            tensor<string, []> input_183_pad_type_0 = const()[name = tensor<string, []>("input_183_pad_type_0"), val = tensor<string, []>("custom")];
            tensor<int32, [4]> input_183_pad_0 = const()[name = tensor<string, []>("input_183_pad_0"), val = tensor<int32, [4]>([1, 1, 1, 1])];
            tensor<int32, [2]> input_183_strides_0 = const()[name = tensor<string, []>("input_183_strides_0"), val = tensor<int32, [2]>([1, 1])];
            tensor<int32, [2]> input_183_dilations_0 = const()[name = tensor<string, []>("input_183_dilations_0"), val = tensor<int32, [2]>([1, 1])];
            tensor<int32, []> input_183_groups_0 = const()[name = tensor<string, []>("input_183_groups_0"), val = tensor<int32, []>(1)];
            tensor<fp16, [32, 64, 3, 3]> body_3_rdb2_conv1_weight_to_fp16 = const()[name = tensor<string, []>("body_3_rdb2_conv1_weight_to_fp16"), val = tensor<fp16, [32, 64, 3, 3]>(BLOBFILE(path = tensor<string, []>("@model_path/weights/weight.bin"), offset = tensor<uint64, []>(4806336)))];
            tensor<fp16, [32]> body_3_rdb2_conv1_bias_to_fp16 = const()[name = tensor<string, []>("body_3_rdb2_conv1_bias_to_fp16"), val = tensor<fp16, [32]>(BLOBFILE(path = tensor<string, []>("@model_path/weights/weight.bin"), offset = tensor<uint64, []>(4843264)))];
            tensor<fp16, [1, 32, 512, 512]> input_183_cast_fp16 = conv(bias = body_3_rdb2_conv1_bias_to_fp16, dilations = input_183_dilations_0, groups = input_183_groups_0, pad = input_183_pad_0, pad_type = input_183_pad_type_0, strides = input_183_strides_0, weight = body_3_rdb2_conv1_weight_to_fp16, x = input_181_cast_fp16)[name = tensor<string, []>("input_183_cast_fp16")];
            tensor<fp16, [1, 32, 512, 512]> x1_21_cast_fp16 = leaky_relu(alpha = var_20_to_fp16, x = input_183_cast_fp16)[name = tensor<string, []>("x1_21_cast_fp16")];
            tensor<bool, []> input_185_interleave_0 = const()[name = tensor<string, []>("input_185_interleave_0"), val = tensor<bool, []>(false)];
            tensor<fp16, [1, 96, 512, 512]> input_185_cast_fp16 = concat(axis = var_21, interleave = input_185_interleave_0, values = (input_181_cast_fp16, x1_21_cast_fp16))[name = tensor<string, []>("input_185_cast_fp16")];
            tensor<string, []> input_187_pad_type_0 = const()[name = tensor<string, []>("input_187_pad_type_0"), val = tensor<string, []>("custom")];
            tensor<int32, [4]> input_187_pad_0 = const()[name = tensor<string, []>("input_187_pad_0"), val = tensor<int32, [4]>([1, 1, 1, 1])];
            tensor<int32, [2]> input_187_strides_0 = const()[name = tensor<string, []>("input_187_strides_0"), val = tensor<int32, [2]>([1, 1])];
            tensor<int32, [2]> input_187_dilations_0 = const()[name = tensor<string, []>("input_187_dilations_0"), val = tensor<int32, [2]>([1, 1])];
            tensor<int32, []> input_187_groups_0 = const()[name = tensor<string, []>("input_187_groups_0"), val = tensor<int32, []>(1)];
            tensor<fp16, [32, 96, 3, 3]> body_3_rdb2_conv2_weight_to_fp16 = const()[name = tensor<string, []>("body_3_rdb2_conv2_weight_to_fp16"), val = tensor<fp16, [32, 96, 3, 3]>(BLOBFILE(path = tensor<string, []>("@model_path/weights/weight.bin"), offset = tensor<uint64, []>(4843392)))];
            tensor<fp16, [32]> body_3_rdb2_conv2_bias_to_fp16 = const()[name = tensor<string, []>("body_3_rdb2_conv2_bias_to_fp16"), val = tensor<fp16, [32]>(BLOBFILE(path = tensor<string, []>("@model_path/weights/weight.bin"), offset = tensor<uint64, []>(4898752)))];
            tensor<fp16, [1, 32, 512, 512]> input_187_cast_fp16 = conv(bias = body_3_rdb2_conv2_bias_to_fp16, dilations = input_187_dilations_0, groups = input_187_groups_0, pad = input_187_pad_0, pad_type = input_187_pad_type_0, strides = input_187_strides_0, weight = body_3_rdb2_conv2_weight_to_fp16, x = input_185_cast_fp16)[name = tensor<string, []>("input_187_cast_fp16")];
            tensor<fp16, [1, 32, 512, 512]> x2_21_cast_fp16 = leaky_relu(alpha = var_20_to_fp16, x = input_187_cast_fp16)[name = tensor<string, []>("x2_21_cast_fp16")];
            tensor<bool, []> input_189_interleave_0 = const()[name = tensor<string, []>("input_189_interleave_0"), val = tensor<bool, []>(false)];
            tensor<fp16, [1, 128, 512, 512]> input_189_cast_fp16 = concat(axis = var_21, interleave = input_189_interleave_0, values = (input_181_cast_fp16, x1_21_cast_fp16, x2_21_cast_fp16))[name = tensor<string, []>("input_189_cast_fp16")];
            tensor<string, []> input_191_pad_type_0 = const()[name = tensor<string, []>("input_191_pad_type_0"), val = tensor<string, []>("custom")];
            tensor<int32, [4]> input_191_pad_0 = const()[name = tensor<string, []>("input_191_pad_0"), val = tensor<int32, [4]>([1, 1, 1, 1])];
            tensor<int32, [2]> input_191_strides_0 = const()[name = tensor<string, []>("input_191_strides_0"), val = tensor<int32, [2]>([1, 1])];
            tensor<int32, [2]> input_191_dilations_0 = const()[name = tensor<string, []>("input_191_dilations_0"), val = tensor<int32, [2]>([1, 1])];
            tensor<int32, []> input_191_groups_0 = const()[name = tensor<string, []>("input_191_groups_0"), val = tensor<int32, []>(1)];
            tensor<fp16, [32, 128, 3, 3]> body_3_rdb2_conv3_weight_to_fp16 = const()[name = tensor<string, []>("body_3_rdb2_conv3_weight_to_fp16"), val = tensor<fp16, [32, 128, 3, 3]>(BLOBFILE(path = tensor<string, []>("@model_path/weights/weight.bin"), offset = tensor<uint64, []>(4898880)))];
            tensor<fp16, [32]> body_3_rdb2_conv3_bias_to_fp16 = const()[name = tensor<string, []>("body_3_rdb2_conv3_bias_to_fp16"), val = tensor<fp16, [32]>(BLOBFILE(path = tensor<string, []>("@model_path/weights/weight.bin"), offset = tensor<uint64, []>(4972672)))];
            tensor<fp16, [1, 32, 512, 512]> input_191_cast_fp16 = conv(bias = body_3_rdb2_conv3_bias_to_fp16, dilations = input_191_dilations_0, groups = input_191_groups_0, pad = input_191_pad_0, pad_type = input_191_pad_type_0, strides = input_191_strides_0, weight = body_3_rdb2_conv3_weight_to_fp16, x = input_189_cast_fp16)[name = tensor<string, []>("input_191_cast_fp16")];
            tensor<fp16, [1, 32, 512, 512]> x3_21_cast_fp16 = leaky_relu(alpha = var_20_to_fp16, x = input_191_cast_fp16)[name = tensor<string, []>("x3_21_cast_fp16")];
            tensor<bool, []> input_193_interleave_0 = const()[name = tensor<string, []>("input_193_interleave_0"), val = tensor<bool, []>(false)];
            tensor<fp16, [1, 160, 512, 512]> input_193_cast_fp16 = concat(axis = var_21, interleave = input_193_interleave_0, values = (input_181_cast_fp16, x1_21_cast_fp16, x2_21_cast_fp16, x3_21_cast_fp16))[name = tensor<string, []>("input_193_cast_fp16")];
            tensor<string, []> input_195_pad_type_0 = const()[name = tensor<string, []>("input_195_pad_type_0"), val = tensor<string, []>("custom")];
            tensor<int32, [4]> input_195_pad_0 = const()[name = tensor<string, []>("input_195_pad_0"), val = tensor<int32, [4]>([1, 1, 1, 1])];
            tensor<int32, [2]> input_195_strides_0 = const()[name = tensor<string, []>("input_195_strides_0"), val = tensor<int32, [2]>([1, 1])];
            tensor<int32, [2]> input_195_dilations_0 = const()[name = tensor<string, []>("input_195_dilations_0"), val = tensor<int32, [2]>([1, 1])];
            tensor<int32, []> input_195_groups_0 = const()[name = tensor<string, []>("input_195_groups_0"), val = tensor<int32, []>(1)];
            tensor<fp16, [32, 160, 3, 3]> body_3_rdb2_conv4_weight_to_fp16 = const()[name = tensor<string, []>("body_3_rdb2_conv4_weight_to_fp16"), val = tensor<fp16, [32, 160, 3, 3]>(BLOBFILE(path = tensor<string, []>("@model_path/weights/weight.bin"), offset = tensor<uint64, []>(4972800)))];
            tensor<fp16, [32]> body_3_rdb2_conv4_bias_to_fp16 = const()[name = tensor<string, []>("body_3_rdb2_conv4_bias_to_fp16"), val = tensor<fp16, [32]>(BLOBFILE(path = tensor<string, []>("@model_path/weights/weight.bin"), offset = tensor<uint64, []>(5065024)))];
            tensor<fp16, [1, 32, 512, 512]> input_195_cast_fp16 = conv(bias = body_3_rdb2_conv4_bias_to_fp16, dilations = input_195_dilations_0, groups = input_195_groups_0, pad = input_195_pad_0, pad_type = input_195_pad_type_0, strides = input_195_strides_0, weight = body_3_rdb2_conv4_weight_to_fp16, x = input_193_cast_fp16)[name = tensor<string, []>("input_195_cast_fp16")];
            tensor<fp16, [1, 32, 512, 512]> x4_21_cast_fp16 = leaky_relu(alpha = var_20_to_fp16, x = input_195_cast_fp16)[name = tensor<string, []>("x4_21_cast_fp16")];
            tensor<bool, []> input_197_interleave_0 = const()[name = tensor<string, []>("input_197_interleave_0"), val = tensor<bool, []>(false)];
            tensor<fp16, [1, 192, 512, 512]> input_197_cast_fp16 = concat(axis = var_21, interleave = input_197_interleave_0, values = (input_181_cast_fp16, x1_21_cast_fp16, x2_21_cast_fp16, x3_21_cast_fp16, x4_21_cast_fp16))[name = tensor<string, []>("input_197_cast_fp16")];
            tensor<string, []> x5_21_pad_type_0 = const()[name = tensor<string, []>("x5_21_pad_type_0"), val = tensor<string, []>("custom")];
            tensor<int32, [4]> x5_21_pad_0 = const()[name = tensor<string, []>("x5_21_pad_0"), val = tensor<int32, [4]>([1, 1, 1, 1])];
            tensor<int32, [2]> x5_21_strides_0 = const()[name = tensor<string, []>("x5_21_strides_0"), val = tensor<int32, [2]>([1, 1])];
            tensor<int32, [2]> x5_21_dilations_0 = const()[name = tensor<string, []>("x5_21_dilations_0"), val = tensor<int32, [2]>([1, 1])];
            tensor<int32, []> x5_21_groups_0 = const()[name = tensor<string, []>("x5_21_groups_0"), val = tensor<int32, []>(1)];
            tensor<fp16, [64, 192, 3, 3]> var_672_weight_0_to_fp16 = const()[name = tensor<string, []>("op_672_weight_0_to_fp16"), val = tensor<fp16, [64, 192, 3, 3]>(BLOBFILE(path = tensor<string, []>("@model_path/weights/weight.bin"), offset = tensor<uint64, []>(5065152)))];
            tensor<fp16, [64]> var_672_bias_0_to_fp16 = const()[name = tensor<string, []>("op_672_bias_0_to_fp16"), val = tensor<fp16, [64]>(BLOBFILE(path = tensor<string, []>("@model_path/weights/weight.bin"), offset = tensor<uint64, []>(5286400)))];
            tensor<fp16, [1, 64, 512, 512]> var_672_cast_fp16 = conv(bias = var_672_bias_0_to_fp16, dilations = x5_21_dilations_0, groups = x5_21_groups_0, pad = x5_21_pad_0, pad_type = x5_21_pad_type_0, strides = x5_21_strides_0, weight = var_672_weight_0_to_fp16, x = input_197_cast_fp16)[name = tensor<string, []>("op_672_cast_fp16")];
            tensor<fp16, [1, 64, 512, 512]> input_199_cast_fp16 = add(x = var_672_cast_fp16, y = input_181_cast_fp16)[name = tensor<string, []>("input_199_cast_fp16")];
            tensor<string, []> input_201_pad_type_0 = const()[name = tensor<string, []>("input_201_pad_type_0"), val = tensor<string, []>("custom")];
            tensor<int32, [4]> input_201_pad_0 = const()[name = tensor<string, []>("input_201_pad_0"), val = tensor<int32, [4]>([1, 1, 1, 1])];
            tensor<int32, [2]> input_201_strides_0 = const()[name = tensor<string, []>("input_201_strides_0"), val = tensor<int32, [2]>([1, 1])];
            tensor<int32, [2]> input_201_dilations_0 = const()[name = tensor<string, []>("input_201_dilations_0"), val = tensor<int32, [2]>([1, 1])];
            tensor<int32, []> input_201_groups_0 = const()[name = tensor<string, []>("input_201_groups_0"), val = tensor<int32, []>(1)];
            tensor<fp16, [32, 64, 3, 3]> body_3_rdb3_conv1_weight_to_fp16 = const()[name = tensor<string, []>("body_3_rdb3_conv1_weight_to_fp16"), val = tensor<fp16, [32, 64, 3, 3]>(BLOBFILE(path = tensor<string, []>("@model_path/weights/weight.bin"), offset = tensor<uint64, []>(5286592)))];
            tensor<fp16, [32]> body_3_rdb3_conv1_bias_to_fp16 = const()[name = tensor<string, []>("body_3_rdb3_conv1_bias_to_fp16"), val = tensor<fp16, [32]>(BLOBFILE(path = tensor<string, []>("@model_path/weights/weight.bin"), offset = tensor<uint64, []>(5323520)))];
            tensor<fp16, [1, 32, 512, 512]> input_201_cast_fp16 = conv(bias = body_3_rdb3_conv1_bias_to_fp16, dilations = input_201_dilations_0, groups = input_201_groups_0, pad = input_201_pad_0, pad_type = input_201_pad_type_0, strides = input_201_strides_0, weight = body_3_rdb3_conv1_weight_to_fp16, x = input_199_cast_fp16)[name = tensor<string, []>("input_201_cast_fp16")];
            tensor<fp16, [1, 32, 512, 512]> x1_23_cast_fp16 = leaky_relu(alpha = var_20_to_fp16, x = input_201_cast_fp16)[name = tensor<string, []>("x1_23_cast_fp16")];
            tensor<bool, []> input_203_interleave_0 = const()[name = tensor<string, []>("input_203_interleave_0"), val = tensor<bool, []>(false)];
            tensor<fp16, [1, 96, 512, 512]> input_203_cast_fp16 = concat(axis = var_21, interleave = input_203_interleave_0, values = (input_199_cast_fp16, x1_23_cast_fp16))[name = tensor<string, []>("input_203_cast_fp16")];
            tensor<string, []> input_205_pad_type_0 = const()[name = tensor<string, []>("input_205_pad_type_0"), val = tensor<string, []>("custom")];
            tensor<int32, [4]> input_205_pad_0 = const()[name = tensor<string, []>("input_205_pad_0"), val = tensor<int32, [4]>([1, 1, 1, 1])];
            tensor<int32, [2]> input_205_strides_0 = const()[name = tensor<string, []>("input_205_strides_0"), val = tensor<int32, [2]>([1, 1])];
            tensor<int32, [2]> input_205_dilations_0 = const()[name = tensor<string, []>("input_205_dilations_0"), val = tensor<int32, [2]>([1, 1])];
            tensor<int32, []> input_205_groups_0 = const()[name = tensor<string, []>("input_205_groups_0"), val = tensor<int32, []>(1)];
            tensor<fp16, [32, 96, 3, 3]> body_3_rdb3_conv2_weight_to_fp16 = const()[name = tensor<string, []>("body_3_rdb3_conv2_weight_to_fp16"), val = tensor<fp16, [32, 96, 3, 3]>(BLOBFILE(path = tensor<string, []>("@model_path/weights/weight.bin"), offset = tensor<uint64, []>(5323648)))];
            tensor<fp16, [32]> body_3_rdb3_conv2_bias_to_fp16 = const()[name = tensor<string, []>("body_3_rdb3_conv2_bias_to_fp16"), val = tensor<fp16, [32]>(BLOBFILE(path = tensor<string, []>("@model_path/weights/weight.bin"), offset = tensor<uint64, []>(5379008)))];
            tensor<fp16, [1, 32, 512, 512]> input_205_cast_fp16 = conv(bias = body_3_rdb3_conv2_bias_to_fp16, dilations = input_205_dilations_0, groups = input_205_groups_0, pad = input_205_pad_0, pad_type = input_205_pad_type_0, strides = input_205_strides_0, weight = body_3_rdb3_conv2_weight_to_fp16, x = input_203_cast_fp16)[name = tensor<string, []>("input_205_cast_fp16")];
            tensor<fp16, [1, 32, 512, 512]> x2_23_cast_fp16 = leaky_relu(alpha = var_20_to_fp16, x = input_205_cast_fp16)[name = tensor<string, []>("x2_23_cast_fp16")];
            tensor<bool, []> input_207_interleave_0 = const()[name = tensor<string, []>("input_207_interleave_0"), val = tensor<bool, []>(false)];
            tensor<fp16, [1, 128, 512, 512]> input_207_cast_fp16 = concat(axis = var_21, interleave = input_207_interleave_0, values = (input_199_cast_fp16, x1_23_cast_fp16, x2_23_cast_fp16))[name = tensor<string, []>("input_207_cast_fp16")];
            tensor<string, []> input_209_pad_type_0 = const()[name = tensor<string, []>("input_209_pad_type_0"), val = tensor<string, []>("custom")];
            tensor<int32, [4]> input_209_pad_0 = const()[name = tensor<string, []>("input_209_pad_0"), val = tensor<int32, [4]>([1, 1, 1, 1])];
            tensor<int32, [2]> input_209_strides_0 = const()[name = tensor<string, []>("input_209_strides_0"), val = tensor<int32, [2]>([1, 1])];
            tensor<int32, [2]> input_209_dilations_0 = const()[name = tensor<string, []>("input_209_dilations_0"), val = tensor<int32, [2]>([1, 1])];
            tensor<int32, []> input_209_groups_0 = const()[name = tensor<string, []>("input_209_groups_0"), val = tensor<int32, []>(1)];
            tensor<fp16, [32, 128, 3, 3]> body_3_rdb3_conv3_weight_to_fp16 = const()[name = tensor<string, []>("body_3_rdb3_conv3_weight_to_fp16"), val = tensor<fp16, [32, 128, 3, 3]>(BLOBFILE(path = tensor<string, []>("@model_path/weights/weight.bin"), offset = tensor<uint64, []>(5379136)))];
            tensor<fp16, [32]> body_3_rdb3_conv3_bias_to_fp16 = const()[name = tensor<string, []>("body_3_rdb3_conv3_bias_to_fp16"), val = tensor<fp16, [32]>(BLOBFILE(path = tensor<string, []>("@model_path/weights/weight.bin"), offset = tensor<uint64, []>(5452928)))];
            tensor<fp16, [1, 32, 512, 512]> input_209_cast_fp16 = conv(bias = body_3_rdb3_conv3_bias_to_fp16, dilations = input_209_dilations_0, groups = input_209_groups_0, pad = input_209_pad_0, pad_type = input_209_pad_type_0, strides = input_209_strides_0, weight = body_3_rdb3_conv3_weight_to_fp16, x = input_207_cast_fp16)[name = tensor<string, []>("input_209_cast_fp16")];
            tensor<fp16, [1, 32, 512, 512]> x3_23_cast_fp16 = leaky_relu(alpha = var_20_to_fp16, x = input_209_cast_fp16)[name = tensor<string, []>("x3_23_cast_fp16")];
            tensor<bool, []> input_211_interleave_0 = const()[name = tensor<string, []>("input_211_interleave_0"), val = tensor<bool, []>(false)];
            tensor<fp16, [1, 160, 512, 512]> input_211_cast_fp16 = concat(axis = var_21, interleave = input_211_interleave_0, values = (input_199_cast_fp16, x1_23_cast_fp16, x2_23_cast_fp16, x3_23_cast_fp16))[name = tensor<string, []>("input_211_cast_fp16")];
            tensor<string, []> input_213_pad_type_0 = const()[name = tensor<string, []>("input_213_pad_type_0"), val = tensor<string, []>("custom")];
            tensor<int32, [4]> input_213_pad_0 = const()[name = tensor<string, []>("input_213_pad_0"), val = tensor<int32, [4]>([1, 1, 1, 1])];
            tensor<int32, [2]> input_213_strides_0 = const()[name = tensor<string, []>("input_213_strides_0"), val = tensor<int32, [2]>([1, 1])];
            tensor<int32, [2]> input_213_dilations_0 = const()[name = tensor<string, []>("input_213_dilations_0"), val = tensor<int32, [2]>([1, 1])];
            tensor<int32, []> input_213_groups_0 = const()[name = tensor<string, []>("input_213_groups_0"), val = tensor<int32, []>(1)];
            tensor<fp16, [32, 160, 3, 3]> body_3_rdb3_conv4_weight_to_fp16 = const()[name = tensor<string, []>("body_3_rdb3_conv4_weight_to_fp16"), val = tensor<fp16, [32, 160, 3, 3]>(BLOBFILE(path = tensor<string, []>("@model_path/weights/weight.bin"), offset = tensor<uint64, []>(5453056)))];
            tensor<fp16, [32]> body_3_rdb3_conv4_bias_to_fp16 = const()[name = tensor<string, []>("body_3_rdb3_conv4_bias_to_fp16"), val = tensor<fp16, [32]>(BLOBFILE(path = tensor<string, []>("@model_path/weights/weight.bin"), offset = tensor<uint64, []>(5545280)))];
            tensor<fp16, [1, 32, 512, 512]> input_213_cast_fp16 = conv(bias = body_3_rdb3_conv4_bias_to_fp16, dilations = input_213_dilations_0, groups = input_213_groups_0, pad = input_213_pad_0, pad_type = input_213_pad_type_0, strides = input_213_strides_0, weight = body_3_rdb3_conv4_weight_to_fp16, x = input_211_cast_fp16)[name = tensor<string, []>("input_213_cast_fp16")];
            tensor<fp16, [1, 32, 512, 512]> x4_23_cast_fp16 = leaky_relu(alpha = var_20_to_fp16, x = input_213_cast_fp16)[name = tensor<string, []>("x4_23_cast_fp16")];
            tensor<bool, []> input_215_interleave_0 = const()[name = tensor<string, []>("input_215_interleave_0"), val = tensor<bool, []>(false)];
            tensor<fp16, [1, 192, 512, 512]> input_215_cast_fp16 = concat(axis = var_21, interleave = input_215_interleave_0, values = (input_199_cast_fp16, x1_23_cast_fp16, x2_23_cast_fp16, x3_23_cast_fp16, x4_23_cast_fp16))[name = tensor<string, []>("input_215_cast_fp16")];
            tensor<string, []> x5_23_pad_type_0 = const()[name = tensor<string, []>("x5_23_pad_type_0"), val = tensor<string, []>("custom")];
            tensor<int32, [4]> x5_23_pad_0 = const()[name = tensor<string, []>("x5_23_pad_0"), val = tensor<int32, [4]>([1, 1, 1, 1])];
            tensor<int32, [2]> x5_23_strides_0 = const()[name = tensor<string, []>("x5_23_strides_0"), val = tensor<int32, [2]>([1, 1])];
            tensor<int32, [2]> x5_23_dilations_0 = const()[name = tensor<string, []>("x5_23_dilations_0"), val = tensor<int32, [2]>([1, 1])];
            tensor<int32, []> x5_23_groups_0 = const()[name = tensor<string, []>("x5_23_groups_0"), val = tensor<int32, []>(1)];
            tensor<fp16, [64, 192, 3, 3]> var_727_weight_0_to_fp16 = const()[name = tensor<string, []>("op_727_weight_0_to_fp16"), val = tensor<fp16, [64, 192, 3, 3]>(BLOBFILE(path = tensor<string, []>("@model_path/weights/weight.bin"), offset = tensor<uint64, []>(5545408)))];
            tensor<fp16, [64]> var_727_bias_0_to_fp16 = const()[name = tensor<string, []>("op_727_bias_0_to_fp16"), val = tensor<fp16, [64]>(BLOBFILE(path = tensor<string, []>("@model_path/weights/weight.bin"), offset = tensor<uint64, []>(5766656)))];
            tensor<fp16, [1, 64, 512, 512]> var_727_cast_fp16 = conv(bias = var_727_bias_0_to_fp16, dilations = x5_23_dilations_0, groups = x5_23_groups_0, pad = x5_23_pad_0, pad_type = x5_23_pad_type_0, strides = x5_23_strides_0, weight = var_727_weight_0_to_fp16, x = input_215_cast_fp16)[name = tensor<string, []>("op_727_cast_fp16")];
            tensor<fp16, [1, 64, 512, 512]> out_7_cast_fp16 = add(x = var_727_cast_fp16, y = input_199_cast_fp16)[name = tensor<string, []>("out_7_cast_fp16")];
            tensor<fp16, []> var_729_to_fp16 = const()[name = tensor<string, []>("op_729_to_fp16"), val = tensor<fp16, []>(0x1.998p-3)];
            tensor<fp16, [1, 64, 512, 512]> var_730_cast_fp16 = mul(x = out_7_cast_fp16, y = var_729_to_fp16)[name = tensor<string, []>("op_730_cast_fp16")];
            tensor<fp16, [1, 64, 512, 512]> input_217_cast_fp16 = add(x = var_730_cast_fp16, y = input_163_cast_fp16)[name = tensor<string, []>("input_217_cast_fp16")];
            tensor<string, []> input_219_pad_type_0 = const()[name = tensor<string, []>("input_219_pad_type_0"), val = tensor<string, []>("custom")];
            tensor<int32, [4]> input_219_pad_0 = const()[name = tensor<string, []>("input_219_pad_0"), val = tensor<int32, [4]>([1, 1, 1, 1])];
            tensor<int32, [2]> input_219_strides_0 = const()[name = tensor<string, []>("input_219_strides_0"), val = tensor<int32, [2]>([1, 1])];
            tensor<int32, [2]> input_219_dilations_0 = const()[name = tensor<string, []>("input_219_dilations_0"), val = tensor<int32, [2]>([1, 1])];
            tensor<int32, []> input_219_groups_0 = const()[name = tensor<string, []>("input_219_groups_0"), val = tensor<int32, []>(1)];
            tensor<fp16, [32, 64, 3, 3]> body_4_rdb1_conv1_weight_to_fp16 = const()[name = tensor<string, []>("body_4_rdb1_conv1_weight_to_fp16"), val = tensor<fp16, [32, 64, 3, 3]>(BLOBFILE(path = tensor<string, []>("@model_path/weights/weight.bin"), offset = tensor<uint64, []>(5766848)))];
            tensor<fp16, [32]> body_4_rdb1_conv1_bias_to_fp16 = const()[name = tensor<string, []>("body_4_rdb1_conv1_bias_to_fp16"), val = tensor<fp16, [32]>(BLOBFILE(path = tensor<string, []>("@model_path/weights/weight.bin"), offset = tensor<uint64, []>(5803776)))];
            tensor<fp16, [1, 32, 512, 512]> input_219_cast_fp16 = conv(bias = body_4_rdb1_conv1_bias_to_fp16, dilations = input_219_dilations_0, groups = input_219_groups_0, pad = input_219_pad_0, pad_type = input_219_pad_type_0, strides = input_219_strides_0, weight = body_4_rdb1_conv1_weight_to_fp16, x = input_217_cast_fp16)[name = tensor<string, []>("input_219_cast_fp16")];
            tensor<fp16, [1, 32, 512, 512]> x1_25_cast_fp16 = leaky_relu(alpha = var_20_to_fp16, x = input_219_cast_fp16)[name = tensor<string, []>("x1_25_cast_fp16")];
            tensor<bool, []> input_221_interleave_0 = const()[name = tensor<string, []>("input_221_interleave_0"), val = tensor<bool, []>(false)];
            tensor<fp16, [1, 96, 512, 512]> input_221_cast_fp16 = concat(axis = var_21, interleave = input_221_interleave_0, values = (input_217_cast_fp16, x1_25_cast_fp16))[name = tensor<string, []>("input_221_cast_fp16")];
            tensor<string, []> input_223_pad_type_0 = const()[name = tensor<string, []>("input_223_pad_type_0"), val = tensor<string, []>("custom")];
            tensor<int32, [4]> input_223_pad_0 = const()[name = tensor<string, []>("input_223_pad_0"), val = tensor<int32, [4]>([1, 1, 1, 1])];
            tensor<int32, [2]> input_223_strides_0 = const()[name = tensor<string, []>("input_223_strides_0"), val = tensor<int32, [2]>([1, 1])];
            tensor<int32, [2]> input_223_dilations_0 = const()[name = tensor<string, []>("input_223_dilations_0"), val = tensor<int32, [2]>([1, 1])];
            tensor<int32, []> input_223_groups_0 = const()[name = tensor<string, []>("input_223_groups_0"), val = tensor<int32, []>(1)];
            tensor<fp16, [32, 96, 3, 3]> body_4_rdb1_conv2_weight_to_fp16 = const()[name = tensor<string, []>("body_4_rdb1_conv2_weight_to_fp16"), val = tensor<fp16, [32, 96, 3, 3]>(BLOBFILE(path = tensor<string, []>("@model_path/weights/weight.bin"), offset = tensor<uint64, []>(5803904)))];
            tensor<fp16, [32]> body_4_rdb1_conv2_bias_to_fp16 = const()[name = tensor<string, []>("body_4_rdb1_conv2_bias_to_fp16"), val = tensor<fp16, [32]>(BLOBFILE(path = tensor<string, []>("@model_path/weights/weight.bin"), offset = tensor<uint64, []>(5859264)))];
            tensor<fp16, [1, 32, 512, 512]> input_223_cast_fp16 = conv(bias = body_4_rdb1_conv2_bias_to_fp16, dilations = input_223_dilations_0, groups = input_223_groups_0, pad = input_223_pad_0, pad_type = input_223_pad_type_0, strides = input_223_strides_0, weight = body_4_rdb1_conv2_weight_to_fp16, x = input_221_cast_fp16)[name = tensor<string, []>("input_223_cast_fp16")];
            tensor<fp16, [1, 32, 512, 512]> x2_25_cast_fp16 = leaky_relu(alpha = var_20_to_fp16, x = input_223_cast_fp16)[name = tensor<string, []>("x2_25_cast_fp16")];
            tensor<bool, []> input_225_interleave_0 = const()[name = tensor<string, []>("input_225_interleave_0"), val = tensor<bool, []>(false)];
            tensor<fp16, [1, 128, 512, 512]> input_225_cast_fp16 = concat(axis = var_21, interleave = input_225_interleave_0, values = (input_217_cast_fp16, x1_25_cast_fp16, x2_25_cast_fp16))[name = tensor<string, []>("input_225_cast_fp16")];
            tensor<string, []> input_227_pad_type_0 = const()[name = tensor<string, []>("input_227_pad_type_0"), val = tensor<string, []>("custom")];
            tensor<int32, [4]> input_227_pad_0 = const()[name = tensor<string, []>("input_227_pad_0"), val = tensor<int32, [4]>([1, 1, 1, 1])];
            tensor<int32, [2]> input_227_strides_0 = const()[name = tensor<string, []>("input_227_strides_0"), val = tensor<int32, [2]>([1, 1])];
            tensor<int32, [2]> input_227_dilations_0 = const()[name = tensor<string, []>("input_227_dilations_0"), val = tensor<int32, [2]>([1, 1])];
            tensor<int32, []> input_227_groups_0 = const()[name = tensor<string, []>("input_227_groups_0"), val = tensor<int32, []>(1)];
            tensor<fp16, [32, 128, 3, 3]> body_4_rdb1_conv3_weight_to_fp16 = const()[name = tensor<string, []>("body_4_rdb1_conv3_weight_to_fp16"), val = tensor<fp16, [32, 128, 3, 3]>(BLOBFILE(path = tensor<string, []>("@model_path/weights/weight.bin"), offset = tensor<uint64, []>(5859392)))];
            tensor<fp16, [32]> body_4_rdb1_conv3_bias_to_fp16 = const()[name = tensor<string, []>("body_4_rdb1_conv3_bias_to_fp16"), val = tensor<fp16, [32]>(BLOBFILE(path = tensor<string, []>("@model_path/weights/weight.bin"), offset = tensor<uint64, []>(5933184)))];
            tensor<fp16, [1, 32, 512, 512]> input_227_cast_fp16 = conv(bias = body_4_rdb1_conv3_bias_to_fp16, dilations = input_227_dilations_0, groups = input_227_groups_0, pad = input_227_pad_0, pad_type = input_227_pad_type_0, strides = input_227_strides_0, weight = body_4_rdb1_conv3_weight_to_fp16, x = input_225_cast_fp16)[name = tensor<string, []>("input_227_cast_fp16")];
            tensor<fp16, [1, 32, 512, 512]> x3_25_cast_fp16 = leaky_relu(alpha = var_20_to_fp16, x = input_227_cast_fp16)[name = tensor<string, []>("x3_25_cast_fp16")];
            tensor<bool, []> input_229_interleave_0 = const()[name = tensor<string, []>("input_229_interleave_0"), val = tensor<bool, []>(false)];
            tensor<fp16, [1, 160, 512, 512]> input_229_cast_fp16 = concat(axis = var_21, interleave = input_229_interleave_0, values = (input_217_cast_fp16, x1_25_cast_fp16, x2_25_cast_fp16, x3_25_cast_fp16))[name = tensor<string, []>("input_229_cast_fp16")];
            tensor<string, []> input_231_pad_type_0 = const()[name = tensor<string, []>("input_231_pad_type_0"), val = tensor<string, []>("custom")];
            tensor<int32, [4]> input_231_pad_0 = const()[name = tensor<string, []>("input_231_pad_0"), val = tensor<int32, [4]>([1, 1, 1, 1])];
            tensor<int32, [2]> input_231_strides_0 = const()[name = tensor<string, []>("input_231_strides_0"), val = tensor<int32, [2]>([1, 1])];
            tensor<int32, [2]> input_231_dilations_0 = const()[name = tensor<string, []>("input_231_dilations_0"), val = tensor<int32, [2]>([1, 1])];
            tensor<int32, []> input_231_groups_0 = const()[name = tensor<string, []>("input_231_groups_0"), val = tensor<int32, []>(1)];
            tensor<fp16, [32, 160, 3, 3]> body_4_rdb1_conv4_weight_to_fp16 = const()[name = tensor<string, []>("body_4_rdb1_conv4_weight_to_fp16"), val = tensor<fp16, [32, 160, 3, 3]>(BLOBFILE(path = tensor<string, []>("@model_path/weights/weight.bin"), offset = tensor<uint64, []>(5933312)))];
            tensor<fp16, [32]> body_4_rdb1_conv4_bias_to_fp16 = const()[name = tensor<string, []>("body_4_rdb1_conv4_bias_to_fp16"), val = tensor<fp16, [32]>(BLOBFILE(path = tensor<string, []>("@model_path/weights/weight.bin"), offset = tensor<uint64, []>(6025536)))];
            tensor<fp16, [1, 32, 512, 512]> input_231_cast_fp16 = conv(bias = body_4_rdb1_conv4_bias_to_fp16, dilations = input_231_dilations_0, groups = input_231_groups_0, pad = input_231_pad_0, pad_type = input_231_pad_type_0, strides = input_231_strides_0, weight = body_4_rdb1_conv4_weight_to_fp16, x = input_229_cast_fp16)[name = tensor<string, []>("input_231_cast_fp16")];
            tensor<fp16, [1, 32, 512, 512]> x4_25_cast_fp16 = leaky_relu(alpha = var_20_to_fp16, x = input_231_cast_fp16)[name = tensor<string, []>("x4_25_cast_fp16")];
            tensor<bool, []> input_233_interleave_0 = const()[name = tensor<string, []>("input_233_interleave_0"), val = tensor<bool, []>(false)];
            tensor<fp16, [1, 192, 512, 512]> input_233_cast_fp16 = concat(axis = var_21, interleave = input_233_interleave_0, values = (input_217_cast_fp16, x1_25_cast_fp16, x2_25_cast_fp16, x3_25_cast_fp16, x4_25_cast_fp16))[name = tensor<string, []>("input_233_cast_fp16")];
            tensor<string, []> x5_25_pad_type_0 = const()[name = tensor<string, []>("x5_25_pad_type_0"), val = tensor<string, []>("custom")];
            tensor<int32, [4]> x5_25_pad_0 = const()[name = tensor<string, []>("x5_25_pad_0"), val = tensor<int32, [4]>([1, 1, 1, 1])];
            tensor<int32, [2]> x5_25_strides_0 = const()[name = tensor<string, []>("x5_25_strides_0"), val = tensor<int32, [2]>([1, 1])];
            tensor<int32, [2]> x5_25_dilations_0 = const()[name = tensor<string, []>("x5_25_dilations_0"), val = tensor<int32, [2]>([1, 1])];
            tensor<int32, []> x5_25_groups_0 = const()[name = tensor<string, []>("x5_25_groups_0"), val = tensor<int32, []>(1)];
            tensor<fp16, [64, 192, 3, 3]> var_788_weight_0_to_fp16 = const()[name = tensor<string, []>("op_788_weight_0_to_fp16"), val = tensor<fp16, [64, 192, 3, 3]>(BLOBFILE(path = tensor<string, []>("@model_path/weights/weight.bin"), offset = tensor<uint64, []>(6025664)))];
            tensor<fp16, [64]> var_788_bias_0_to_fp16 = const()[name = tensor<string, []>("op_788_bias_0_to_fp16"), val = tensor<fp16, [64]>(BLOBFILE(path = tensor<string, []>("@model_path/weights/weight.bin"), offset = tensor<uint64, []>(6246912)))];
            tensor<fp16, [1, 64, 512, 512]> var_788_cast_fp16 = conv(bias = var_788_bias_0_to_fp16, dilations = x5_25_dilations_0, groups = x5_25_groups_0, pad = x5_25_pad_0, pad_type = x5_25_pad_type_0, strides = x5_25_strides_0, weight = var_788_weight_0_to_fp16, x = input_233_cast_fp16)[name = tensor<string, []>("op_788_cast_fp16")];
            tensor<fp16, [1, 64, 512, 512]> input_235_cast_fp16 = add(x = var_788_cast_fp16, y = input_217_cast_fp16)[name = tensor<string, []>("input_235_cast_fp16")];
            tensor<string, []> input_237_pad_type_0 = const()[name = tensor<string, []>("input_237_pad_type_0"), val = tensor<string, []>("custom")];
            tensor<int32, [4]> input_237_pad_0 = const()[name = tensor<string, []>("input_237_pad_0"), val = tensor<int32, [4]>([1, 1, 1, 1])];
            tensor<int32, [2]> input_237_strides_0 = const()[name = tensor<string, []>("input_237_strides_0"), val = tensor<int32, [2]>([1, 1])];
            tensor<int32, [2]> input_237_dilations_0 = const()[name = tensor<string, []>("input_237_dilations_0"), val = tensor<int32, [2]>([1, 1])];
            tensor<int32, []> input_237_groups_0 = const()[name = tensor<string, []>("input_237_groups_0"), val = tensor<int32, []>(1)];
            tensor<fp16, [32, 64, 3, 3]> body_4_rdb2_conv1_weight_to_fp16 = const()[name = tensor<string, []>("body_4_rdb2_conv1_weight_to_fp16"), val = tensor<fp16, [32, 64, 3, 3]>(BLOBFILE(path = tensor<string, []>("@model_path/weights/weight.bin"), offset = tensor<uint64, []>(6247104)))];
            tensor<fp16, [32]> body_4_rdb2_conv1_bias_to_fp16 = const()[name = tensor<string, []>("body_4_rdb2_conv1_bias_to_fp16"), val = tensor<fp16, [32]>(BLOBFILE(path = tensor<string, []>("@model_path/weights/weight.bin"), offset = tensor<uint64, []>(6284032)))];
            tensor<fp16, [1, 32, 512, 512]> input_237_cast_fp16 = conv(bias = body_4_rdb2_conv1_bias_to_fp16, dilations = input_237_dilations_0, groups = input_237_groups_0, pad = input_237_pad_0, pad_type = input_237_pad_type_0, strides = input_237_strides_0, weight = body_4_rdb2_conv1_weight_to_fp16, x = input_235_cast_fp16)[name = tensor<string, []>("input_237_cast_fp16")];
            tensor<fp16, [1, 32, 512, 512]> x1_27_cast_fp16 = leaky_relu(alpha = var_20_to_fp16, x = input_237_cast_fp16)[name = tensor<string, []>("x1_27_cast_fp16")];
            tensor<bool, []> input_239_interleave_0 = const()[name = tensor<string, []>("input_239_interleave_0"), val = tensor<bool, []>(false)];
            tensor<fp16, [1, 96, 512, 512]> input_239_cast_fp16 = concat(axis = var_21, interleave = input_239_interleave_0, values = (input_235_cast_fp16, x1_27_cast_fp16))[name = tensor<string, []>("input_239_cast_fp16")];
            tensor<string, []> input_241_pad_type_0 = const()[name = tensor<string, []>("input_241_pad_type_0"), val = tensor<string, []>("custom")];
            tensor<int32, [4]> input_241_pad_0 = const()[name = tensor<string, []>("input_241_pad_0"), val = tensor<int32, [4]>([1, 1, 1, 1])];
            tensor<int32, [2]> input_241_strides_0 = const()[name = tensor<string, []>("input_241_strides_0"), val = tensor<int32, [2]>([1, 1])];
            tensor<int32, [2]> input_241_dilations_0 = const()[name = tensor<string, []>("input_241_dilations_0"), val = tensor<int32, [2]>([1, 1])];
            tensor<int32, []> input_241_groups_0 = const()[name = tensor<string, []>("input_241_groups_0"), val = tensor<int32, []>(1)];
            tensor<fp16, [32, 96, 3, 3]> body_4_rdb2_conv2_weight_to_fp16 = const()[name = tensor<string, []>("body_4_rdb2_conv2_weight_to_fp16"), val = tensor<fp16, [32, 96, 3, 3]>(BLOBFILE(path = tensor<string, []>("@model_path/weights/weight.bin"), offset = tensor<uint64, []>(6284160)))];
            tensor<fp16, [32]> body_4_rdb2_conv2_bias_to_fp16 = const()[name = tensor<string, []>("body_4_rdb2_conv2_bias_to_fp16"), val = tensor<fp16, [32]>(BLOBFILE(path = tensor<string, []>("@model_path/weights/weight.bin"), offset = tensor<uint64, []>(6339520)))];
            tensor<fp16, [1, 32, 512, 512]> input_241_cast_fp16 = conv(bias = body_4_rdb2_conv2_bias_to_fp16, dilations = input_241_dilations_0, groups = input_241_groups_0, pad = input_241_pad_0, pad_type = input_241_pad_type_0, strides = input_241_strides_0, weight = body_4_rdb2_conv2_weight_to_fp16, x = input_239_cast_fp16)[name = tensor<string, []>("input_241_cast_fp16")];
            tensor<fp16, [1, 32, 512, 512]> x2_27_cast_fp16 = leaky_relu(alpha = var_20_to_fp16, x = input_241_cast_fp16)[name = tensor<string, []>("x2_27_cast_fp16")];
            tensor<bool, []> input_243_interleave_0 = const()[name = tensor<string, []>("input_243_interleave_0"), val = tensor<bool, []>(false)];
            tensor<fp16, [1, 128, 512, 512]> input_243_cast_fp16 = concat(axis = var_21, interleave = input_243_interleave_0, values = (input_235_cast_fp16, x1_27_cast_fp16, x2_27_cast_fp16))[name = tensor<string, []>("input_243_cast_fp16")];
            tensor<string, []> input_245_pad_type_0 = const()[name = tensor<string, []>("input_245_pad_type_0"), val = tensor<string, []>("custom")];
            tensor<int32, [4]> input_245_pad_0 = const()[name = tensor<string, []>("input_245_pad_0"), val = tensor<int32, [4]>([1, 1, 1, 1])];
            tensor<int32, [2]> input_245_strides_0 = const()[name = tensor<string, []>("input_245_strides_0"), val = tensor<int32, [2]>([1, 1])];
            tensor<int32, [2]> input_245_dilations_0 = const()[name = tensor<string, []>("input_245_dilations_0"), val = tensor<int32, [2]>([1, 1])];
            tensor<int32, []> input_245_groups_0 = const()[name = tensor<string, []>("input_245_groups_0"), val = tensor<int32, []>(1)];
            tensor<fp16, [32, 128, 3, 3]> body_4_rdb2_conv3_weight_to_fp16 = const()[name = tensor<string, []>("body_4_rdb2_conv3_weight_to_fp16"), val = tensor<fp16, [32, 128, 3, 3]>(BLOBFILE(path = tensor<string, []>("@model_path/weights/weight.bin"), offset = tensor<uint64, []>(6339648)))];
            tensor<fp16, [32]> body_4_rdb2_conv3_bias_to_fp16 = const()[name = tensor<string, []>("body_4_rdb2_conv3_bias_to_fp16"), val = tensor<fp16, [32]>(BLOBFILE(path = tensor<string, []>("@model_path/weights/weight.bin"), offset = tensor<uint64, []>(6413440)))];
            tensor<fp16, [1, 32, 512, 512]> input_245_cast_fp16 = conv(bias = body_4_rdb2_conv3_bias_to_fp16, dilations = input_245_dilations_0, groups = input_245_groups_0, pad = input_245_pad_0, pad_type = input_245_pad_type_0, strides = input_245_strides_0, weight = body_4_rdb2_conv3_weight_to_fp16, x = input_243_cast_fp16)[name = tensor<string, []>("input_245_cast_fp16")];
            tensor<fp16, [1, 32, 512, 512]> x3_27_cast_fp16 = leaky_relu(alpha = var_20_to_fp16, x = input_245_cast_fp16)[name = tensor<string, []>("x3_27_cast_fp16")];
            tensor<bool, []> input_247_interleave_0 = const()[name = tensor<string, []>("input_247_interleave_0"), val = tensor<bool, []>(false)];
            tensor<fp16, [1, 160, 512, 512]> input_247_cast_fp16 = concat(axis = var_21, interleave = input_247_interleave_0, values = (input_235_cast_fp16, x1_27_cast_fp16, x2_27_cast_fp16, x3_27_cast_fp16))[name = tensor<string, []>("input_247_cast_fp16")];
            tensor<string, []> input_249_pad_type_0 = const()[name = tensor<string, []>("input_249_pad_type_0"), val = tensor<string, []>("custom")];
            tensor<int32, [4]> input_249_pad_0 = const()[name = tensor<string, []>("input_249_pad_0"), val = tensor<int32, [4]>([1, 1, 1, 1])];
            tensor<int32, [2]> input_249_strides_0 = const()[name = tensor<string, []>("input_249_strides_0"), val = tensor<int32, [2]>([1, 1])];
            tensor<int32, [2]> input_249_dilations_0 = const()[name = tensor<string, []>("input_249_dilations_0"), val = tensor<int32, [2]>([1, 1])];
            tensor<int32, []> input_249_groups_0 = const()[name = tensor<string, []>("input_249_groups_0"), val = tensor<int32, []>(1)];
            tensor<fp16, [32, 160, 3, 3]> body_4_rdb2_conv4_weight_to_fp16 = const()[name = tensor<string, []>("body_4_rdb2_conv4_weight_to_fp16"), val = tensor<fp16, [32, 160, 3, 3]>(BLOBFILE(path = tensor<string, []>("@model_path/weights/weight.bin"), offset = tensor<uint64, []>(6413568)))];
            tensor<fp16, [32]> body_4_rdb2_conv4_bias_to_fp16 = const()[name = tensor<string, []>("body_4_rdb2_conv4_bias_to_fp16"), val = tensor<fp16, [32]>(BLOBFILE(path = tensor<string, []>("@model_path/weights/weight.bin"), offset = tensor<uint64, []>(6505792)))];
…
            tensor<string, []> input_1181_pad_type_0 = const()[name = tensor<string, []>("input_1181_pad_type_0"), val = tensor<string, []>("custom")];
            tensor<int32, [4]> input_1181_pad_0 = const()[name = tensor<string, []>("input_1181_pad_0"), val = tensor<int32, [4]>([1, 1, 1, 1])];
            tensor<int32, [2]> input_1181_strides_0 = const()[name = tensor<string, []>("input_1181_strides_0"), val = tensor<int32, [2]>([1, 1])];
            tensor<int32, [2]> input_1181_dilations_0 = const()[name = tensor<string, []>("input_1181_dilations_0"), val = tensor<int32, [2]>([1, 1])];
            tensor<int32, []> input_1181_groups_0 = const()[name = tensor<string, []>("input_1181_groups_0"), val = tensor<int32, []>(1)];
            tensor<fp16, [32, 128, 3, 3]> body_21_rdb3_conv3_weight_to_fp16 = const()[name = tensor<string, []>("body_21_rdb3_conv3_weight_to_fp16"), val = tensor<fp16, [32, 128, 3, 3]>(BLOBFILE(path = tensor<string, []>("@model_path/weights/weight.bin"), offset = tensor<uint64, []>(31312960)))];
            tensor<fp16, [32]> body_21_rdb3_conv3_bias_to_fp16 = const()[name = tensor<string, []>("body_21_rdb3_conv3_bias_to_fp16"), val = tensor<fp16, [32]>(BLOBFILE(path = tensor<string, []>("@model_path/weights/weight.bin"), offset = tensor<uint64, []>(31386752)))];
            tensor<fp16, [1, 32, 512, 512]> input_1181_cast_fp16 = conv(bias = body_21_rdb3_conv3_bias_to_fp16, dilations = input_1181_dilations_0, groups = input_1181_groups_0, pad = input_1181_pad_0, pad_type = input_1181_pad_type_0, strides = input_1181_strides_0, weight = body_21_rdb3_conv3_weight_to_fp16, x = input_1179_cast_fp16)[name = tensor<string, []>("input_1181_cast_fp16")];
            tensor<fp16, [1, 32, 512, 512]> x3_131_cast_fp16 = leaky_relu(alpha = var_20_to_fp16, x = input_1181_cast_fp16)[name = tensor<string, []>("x3_131_cast_fp16")];
            tensor<bool, []> input_1183_interleave_0 = const()[name = tensor<string, []>("input_1183_interleave_0"), val = tensor<bool, []>(false)];
            tensor<fp16, [1, 160, 512, 512]> input_1183_cast_fp16 = concat(axis = var_21, interleave = input_1183_interleave_0, values = (input_1171_cast_fp16, x1_131_cast_fp16, x2_131_cast_fp16, x3_131_cast_fp16))[name = tensor<string, []>("input_1183_cast_fp16")];
            tensor<string, []> input_1185_pad_type_0 = const()[name = tensor<string, []>("input_1185_pad_type_0"), val = tensor<string, []>("custom")];
            tensor<int32, [4]> input_1185_pad_0 = const()[name = tensor<string, []>("input_1185_pad_0"), val = tensor<int32, [4]>([1, 1, 1, 1])];
            tensor<int32, [2]> input_1185_strides_0 = const()[name = tensor<string, []>("input_1185_strides_0"), val = tensor<int32, [2]>([1, 1])];
            tensor<int32, [2]> input_1185_dilations_0 = const()[name = tensor<string, []>("input_1185_dilations_0"), val = tensor<int32, [2]>([1, 1])];
            tensor<int32, []> input_1185_groups_0 = const()[name = tensor<string, []>("input_1185_groups_0"), val = tensor<int32, []>(1)];
            tensor<fp16, [32, 160, 3, 3]> body_21_rdb3_conv4_weight_to_fp16 = const()[name = tensor<string, []>("body_21_rdb3_conv4_weight_to_fp16"), val = tensor<fp16, [32, 160, 3, 3]>(BLOBFILE(path = tensor<string, []>("@model_path/weights/weight.bin"), offset = tensor<uint64, []>(31386880)))];
            tensor<fp16, [32]> body_21_rdb3_conv4_bias_to_fp16 = const()[name = tensor<string, []>("body_21_rdb3_conv4_bias_to_fp16"), val = tensor<fp16, [32]>(BLOBFILE(path = tensor<string, []>("@model_path/weights/weight.bin"), offset = tensor<uint64, []>(31479104)))];
            tensor<fp16, [1, 32, 512, 512]> input_1185_cast_fp16 = conv(bias = body_21_rdb3_conv4_bias_to_fp16, dilations = input_1185_dilations_0, groups = input_1185_groups_0, pad = input_1185_pad_0, pad_type = input_1185_pad_type_0, strides = input_1185_strides_0, weight = body_21_rdb3_conv4_weight_to_fp16, x = input_1183_cast_fp16)[name = tensor<string, []>("input_1185_cast_fp16")];
            tensor<fp16, [1, 32, 512, 512]> x4_131_cast_fp16 = leaky_relu(alpha = var_20_to_fp16, x = input_1185_cast_fp16)[name = tensor<string, []>("x4_131_cast_fp16")];
            tensor<bool, []> input_1187_interleave_0 = const()[name = tensor<string, []>("input_1187_interleave_0"), val = tensor<bool, []>(false)];
            tensor<fp16, [1, 192, 512, 512]> input_1187_cast_fp16 = concat(axis = var_21, interleave = input_1187_interleave_0, values = (input_1171_cast_fp16, x1_131_cast_fp16, x2_131_cast_fp16, x3_131_cast_fp16, x4_131_cast_fp16))[name = tensor<string, []>("input_1187_cast_fp16")];
            tensor<string, []> x5_131_pad_type_0 = const()[name = tensor<string, []>("x5_131_pad_type_0"), val = tensor<string, []>("custom")];
            tensor<int32, [4]> x5_131_pad_0 = const()[name = tensor<string, []>("x5_131_pad_0"), val = tensor<int32, [4]>([1, 1, 1, 1])];
            tensor<int32, [2]> x5_131_strides_0 = const()[name = tensor<string, []>("x5_131_strides_0"), val = tensor<int32, [2]>([1, 1])];
            tensor<int32, [2]> x5_131_dilations_0 = const()[name = tensor<string, []>("x5_131_dilations_0"), val = tensor<int32, [2]>([1, 1])];
            tensor<int32, []> x5_131_groups_0 = const()[name = tensor<string, []>("x5_131_groups_0"), val = tensor<int32, []>(1)];
            tensor<fp16, [64, 192, 3, 3]> var_3805_weight_0_to_fp16 = const()[name = tensor<string, []>("op_3805_weight_0_to_fp16"), val = tensor<fp16, [64, 192, 3, 3]>(BLOBFILE(path = tensor<string, []>("@model_path/weights/weight.bin"), offset = tensor<uint64, []>(31479232)))];
            tensor<fp16, [64]> var_3805_bias_0_to_fp16 = const()[name = tensor<string, []>("op_3805_bias_0_to_fp16"), val = tensor<fp16, [64]>(BLOBFILE(path = tensor<string, []>("@model_path/weights/weight.bin"), offset = tensor<uint64, []>(31700480)))];
            tensor<fp16, [1, 64, 512, 512]> var_3805_cast_fp16 = conv(bias = var_3805_bias_0_to_fp16, dilations = x5_131_dilations_0, groups = x5_131_groups_0, pad = x5_131_pad_0, pad_type = x5_131_pad_type_0, strides = x5_131_strides_0, weight = var_3805_weight_0_to_fp16, x = input_1187_cast_fp16)[name = tensor<string, []>("op_3805_cast_fp16")];
            tensor<fp16, [1, 64, 512, 512]> out_43_cast_fp16 = add(x = var_3805_cast_fp16, y = input_1171_cast_fp16)[name = tensor<string, []>("out_43_cast_fp16")];
            tensor<fp16, []> var_3807_to_fp16 = const()[name = tensor<string, []>("op_3807_to_fp16"), val = tensor<fp16, []>(0x1.998p-3)];
            tensor<fp16, [1, 64, 512, 512]> var_3808_cast_fp16 = mul(x = out_43_cast_fp16, y = var_3807_to_fp16)[name = tensor<string, []>("op_3808_cast_fp16")];
            tensor<fp16, [1, 64, 512, 512]> input_1189_cast_fp16 = add(x = var_3808_cast_fp16, y = input_1135_cast_fp16)[name = tensor<string, []>("input_1189_cast_fp16")];
            tensor<string, []> input_1191_pad_type_0 = const()[name = tensor<string, []>("input_1191_pad_type_0"), val = tensor<string, []>("custom")];
            tensor<int32, [4]> input_1191_pad_0 = const()[name = tensor<string, []>("input_1191_pad_0"), val = tensor<int32, [4]>([1, 1, 1, 1])];
            tensor<int32, [2]> input_1191_strides_0 = const()[name = tensor<string, []>("input_1191_strides_0"), val = tensor<int32, [2]>([1, 1])];
            tensor<int32, [2]> input_1191_dilations_0 = const()[name = tensor<string, []>("input_1191_dilations_0"), val = tensor<int32, [2]>([1, 1])];
            tensor<int32, []> input_1191_groups_0 = const()[name = tensor<string, []>("input_1191_groups_0"), val = tensor<int32, []>(1)];
            tensor<fp16, [32, 64, 3, 3]> body_22_rdb1_conv1_weight_to_fp16 = const()[name = tensor<string, []>("body_22_rdb1_conv1_weight_to_fp16"), val = tensor<fp16, [32, 64, 3, 3]>(BLOBFILE(path = tensor<string, []>("@model_path/weights/weight.bin"), offset = tensor<uint64, []>(31700672)))];
            tensor<fp16, [32]> body_22_rdb1_conv1_bias_to_fp16 = const()[name = tensor<string, []>("body_22_rdb1_conv1_bias_to_fp16"), val = tensor<fp16, [32]>(BLOBFILE(path = tensor<string, []>("@model_path/weights/weight.bin"), offset = tensor<uint64, []>(31737600)))];
            tensor<fp16, [1, 32, 512, 512]> input_1191_cast_fp16 = conv(bias = body_22_rdb1_conv1_bias_to_fp16, dilations = input_1191_dilations_0, groups = input_1191_groups_0, pad = input_1191_pad_0, pad_type = input_1191_pad_type_0, strides = input_1191_strides_0, weight = body_22_rdb1_conv1_weight_to_fp16, x = input_1189_cast_fp16)[name = tensor<string, []>("input_1191_cast_fp16")];
            tensor<fp16, [1, 32, 512, 512]> x1_133_cast_fp16 = leaky_relu(alpha = var_20_to_fp16, x = input_1191_cast_fp16)[name = tensor<string, []>("x1_133_cast_fp16")];
            tensor<bool, []> input_1193_interleave_0 = const()[name = tensor<string, []>("input_1193_interleave_0"), val = tensor<bool, []>(false)];
            tensor<fp16, [1, 96, 512, 512]> input_1193_cast_fp16 = concat(axis = var_21, interleave = input_1193_interleave_0, values = (input_1189_cast_fp16, x1_133_cast_fp16))[name = tensor<string, []>("input_1193_cast_fp16")];
            tensor<string, []> input_1195_pad_type_0 = const()[name = tensor<string, []>("input_1195_pad_type_0"), val = tensor<string, []>("custom")];
            tensor<int32, [4]> input_1195_pad_0 = const()[name = tensor<string, []>("input_1195_pad_0"), val = tensor<int32, [4]>([1, 1, 1, 1])];
            tensor<int32, [2]> input_1195_strides_0 = const()[name = tensor<string, []>("input_1195_strides_0"), val = tensor<int32, [2]>([1, 1])];
            tensor<int32, [2]> input_1195_dilations_0 = const()[name = tensor<string, []>("input_1195_dilations_0"), val = tensor<int32, [2]>([1, 1])];
            tensor<int32, []> input_1195_groups_0 = const()[name = tensor<string, []>("input_1195_groups_0"), val = tensor<int32, []>(1)];
            tensor<fp16, [32, 96, 3, 3]> body_22_rdb1_conv2_weight_to_fp16 = const()[name = tensor<string, []>("body_22_rdb1_conv2_weight_to_fp16"), val = tensor<fp16, [32, 96, 3, 3]>(BLOBFILE(path = tensor<string, []>("@model_path/weights/weight.bin"), offset = tensor<uint64, []>(31737728)))];
            tensor<fp16, [32]> body_22_rdb1_conv2_bias_to_fp16 = const()[name = tensor<string, []>("body_22_rdb1_conv2_bias_to_fp16"), val = tensor<fp16, [32]>(BLOBFILE(path = tensor<string, []>("@model_path/weights/weight.bin"), offset = tensor<uint64, []>(31793088)))];
            tensor<fp16, [1, 32, 512, 512]> input_1195_cast_fp16 = conv(bias = body_22_rdb1_conv2_bias_to_fp16, dilations = input_1195_dilations_0, groups = input_1195_groups_0, pad = input_1195_pad_0, pad_type = input_1195_pad_type_0, strides = input_1195_strides_0, weight = body_22_rdb1_conv2_weight_to_fp16, x = input_1193_cast_fp16)[name = tensor<string, []>("input_1195_cast_fp16")];
            tensor<fp16, [1, 32, 512, 512]> x2_133_cast_fp16 = leaky_relu(alpha = var_20_to_fp16, x = input_1195_cast_fp16)[name = tensor<string, []>("x2_133_cast_fp16")];
            tensor<bool, []> input_1197_interleave_0 = const()[name = tensor<string, []>("input_1197_interleave_0"), val = tensor<bool, []>(false)];
            tensor<fp16, [1, 128, 512, 512]> input_1197_cast_fp16 = concat(axis = var_21, interleave = input_1197_interleave_0, values = (input_1189_cast_fp16, x1_133_cast_fp16, x2_133_cast_fp16))[name = tensor<string, []>("input_1197_cast_fp16")];
            tensor<string, []> input_1199_pad_type_0 = const()[name = tensor<string, []>("input_1199_pad_type_0"), val = tensor<string, []>("custom")];
            tensor<int32, [4]> input_1199_pad_0 = const()[name = tensor<string, []>("input_1199_pad_0"), val = tensor<int32, [4]>([1, 1, 1, 1])];
            tensor<int32, [2]> input_1199_strides_0 = const()[name = tensor<string, []>("input_1199_strides_0"), val = tensor<int32, [2]>([1, 1])];
            tensor<int32, [2]> input_1199_dilations_0 = const()[name = tensor<string, []>("input_1199_dilations_0"), val = tensor<int32, [2]>([1, 1])];
            tensor<int32, []> input_1199_groups_0 = const()[name = tensor<string, []>("input_1199_groups_0"), val = tensor<int32, []>(1)];
            tensor<fp16, [32, 128, 3, 3]> body_22_rdb1_conv3_weight_to_fp16 = const()[name = tensor<string, []>("body_22_rdb1_conv3_weight_to_fp16"), val = tensor<fp16, [32, 128, 3, 3]>(BLOBFILE(path = tensor<string, []>("@model_path/weights/weight.bin"), offset = tensor<uint64, []>(31793216)))];
            tensor<fp16, [32]> body_22_rdb1_conv3_bias_to_fp16 = const()[name = tensor<string, []>("body_22_rdb1_conv3_bias_to_fp16"), val = tensor<fp16, [32]>(BLOBFILE(path = tensor<string, []>("@model_path/weights/weight.bin"), offset = tensor<uint64, []>(31867008)))];
            tensor<fp16, [1, 32, 512, 512]> input_1199_cast_fp16 = conv(bias = body_22_rdb1_conv3_bias_to_fp16, dilations = input_1199_dilations_0, groups = input_1199_groups_0, pad = input_1199_pad_0, pad_type = input_1199_pad_type_0, strides = input_1199_strides_0, weight = body_22_rdb1_conv3_weight_to_fp16, x = input_1197_cast_fp16)[name = tensor<string, []>("input_1199_cast_fp16")];
            tensor<fp16, [1, 32, 512, 512]> x3_133_cast_fp16 = leaky_relu(alpha = var_20_to_fp16, x = input_1199_cast_fp16)[name = tensor<string, []>("x3_133_cast_fp16")];
            tensor<bool, []> input_1201_interleave_0 = const()[name = tensor<string, []>("input_1201_interleave_0"), val = tensor<bool, []>(false)];
            tensor<fp16, [1, 160, 512, 512]> input_1201_cast_fp16 = concat(axis = var_21, interleave = input_1201_interleave_0, values = (input_1189_cast_fp16, x1_133_cast_fp16, x2_133_cast_fp16, x3_133_cast_fp16))[name = tensor<string, []>("input_1201_cast_fp16")];
            tensor<string, []> input_1203_pad_type_0 = const()[name = tensor<string, []>("input_1203_pad_type_0"), val = tensor<string, []>("custom")];
            tensor<int32, [4]> input_1203_pad_0 = const()[name = tensor<string, []>("input_1203_pad_0"), val = tensor<int32, [4]>([1, 1, 1, 1])];
            tensor<int32, [2]> input_1203_strides_0 = const()[name = tensor<string, []>("input_1203_strides_0"), val = tensor<int32, [2]>([1, 1])];
            tensor<int32, [2]> input_1203_dilations_0 = const()[name = tensor<string, []>("input_1203_dilations_0"), val = tensor<int32, [2]>([1, 1])];
            tensor<int32, []> input_1203_groups_0 = const()[name = tensor<string, []>("input_1203_groups_0"), val = tensor<int32, []>(1)];
            tensor<fp16, [32, 160, 3, 3]> body_22_rdb1_conv4_weight_to_fp16 = const()[name = tensor<string, []>("body_22_rdb1_conv4_weight_to_fp16"), val = tensor<fp16, [32, 160, 3, 3]>(BLOBFILE(path = tensor<string, []>("@model_path/weights/weight.bin"), offset = tensor<uint64, []>(31867136)))];
            tensor<fp16, [32]> body_22_rdb1_conv4_bias_to_fp16 = const()[name = tensor<string, []>("body_22_rdb1_conv4_bias_to_fp16"), val = tensor<fp16, [32]>(BLOBFILE(path = tensor<string, []>("@model_path/weights/weight.bin"), offset = tensor<uint64, []>(31959360)))];
            tensor<fp16, [1, 32, 512, 512]> input_1203_cast_fp16 = conv(bias = body_22_rdb1_conv4_bias_to_fp16, dilations = input_1203_dilations_0, groups = input_1203_groups_0, pad = input_1203_pad_0, pad_type = input_1203_pad_type_0, strides = input_1203_strides_0, weight = body_22_rdb1_conv4_weight_to_fp16, x = input_1201_cast_fp16)[name = tensor<string, []>("input_1203_cast_fp16")];
            tensor<fp16, [1, 32, 512, 512]> x4_133_cast_fp16 = leaky_relu(alpha = var_20_to_fp16, x = input_1203_cast_fp16)[name = tensor<string, []>("x4_133_cast_fp16")];
            tensor<bool, []> input_1205_interleave_0 = const()[name = tensor<string, []>("input_1205_interleave_0"), val = tensor<bool, []>(false)];
            tensor<fp16, [1, 192, 512, 512]> input_1205_cast_fp16 = concat(axis = var_21, interleave = input_1205_interleave_0, values = (input_1189_cast_fp16, x1_133_cast_fp16, x2_133_cast_fp16, x3_133_cast_fp16, x4_133_cast_fp16))[name = tensor<string, []>("input_1205_cast_fp16")];
            tensor<string, []> x5_133_pad_type_0 = const()[name = tensor<string, []>("x5_133_pad_type_0"), val = tensor<string, []>("custom")];
            tensor<int32, [4]> x5_133_pad_0 = const()[name = tensor<string, []>("x5_133_pad_0"), val = tensor<int32, [4]>([1, 1, 1, 1])];
            tensor<int32, [2]> x5_133_strides_0 = const()[name = tensor<string, []>("x5_133_strides_0"), val = tensor<int32, [2]>([1, 1])];
            tensor<int32, [2]> x5_133_dilations_0 = const()[name = tensor<string, []>("x5_133_dilations_0"), val = tensor<int32, [2]>([1, 1])];
            tensor<int32, []> x5_133_groups_0 = const()[name = tensor<string, []>("x5_133_groups_0"), val = tensor<int32, []>(1)];
            tensor<fp16, [64, 192, 3, 3]> var_3866_weight_0_to_fp16 = const()[name = tensor<string, []>("op_3866_weight_0_to_fp16"), val = tensor<fp16, [64, 192, 3, 3]>(BLOBFILE(path = tensor<string, []>("@model_path/weights/weight.bin"), offset = tensor<uint64, []>(31959488)))];
            tensor<fp16, [64]> var_3866_bias_0_to_fp16 = const()[name = tensor<string, []>("op_3866_bias_0_to_fp16"), val = tensor<fp16, [64]>(BLOBFILE(path = tensor<string, []>("@model_path/weights/weight.bin"), offset = tensor<uint64, []>(32180736)))];
            tensor<fp16, [1, 64, 512, 512]> var_3866_cast_fp16 = conv(bias = var_3866_bias_0_to_fp16, dilations = x5_133_dilations_0, groups = x5_133_groups_0, pad = x5_133_pad_0, pad_type = x5_133_pad_type_0, strides = x5_133_strides_0, weight = var_3866_weight_0_to_fp16, x = input_1205_cast_fp16)[name = tensor<string, []>("op_3866_cast_fp16")];
            tensor<fp16, [1, 64, 512, 512]> input_1207_cast_fp16 = add(x = var_3866_cast_fp16, y = input_1189_cast_fp16)[name = tensor<string, []>("input_1207_cast_fp16")];
            tensor<string, []> input_1209_pad_type_0 = const()[name = tensor<string, []>("input_1209_pad_type_0"), val = tensor<string, []>("custom")];
            tensor<int32, [4]> input_1209_pad_0 = const()[name = tensor<string, []>("input_1209_pad_0"), val = tensor<int32, [4]>([1, 1, 1, 1])];
            tensor<int32, [2]> input_1209_strides_0 = const()[name = tensor<string, []>("input_1209_strides_0"), val = tensor<int32, [2]>([1, 1])];
            tensor<int32, [2]> input_1209_dilations_0 = const()[name = tensor<string, []>("input_1209_dilations_0"), val = tensor<int32, [2]>([1, 1])];
            tensor<int32, []> input_1209_groups_0 = const()[name = tensor<string, []>("input_1209_groups_0"), val = tensor<int32, []>(1)];
            tensor<fp16, [32, 64, 3, 3]> body_22_rdb2_conv1_weight_to_fp16 = const()[name = tensor<string, []>("body_22_rdb2_conv1_weight_to_fp16"), val = tensor<fp16, [32, 64, 3, 3]>(BLOBFILE(path = tensor<string, []>("@model_path/weights/weight.bin"), offset = tensor<uint64, []>(32180928)))];
            tensor<fp16, [32]> body_22_rdb2_conv1_bias_to_fp16 = const()[name = tensor<string, []>("body_22_rdb2_conv1_bias_to_fp16"), val = tensor<fp16, [32]>(BLOBFILE(path = tensor<string, []>("@model_path/weights/weight.bin"), offset = tensor<uint64, []>(32217856)))];
            tensor<fp16, [1, 32, 512, 512]> input_1209_cast_fp16 = conv(bias = body_22_rdb2_conv1_bias_to_fp16, dilations = input_1209_dilations_0, groups = input_1209_groups_0, pad = input_1209_pad_0, pad_type = input_1209_pad_type_0, strides = input_1209_strides_0, weight = body_22_rdb2_conv1_weight_to_fp16, x = input_1207_cast_fp16)[name = tensor<string, []>("input_1209_cast_fp16")];
            tensor<fp16, [1, 32, 512, 512]> x1_135_cast_fp16 = leaky_relu(alpha = var_20_to_fp16, x = input_1209_cast_fp16)[name = tensor<string, []>("x1_135_cast_fp16")];
            tensor<bool, []> input_1211_interleave_0 = const()[name = tensor<string, []>("input_1211_interleave_0"), val = tensor<bool, []>(false)];
            tensor<fp16, [1, 96, 512, 512]> input_1211_cast_fp16 = concat(axis = var_21, interleave = input_1211_interleave_0, values = (input_1207_cast_fp16, x1_135_cast_fp16))[name = tensor<string, []>("input_1211_cast_fp16")];
            tensor<string, []> input_1213_pad_type_0 = const()[name = tensor<string, []>("input_1213_pad_type_0"), val = tensor<string, []>("custom")];
            tensor<int32, [4]> input_1213_pad_0 = const()[name = tensor<string, []>("input_1213_pad_0"), val = tensor<int32, [4]>([1, 1, 1, 1])];
            tensor<int32, [2]> input_1213_strides_0 = const()[name = tensor<string, []>("input_1213_strides_0"), val = tensor<int32, [2]>([1, 1])];
            tensor<int32, [2]> input_1213_dilations_0 = const()[name = tensor<string, []>("input_1213_dilations_0"), val = tensor<int32, [2]>([1, 1])];
            tensor<int32, []> input_1213_groups_0 = const()[name = tensor<string, []>("input_1213_groups_0"), val = tensor<int32, []>(1)];
            tensor<fp16, [32, 96, 3, 3]> body_22_rdb2_conv2_weight_to_fp16 = const()[name = tensor<string, []>("body_22_rdb2_conv2_weight_to_fp16"), val = tensor<fp16, [32, 96, 3, 3]>(BLOBFILE(path = tensor<string, []>("@model_path/weights/weight.bin"), offset = tensor<uint64, []>(32217984)))];
            tensor<fp16, [32]> body_22_rdb2_conv2_bias_to_fp16 = const()[name = tensor<string, []>("body_22_rdb2_conv2_bias_to_fp16"), val = tensor<fp16, [32]>(BLOBFILE(path = tensor<string, []>("@model_path/weights/weight.bin"), offset = tensor<uint64, []>(32273344)))];
            tensor<fp16, [1, 32, 512, 512]> input_1213_cast_fp16 = conv(bias = body_22_rdb2_conv2_bias_to_fp16, dilations = input_1213_dilations_0, groups = input_1213_groups_0, pad = input_1213_pad_0, pad_type = input_1213_pad_type_0, strides = input_1213_strides_0, weight = body_22_rdb2_conv2_weight_to_fp16, x = input_1211_cast_fp16)[name = tensor<string, []>("input_1213_cast_fp16")];
            tensor<fp16, [1, 32, 512, 512]> x2_135_cast_fp16 = leaky_relu(alpha = var_20_to_fp16, x = input_1213_cast_fp16)[name = tensor<string, []>("x2_135_cast_fp16")];
            tensor<bool, []> input_1215_interleave_0 = const()[name = tensor<string, []>("input_1215_interleave_0"), val = tensor<bool, []>(false)];
            tensor<fp16, [1, 128, 512, 512]> input_1215_cast_fp16 = concat(axis = var_21, interleave = input_1215_interleave_0, values = (input_1207_cast_fp16, x1_135_cast_fp16, x2_135_cast_fp16))[name = tensor<string, []>("input_1215_cast_fp16")];
            tensor<string, []> input_1217_pad_type_0 = const()[name = tensor<string, []>("input_1217_pad_type_0"), val = tensor<string, []>("custom")];
            tensor<int32, [4]> input_1217_pad_0 = const()[name = tensor<string, []>("input_1217_pad_0"), val = tensor<int32, [4]>([1, 1, 1, 1])];
            tensor<int32, [2]> input_1217_strides_0 = const()[name = tensor<string, []>("input_1217_strides_0"), val = tensor<int32, [2]>([1, 1])];
            tensor<int32, [2]> input_1217_dilations_0 = const()[name = tensor<string, []>("input_1217_dilations_0"), val = tensor<int32, [2]>([1, 1])];
            tensor<int32, []> input_1217_groups_0 = const()[name = tensor<string, []>("input_1217_groups_0"), val = tensor<int32, []>(1)];
            tensor<fp16, [32, 128, 3, 3]> body_22_rdb2_conv3_weight_to_fp16 = const()[name = tensor<string, []>("body_22_rdb2_conv3_weight_to_fp16"), val = tensor<fp16, [32, 128, 3, 3]>(BLOBFILE(path = tensor<string, []>("@model_path/weights/weight.bin"), offset = tensor<uint64, []>(32273472)))];
            tensor<fp16, [32]> body_22_rdb2_conv3_bias_to_fp16 = const()[name = tensor<string, []>("body_22_rdb2_conv3_bias_to_fp16"), val = tensor<fp16, [32]>(BLOBFILE(path = tensor<string, []>("@model_path/weights/weight.bin"), offset = tensor<uint64, []>(32347264)))];
            tensor<fp16, [1, 32, 512, 512]> input_1217_cast_fp16 = conv(bias = body_22_rdb2_conv3_bias_to_fp16, dilations = input_1217_dilations_0, groups = input_1217_groups_0, pad = input_1217_pad_0, pad_type = input_1217_pad_type_0, strides = input_1217_strides_0, weight = body_22_rdb2_conv3_weight_to_fp16, x = input_1215_cast_fp16)[name = tensor<string, []>("input_1217_cast_fp16")];
            tensor<fp16, [1, 32, 512, 512]> x3_135_cast_fp16 = leaky_relu(alpha = var_20_to_fp16, x = input_1217_cast_fp16)[name = tensor<string, []>("x3_135_cast_fp16")];
            tensor<bool, []> input_1219_interleave_0 = const()[name = tensor<string, []>("input_1219_interleave_0"), val = tensor<bool, []>(false)];
            tensor<fp16, [1, 160, 512, 512]> input_1219_cast_fp16 = concat(axis = var_21, interleave = input_1219_interleave_0, values = (input_1207_cast_fp16, x1_135_cast_fp16, x2_135_cast_fp16, x3_135_cast_fp16))[name = tensor<string, []>("input_1219_cast_fp16")];
            tensor<string, []> input_1221_pad_type_0 = const()[name = tensor<string, []>("input_1221_pad_type_0"), val = tensor<string, []>("custom")];
            tensor<int32, [4]> input_1221_pad_0 = const()[name = tensor<string, []>("input_1221_pad_0"), val = tensor<int32, [4]>([1, 1, 1, 1])];
            tensor<int32, [2]> input_1221_strides_0 = const()[name = tensor<string, []>("input_1221_strides_0"), val = tensor<int32, [2]>([1, 1])];
            tensor<int32, [2]> input_1221_dilations_0 = const()[name = tensor<string, []>("input_1221_dilations_0"), val = tensor<int32, [2]>([1, 1])];
            tensor<int32, []> input_1221_groups_0 = const()[name = tensor<string, []>("input_1221_groups_0"), val = tensor<int32, []>(1)];
            tensor<fp16, [32, 160, 3, 3]> body_22_rdb2_conv4_weight_to_fp16 = const()[name = tensor<string, []>("body_22_rdb2_conv4_weight_to_fp16"), val = tensor<fp16, [32, 160, 3, 3]>(BLOBFILE(path = tensor<string, []>("@model_path/weights/weight.bin"), offset = tensor<uint64, []>(32347392)))];
            tensor<fp16, [32]> body_22_rdb2_conv4_bias_to_fp16 = const()[name = tensor<string, []>("body_22_rdb2_conv4_bias_to_fp16"), val = tensor<fp16, [32]>(BLOBFILE(path = tensor<string, []>("@model_path/weights/weight.bin"), offset = tensor<uint64, []>(32439616)))];
            tensor<fp16, [1, 32, 512, 512]> input_1221_cast_fp16 = conv(bias = body_22_rdb2_conv4_bias_to_fp16, dilations = input_1221_dilations_0, groups = input_1221_groups_0, pad = input_1221_pad_0, pad_type = input_1221_pad_type_0, strides = input_1221_strides_0, weight = body_22_rdb2_conv4_weight_to_fp16, x = input_1219_cast_fp16)[name = tensor<string, []>("input_1221_cast_fp16")];
            tensor<fp16, [1, 32, 512, 512]> x4_135_cast_fp16 = leaky_relu(alpha = var_20_to_fp16, x = input_1221_cast_fp16)[name = tensor<string, []>("x4_135_cast_fp16")];
            tensor<bool, []> input_1223_interleave_0 = const()[name = tensor<string, []>("input_1223_interleave_0"), val = tensor<bool, []>(false)];
            tensor<fp16, [1, 192, 512, 512]> input_1223_cast_fp16 = concat(axis = var_21, interleave = input_1223_interleave_0, values = (input_1207_cast_fp16, x1_135_cast_fp16, x2_135_cast_fp16, x3_135_cast_fp16, x4_135_cast_fp16))[name = tensor<string, []>("input_1223_cast_fp16")];
            tensor<string, []> x5_135_pad_type_0 = const()[name = tensor<string, []>("x5_135_pad_type_0"), val = tensor<string, []>("custom")];
            tensor<int32, [4]> x5_135_pad_0 = const()[name = tensor<string, []>("x5_135_pad_0"), val = tensor<int32, [4]>([1, 1, 1, 1])];
            tensor<int32, [2]> x5_135_strides_0 = const()[name = tensor<string, []>("x5_135_strides_0"), val = tensor<int32, [2]>([1, 1])];
            tensor<int32, [2]> x5_135_dilations_0 = const()[name = tensor<string, []>("x5_135_dilations_0"), val = tensor<int32, [2]>([1, 1])];
            tensor<int32, []> x5_135_groups_0 = const()[name = tensor<string, []>("x5_135_groups_0"), val = tensor<int32, []>(1)];
            tensor<fp16, [64, 192, 3, 3]> var_3921_weight_0_to_fp16 = const()[name = tensor<string, []>("op_3921_weight_0_to_fp16"), val = tensor<fp16, [64, 192, 3, 3]>(BLOBFILE(path = tensor<string, []>("@model_path/weights/weight.bin"), offset = tensor<uint64, []>(32439744)))];
            tensor<fp16, [64]> var_3921_bias_0_to_fp16 = const()[name = tensor<string, []>("op_3921_bias_0_to_fp16"), val = tensor<fp16, [64]>(BLOBFILE(path = tensor<string, []>("@model_path/weights/weight.bin"), offset = tensor<uint64, []>(32660992)))];
            tensor<fp16, [1, 64, 512, 512]> var_3921_cast_fp16 = conv(bias = var_3921_bias_0_to_fp16, dilations = x5_135_dilations_0, groups = x5_135_groups_0, pad = x5_135_pad_0, pad_type = x5_135_pad_type_0, strides = x5_135_strides_0, weight = var_3921_weight_0_to_fp16, x = input_1223_cast_fp16)[name = tensor<string, []>("op_3921_cast_fp16")];
            tensor<fp16, [1, 64, 512, 512]> input_1225_cast_fp16 = add(x = var_3921_cast_fp16, y = input_1207_cast_fp16)[name = tensor<string, []>("input_1225_cast_fp16")];
            tensor<string, []> input_1227_pad_type_0 = const()[name = tensor<string, []>("input_1227_pad_type_0"), val = tensor<string, []>("custom")];
            tensor<int32, [4]> input_1227_pad_0 = const()[name = tensor<string, []>("input_1227_pad_0"), val = tensor<int32, [4]>([1, 1, 1, 1])];
            tensor<int32, [2]> input_1227_strides_0 = const()[name = tensor<string, []>("input_1227_strides_0"), val = tensor<int32, [2]>([1, 1])];
            tensor<int32, [2]> input_1227_dilations_0 = const()[name = tensor<string, []>("input_1227_dilations_0"), val = tensor<int32, [2]>([1, 1])];
            tensor<int32, []> input_1227_groups_0 = const()[name = tensor<string, []>("input_1227_groups_0"), val = tensor<int32, []>(1)];
            tensor<fp16, [32, 64, 3, 3]> body_22_rdb3_conv1_weight_to_fp16 = const()[name = tensor<string, []>("body_22_rdb3_conv1_weight_to_fp16"), val = tensor<fp16, [32, 64, 3, 3]>(BLOBFILE(path = tensor<string, []>("@model_path/weights/weight.bin"), offset = tensor<uint64, []>(32661184)))];
            tensor<fp16, [32]> body_22_rdb3_conv1_bias_to_fp16 = const()[name = tensor<string, []>("body_22_rdb3_conv1_bias_to_fp16"), val = tensor<fp16, [32]>(BLOBFILE(path = tensor<string, []>("@model_path/weights/weight.bin"), offset = tensor<uint64, []>(32698112)))];
            tensor<fp16, [1, 32, 512, 512]> input_1227_cast_fp16 = conv(bias = body_22_rdb3_conv1_bias_to_fp16, dilations = input_1227_dilations_0, groups = input_1227_groups_0, pad = input_1227_pad_0, pad_type = input_1227_pad_type_0, strides = input_1227_strides_0, weight = body_22_rdb3_conv1_weight_to_fp16, x = input_1225_cast_fp16)[name = tensor<string, []>("input_1227_cast_fp16")];
            tensor<fp16, [1, 32, 512, 512]> x1_cast_fp16 = leaky_relu(alpha = var_20_to_fp16, x = input_1227_cast_fp16)[name = tensor<string, []>("x1_cast_fp16")];
            tensor<bool, []> input_1229_interleave_0 = const()[name = tensor<string, []>("input_1229_interleave_0"), val = tensor<bool, []>(false)];
            tensor<fp16, [1, 96, 512, 512]> input_1229_cast_fp16 = concat(axis = var_21, interleave = input_1229_interleave_0, values = (input_1225_cast_fp16, x1_cast_fp16))[name = tensor<string, []>("input_1229_cast_fp16")];
            tensor<string, []> input_1231_pad_type_0 = const()[name = tensor<string, []>("input_1231_pad_type_0"), val = tensor<string, []>("custom")];
            tensor<int32, [4]> input_1231_pad_0 = const()[name = tensor<string, []>("input_1231_pad_0"), val = tensor<int32, [4]>([1, 1, 1, 1])];
            tensor<int32, [2]> input_1231_strides_0 = const()[name = tensor<string, []>("input_1231_strides_0"), val = tensor<int32, [2]>([1, 1])];
            tensor<int32, [2]> input_1231_dilations_0 = const()[name = tensor<string, []>("input_1231_dilations_0"), val = tensor<int32, [2]>([1, 1])];
            tensor<int32, []> input_1231_groups_0 = const()[name = tensor<string, []>("input_1231_groups_0"), val = tensor<int32, []>(1)];
            tensor<fp16, [32, 96, 3, 3]> body_22_rdb3_conv2_weight_to_fp16 = const()[name = tensor<string, []>("body_22_rdb3_conv2_weight_to_fp16"), val = tensor<fp16, [32, 96, 3, 3]>(BLOBFILE(path = tensor<string, []>("@model_path/weights/weight.bin"), offset = tensor<uint64, []>(32698240)))];
            tensor<fp16, [32]> body_22_rdb3_conv2_bias_to_fp16 = const()[name = tensor<string, []>("body_22_rdb3_conv2_bias_to_fp16"), val = tensor<fp16, [32]>(BLOBFILE(path = tensor<string, []>("@model_path/weights/weight.bin"), offset = tensor<uint64, []>(32753600)))];
            tensor<fp16, [1, 32, 512, 512]> input_1231_cast_fp16 = conv(bias = body_22_rdb3_conv2_bias_to_fp16, dilations = input_1231_dilations_0, groups = input_1231_groups_0, pad = input_1231_pad_0, pad_type = input_1231_pad_type_0, strides = input_1231_strides_0, weight = body_22_rdb3_conv2_weight_to_fp16, x = input_1229_cast_fp16)[name = tensor<string, []>("input_1231_cast_fp16")];
            tensor<fp16, [1, 32, 512, 512]> x2_cast_fp16 = leaky_relu(alpha = var_20_to_fp16, x = input_1231_cast_fp16)[name = tensor<string, []>("x2_cast_fp16")];
            tensor<bool, []> input_1233_interleave_0 = const()[name = tensor<string, []>("input_1233_interleave_0"), val = tensor<bool, []>(false)];
            tensor<fp16, [1, 128, 512, 512]> input_1233_cast_fp16 = concat(axis = var_21, interleave = input_1233_interleave_0, values = (input_1225_cast_fp16, x1_cast_fp16, x2_cast_fp16))[name = tensor<string, []>("input_1233_cast_fp16")];
            tensor<string, []> input_1235_pad_type_0 = const()[name = tensor<string, []>("input_1235_pad_type_0"), val = tensor<string, []>("custom")];
            tensor<int32, [4]> input_1235_pad_0 = const()[name = tensor<string, []>("input_1235_pad_0"), val = tensor<int32, [4]>([1, 1, 1, 1])];
            tensor<int32, [2]> input_1235_strides_0 = const()[name = tensor<string, []>("input_1235_strides_0"), val = tensor<int32, [2]>([1, 1])];
            tensor<int32, [2]> input_1235_dilations_0 = const()[name = tensor<string, []>("input_1235_dilations_0"), val = tensor<int32, [2]>([1, 1])];
            tensor<int32, []> input_1235_groups_0 = const()[name = tensor<string, []>("input_1235_groups_0"), val = tensor<int32, []>(1)];
            tensor<fp16, [32, 128, 3, 3]> body_22_rdb3_conv3_weight_to_fp16 = const()[name = tensor<string, []>("body_22_rdb3_conv3_weight_to_fp16"), val = tensor<fp16, [32, 128, 3, 3]>(BLOBFILE(path = tensor<string, []>("@model_path/weights/weight.bin"), offset = tensor<uint64, []>(32753728)))];
            tensor<fp16, [32]> body_22_rdb3_conv3_bias_to_fp16 = const()[name = tensor<string, []>("body_22_rdb3_conv3_bias_to_fp16"), val = tensor<fp16, [32]>(BLOBFILE(path = tensor<string, []>("@model_path/weights/weight.bin"), offset = tensor<uint64, []>(32827520)))];
            tensor<fp16, [1, 32, 512, 512]> input_1235_cast_fp16 = conv(bias = body_22_rdb3_conv3_bias_to_fp16, dilations = input_1235_dilations_0, groups = input_1235_groups_0, pad = input_1235_pad_0, pad_type = input_1235_pad_type_0, strides = input_1235_strides_0, weight = body_22_rdb3_conv3_weight_to_fp16, x = input_1233_cast_fp16)[name = tensor<string, []>("input_1235_cast_fp16")];
            tensor<fp16, [1, 32, 512, 512]> x3_cast_fp16 = leaky_relu(alpha = var_20_to_fp16, x = input_1235_cast_fp16)[name = tensor<string, []>("x3_cast_fp16")];
            tensor<bool, []> input_1237_interleave_0 = const()[name = tensor<string, []>("input_1237_interleave_0"), val = tensor<bool, []>(false)];
            tensor<fp16, [1, 160, 512, 512]> input_1237_cast_fp16 = concat(axis = var_21, interleave = input_1237_interleave_0, values = (input_1225_cast_fp16, x1_cast_fp16, x2_cast_fp16, x3_cast_fp16))[name = tensor<string, []>("input_1237_cast_fp16")];
            tensor<string, []> input_1239_pad_type_0 = const()[name = tensor<string, []>("input_1239_pad_type_0"), val = tensor<string, []>("custom")];
            tensor<int32, [4]> input_1239_pad_0 = const()[name = tensor<string, []>("input_1239_pad_0"), val = tensor<int32, [4]>([1, 1, 1, 1])];
            tensor<int32, [2]> input_1239_strides_0 = const()[name = tensor<string, []>("input_1239_strides_0"), val = tensor<int32, [2]>([1, 1])];
            tensor<int32, [2]> input_1239_dilations_0 = const()[name = tensor<string, []>("input_1239_dilations_0"), val = tensor<int32, [2]>([1, 1])];
            tensor<int32, []> input_1239_groups_0 = const()[name = tensor<string, []>("input_1239_groups_0"), val = tensor<int32, []>(1)];
            tensor<fp16, [32, 160, 3, 3]> body_22_rdb3_conv4_weight_to_fp16 = const()[name = tensor<string, []>("body_22_rdb3_conv4_weight_to_fp16"), val = tensor<fp16, [32, 160, 3, 3]>(BLOBFILE(path = tensor<string, []>("@model_path/weights/weight.bin"), offset = tensor<uint64, []>(32827648)))];
            tensor<fp16, [32]> body_22_rdb3_conv4_bias_to_fp16 = const()[name = tensor<string, []>("body_22_rdb3_conv4_bias_to_fp16"), val = tensor<fp16, [32]>(BLOBFILE(path = tensor<string, []>("@model_path/weights/weight.bin"), offset = tensor<uint64, []>(32919872)))];
            tensor<fp16, [1, 32, 512, 512]> input_1239_cast_fp16 = conv(bias = body_22_rdb3_conv4_bias_to_fp16, dilations = input_1239_dilations_0, groups = input_1239_groups_0, pad = input_1239_pad_0, pad_type = input_1239_pad_type_0, strides = input_1239_strides_0, weight = body_22_rdb3_conv4_weight_to_fp16, x = input_1237_cast_fp16)[name = tensor<string, []>("input_1239_cast_fp16")];
            tensor<fp16, [1, 32, 512, 512]> x4_cast_fp16 = leaky_relu(alpha = var_20_to_fp16, x = input_1239_cast_fp16)[name = tensor<string, []>("x4_cast_fp16")];
            tensor<bool, []> input_1241_interleave_0 = const()[name = tensor<string, []>("input_1241_interleave_0"), val = tensor<bool, []>(false)];
            tensor<fp16, [1, 192, 512, 512]> input_1241_cast_fp16 = concat(axis = var_21, interleave = input_1241_interleave_0, values = (input_1225_cast_fp16, x1_cast_fp16, x2_cast_fp16, x3_cast_fp16, x4_cast_fp16))[name = tensor<string, []>("input_1241_cast_fp16")];
            tensor<string, []> x5_pad_type_0 = const()[name = tensor<string, []>("x5_pad_type_0"), val = tensor<string, []>("custom")];
            tensor<int32, [4]> x5_pad_0 = const()[name = tensor<string, []>("x5_pad_0"), val = tensor<int32, [4]>([1, 1, 1, 1])];
            tensor<int32, [2]> x5_strides_0 = const()[name = tensor<string, []>("x5_strides_0"), val = tensor<int32, [2]>([1, 1])];
            tensor<int32, [2]> x5_dilations_0 = const()[name = tensor<string, []>("x5_dilations_0"), val = tensor<int32, [2]>([1, 1])];
            tensor<int32, []> x5_groups_0 = const()[name = tensor<string, []>("x5_groups_0"), val = tensor<int32, []>(1)];
            tensor<fp16, [64, 192, 3, 3]> var_3976_weight_0_to_fp16 = const()[name = tensor<string, []>("op_3976_weight_0_to_fp16"), val = tensor<fp16, [64, 192, 3, 3]>(BLOBFILE(path = tensor<string, []>("@model_path/weights/weight.bin"), offset = tensor<uint64, []>(32920000)))];
            tensor<fp16, [64]> var_3976_bias_0_to_fp16 = const()[name = tensor<string, []>("op_3976_bias_0_to_fp16"), val = tensor<fp16, [64]>(BLOBFILE(path = tensor<string, []>("@model_path/weights/weight.bin"), offset = tensor<uint64, []>(33141248)))];
            tensor<fp16, [1, 64, 512, 512]> var_3976_cast_fp16 = conv(bias = var_3976_bias_0_to_fp16, dilations = x5_dilations_0, groups = x5_groups_0, pad = x5_pad_0, pad_type = x5_pad_type_0, strides = x5_strides_0, weight = var_3976_weight_0_to_fp16, x = input_1241_cast_fp16)[name = tensor<string, []>("op_3976_cast_fp16")];
            tensor<fp16, [1, 64, 512, 512]> out_cast_fp16 = add(x = var_3976_cast_fp16, y = input_1225_cast_fp16)[name = tensor<string, []>("out_cast_fp16")];
            tensor<fp16, []> var_3978_to_fp16 = const()[name = tensor<string, []>("op_3978_to_fp16"), val = tensor<fp16, []>(0x1.998p-3)];
            tensor<fp16, [1, 64, 512, 512]> var_3979_cast_fp16 = mul(x = out_cast_fp16, y = var_3978_to_fp16)[name = tensor<string, []>("op_3979_cast_fp16")];
            tensor<fp16, [1, 64, 512, 512]> input_1243_cast_fp16 = add(x = var_3979_cast_fp16, y = input_1189_cast_fp16)[name = tensor<string, []>("input_1243_cast_fp16")];
            tensor<string, []> body_feat_pad_type_0 = const()[name = tensor<string, []>("body_feat_pad_type_0"), val = tensor<string, []>("custom")];
            tensor<int32, [4]> body_feat_pad_0 = const()[name = tensor<string, []>("body_feat_pad_0"), val = tensor<int32, [4]>([1, 1, 1, 1])];
            tensor<int32, [2]> body_feat_strides_0 = const()[name = tensor<string, []>("body_feat_strides_0"), val = tensor<int32, [2]>([1, 1])];
            tensor<int32, [2]> body_feat_dilations_0 = const()[name = tensor<string, []>("body_feat_dilations_0"), val = tensor<int32, [2]>([1, 1])];
            tensor<int32, []> body_feat_groups_0 = const()[name = tensor<string, []>("body_feat_groups_0"), val = tensor<int32, []>(1)];
            tensor<fp16, [64, 64, 3, 3]> conv_body_weight_to_fp16 = const()[name = tensor<string, []>("conv_body_weight_to_fp16"), val = tensor<fp16, [64, 64, 3, 3]>(BLOBFILE(path = tensor<string, []>("@model_path/weights/weight.bin"), offset = tensor<uint64, []>(33141440)))];
            tensor<fp16, [64]> conv_body_bias_to_fp16 = const()[name = tensor<string, []>("conv_body_bias_to_fp16"), val = tensor<fp16, [64]>(BLOBFILE(path = tensor<string, []>("@model_path/weights/weight.bin"), offset = tensor<uint64, []>(33215232)))];
            tensor<fp16, [1, 64, 512, 512]> body_feat_cast_fp16 = conv(bias = conv_body_bias_to_fp16, dilations = body_feat_dilations_0, groups = body_feat_groups_0, pad = body_feat_pad_0, pad_type = body_feat_pad_type_0, strides = body_feat_strides_0, weight = conv_body_weight_to_fp16, x = input_1243_cast_fp16)[name = tensor<string, []>("body_feat_cast_fp16")];
            tensor<fp16, [1, 64, 512, 512]> input_1245_cast_fp16 = add(x = input_1_cast_fp16, y = body_feat_cast_fp16)[name = tensor<string, []>("input_1245_cast_fp16")];
            tensor<fp32, []> input_1247_scale_factor_height_0 = const()[name = tensor<string, []>("input_1247_scale_factor_height_0"), val = tensor<fp32, []>(0x1p+1)];
            tensor<fp32, []> input_1247_scale_factor_width_0 = const()[name = tensor<string, []>("input_1247_scale_factor_width_0"), val = tensor<fp32, []>(0x1p+1)];
            tensor<fp16, [1, 64, 1024, 1024]> input_1247_cast_fp16 = upsample_nearest_neighbor(scale_factor_height = input_1247_scale_factor_height_0, scale_factor_width = input_1247_scale_factor_width_0, x = input_1245_cast_fp16)[name = tensor<string, []>("input_1247_cast_fp16")];
            tensor<string, []> input_1249_pad_type_0 = const()[name = tensor<string, []>("input_1249_pad_type_0"), val = tensor<string, []>("custom")];
            tensor<int32, [4]> input_1249_pad_0 = const()[name = tensor<string, []>("input_1249_pad_0"), val = tensor<int32, [4]>([1, 1, 1, 1])];
            tensor<int32, [2]> input_1249_strides_0 = const()[name = tensor<string, []>("input_1249_strides_0"), val = tensor<int32, [2]>([1, 1])];
            tensor<int32, [2]> input_1249_dilations_0 = const()[name = tensor<string, []>("input_1249_dilations_0"), val = tensor<int32, [2]>([1, 1])];
            tensor<int32, []> input_1249_groups_0 = const()[name = tensor<string, []>("input_1249_groups_0"), val = tensor<int32, []>(1)];
            tensor<fp16, [64, 64, 3, 3]> conv_up1_weight_to_fp16 = const()[name = tensor<string, []>("conv_up1_weight_to_fp16"), val = tensor<fp16, [64, 64, 3, 3]>(BLOBFILE(path = tensor<string, []>("@model_path/weights/weight.bin"), offset = tensor<uint64, []>(33215424)))];
            tensor<fp16, [64]> conv_up1_bias_to_fp16 = const()[name = tensor<string, []>("conv_up1_bias_to_fp16"), val = tensor<fp16, [64]>(BLOBFILE(path = tensor<string, []>("@model_path/weights/weight.bin"), offset = tensor<uint64, []>(33289216)))];
            tensor<fp16, [1, 64, 1024, 1024]> input_1249_cast_fp16 = conv(bias = conv_up1_bias_to_fp16, dilations = input_1249_dilations_0, groups = input_1249_groups_0, pad = input_1249_pad_0, pad_type = input_1249_pad_type_0, strides = input_1249_strides_0, weight = conv_up1_weight_to_fp16, x = input_1247_cast_fp16)[name = tensor<string, []>("input_1249_cast_fp16")];
            tensor<fp16, []> var_4010_to_fp16 = const()[name = tensor<string, []>("op_4010_to_fp16"), val = tensor<fp16, []>(0x1.998p-3)];
            tensor<fp16, [1, 64, 1024, 1024]> input_1251_cast_fp16 = leaky_relu(alpha = var_4010_to_fp16, x = input_1249_cast_fp16)[name = tensor<string, []>("input_1251_cast_fp16")];
            tensor<fp32, []> input_1253_scale_factor_height_0 = const()[name = tensor<string, []>("input_1253_scale_factor_height_0"), val = tensor<fp32, []>(0x1p+1)];
            tensor<fp32, []> input_1253_scale_factor_width_0 = const()[name = tensor<string, []>("input_1253_scale_factor_width_0"), val = tensor<fp32, []>(0x1p+1)];
            tensor<fp16, [1, 64, 2048, 2048]> input_1253_cast_fp16 = upsample_nearest_neighbor(scale_factor_height = input_1253_scale_factor_height_0, scale_factor_width = input_1253_scale_factor_width_0, x = input_1251_cast_fp16)[name = tensor<string, []>("input_1253_cast_fp16")];
            tensor<string, []> input_1255_pad_type_0 = const()[name = tensor<string, []>("input_1255_pad_type_0"), val = tensor<string, []>("custom")];
            tensor<int32, [4]> input_1255_pad_0 = const()[name = tensor<string, []>("input_1255_pad_0"), val = tensor<int32, [4]>([1, 1, 1, 1])];
            tensor<int32, [2]> input_1255_strides_0 = const()[name = tensor<string, []>("input_1255_strides_0"), val = tensor<int32, [2]>([1, 1])];
            tensor<int32, [2]> input_1255_dilations_0 = const()[name = tensor<string, []>("input_1255_dilations_0"), val = tensor<int32, [2]>([1, 1])];
            tensor<int32, []> input_1255_groups_0 = const()[name = tensor<string, []>("input_1255_groups_0"), val = tensor<int32, []>(1)];
            tensor<fp16, [64, 64, 3, 3]> conv_up2_weight_to_fp16 = const()[name = tensor<string, []>("conv_up2_weight_to_fp16"), val = tensor<fp16, [64, 64, 3, 3]>(BLOBFILE(path = tensor<string, []>("@model_path/weights/weight.bin"), offset = tensor<uint64, []>(33289408)))];
            tensor<fp16, [64]> conv_up2_bias_to_fp16 = const()[name = tensor<string, []>("conv_up2_bias_to_fp16"), val = tensor<fp16, [64]>(BLOBFILE(path = tensor<string, []>("@model_path/weights/weight.bin"), offset = tensor<uint64, []>(33363200)))];
            tensor<fp16, [1, 64, 2048, 2048]> input_1255_cast_fp16 = conv(bias = conv_up2_bias_to_fp16, dilations = input_1255_dilations_0, groups = input_1255_groups_0, pad = input_1255_pad_0, pad_type = input_1255_pad_type_0, strides = input_1255_strides_0, weight = conv_up2_weight_to_fp16, x = input_1253_cast_fp16)[name = tensor<string, []>("input_1255_cast_fp16")];
            tensor<fp16, []> var_4028_to_fp16 = const()[name = tensor<string, []>("op_4028_to_fp16"), val = tensor<fp16, []>(0x1.998p-3)];
            tensor<fp16, [1, 64, 2048, 2048]> input_1257_cast_fp16 = leaky_relu(alpha = var_4028_to_fp16, x = input_1255_cast_fp16)[name = tensor<string, []>("input_1257_cast_fp16")];
            tensor<string, []> input_1259_pad_type_0 = const()[name = tensor<string, []>("input_1259_pad_type_0"), val = tensor<string, []>("custom")];
            tensor<int32, [4]> input_1259_pad_0 = const()[name = tensor<string, []>("input_1259_pad_0"), val = tensor<int32, [4]>([1, 1, 1, 1])];
            tensor<int32, [2]> input_1259_strides_0 = const()[name = tensor<string, []>("input_1259_strides_0"), val = tensor<int32, [2]>([1, 1])];
            tensor<int32, [2]> input_1259_dilations_0 = const()[name = tensor<string, []>("input_1259_dilations_0"), val = tensor<int32, [2]>([1, 1])];
            tensor<int32, []> input_1259_groups_0 = const()[name = tensor<string, []>("input_1259_groups_0"), val = tensor<int32, []>(1)];
            tensor<fp16, [64, 64, 3, 3]> conv_hr_weight_to_fp16 = const()[name = tensor<string, []>("conv_hr_weight_to_fp16"), val = tensor<fp16, [64, 64, 3, 3]>(BLOBFILE(path = tensor<string, []>("@model_path/weights/weight.bin"), offset = tensor<uint64, []>(33363392)))];
            tensor<fp16, [64]> conv_hr_bias_to_fp16 = const()[name = tensor<string, []>("conv_hr_bias_to_fp16"), val = tensor<fp16, [64]>(BLOBFILE(path = tensor<string, []>("@model_path/weights/weight.bin"), offset = tensor<uint64, []>(33437184)))];
            tensor<fp16, [1, 64, 2048, 2048]> input_1259_cast_fp16 = conv(bias = conv_hr_bias_to_fp16, dilations = input_1259_dilations_0, groups = input_1259_groups_0, pad = input_1259_pad_0, pad_type = input_1259_pad_type_0, strides = input_1259_strides_0, weight = conv_hr_weight_to_fp16, x = input_1257_cast_fp16)[name = tensor<string, []>("input_1259_cast_fp16")];
            tensor<fp16, []> var_4041_to_fp16 = const()[name = tensor<string, []>("op_4041_to_fp16"), val = tensor<fp16, []>(0x1.998p-3)];
            tensor<fp16, [1, 64, 2048, 2048]> input_cast_fp16 = leaky_relu(alpha = var_4041_to_fp16, x = input_1259_cast_fp16)[name = tensor<string, []>("input_cast_fp16")];
            tensor<string, []> var_4053_pad_type_0 = const()[name = tensor<string, []>("op_4053_pad_type_0"), val = tensor<string, []>("custom")];
            tensor<int32, [4]> var_4053_pad_0 = const()[name = tensor<string, []>("op_4053_pad_0"), val = tensor<int32, [4]>([1, 1, 1, 1])];
            tensor<int32, [2]> var_4053_strides_0 = const()[name = tensor<string, []>("op_4053_strides_0"), val = tensor<int32, [2]>([1, 1])];
            tensor<int32, [2]> var_4053_dilations_0 = const()[name = tensor<string, []>("op_4053_dilations_0"), val = tensor<int32, [2]>([1, 1])];
            tensor<int32, []> var_4053_groups_0 = const()[name = tensor<string, []>("op_4053_groups_0"), val = tensor<int32, []>(1)];
            tensor<fp16, [3, 64, 3, 3]> conv_last_weight_to_fp16 = const()[name = tensor<string, []>("conv_last_weight_to_fp16"), val = tensor<fp16, [3, 64, 3, 3]>(BLOBFILE(path = tensor<string, []>("@model_path/weights/weight.bin"), offset = tensor<uint64, []>(33437376)))];
            tensor<fp16, [3]> conv_last_bias_to_fp16 = const()[name = tensor<string, []>("conv_last_bias_to_fp16"), val = tensor<fp16, [3]>([0x1.388p-5, 0x1.1ecp-5, 0x1.a54p-6])];
            tensor<fp16, [1, 3, 2048, 2048]> output = conv(bias = conv_last_bias_to_fp16, dilations = var_4053_dilations_0, groups = var_4053_groups_0, pad = var_4053_pad_0, pad_type = var_4053_pad_type_0, strides = var_4053_strides_0, weight = conv_last_weight_to_fp16, x = input_cast_fp16)[name = tensor<string, []>("op_4053_cast_fp16")];
        } -> (output);
}