program(1.0)
[buildInfo = dict<tensor<string, []>, tensor<string, []>>({{"coremlc-component-MIL", "3520.4.1"}, {"coremlc-version", "3520.5.1"}, {"coremltools-component-torch", "2.12.0"}, {"coremltools-source-dialect", "TorchScript"}, {"coremltools-version", "9.0"}})]
{
    func main<ios16>(tensor<fp16, [1, 3, 512, 512]> input) {
            tensor<uint32, []> input_1_downscale_factor_0 = const()[name = tensor<string, []>("input_1_downscale_factor_0"), val = tensor<uint32, []>(2)];
            tensor<fp16, [1, 12, 256, 256]> input_1_cast_fp16 = pixel_unshuffle(downscale_factor = input_1_downscale_factor_0, x = input)[name = tensor<string, []>("input_1_cast_fp16")];
            tensor<int32, []> var_8 = const()[name = tensor<string, []>("op_8"), val = tensor<int32, []>(1)];
            tensor<string, []> input_3_pad_type_0 = const()[name = tensor<string, []>("input_3_pad_type_0"), val = tensor<string, []>("custom")];
            tensor<int32, [4]> input_3_pad_0 = const()[name = tensor<string, []>("input_3_pad_0"), val = tensor<int32, [4]>([1, 1, 1, 1])];
            tensor<int32, [2]> input_3_strides_0 = const()[name = tensor<string, []>("input_3_strides_0"), val = tensor<int32, [2]>([1, 1])];
            tensor<int32, [2]> input_3_dilations_0 = const()[name = tensor<string, []>("input_3_dilations_0"), val = tensor<int32, [2]>([1, 1])];
            tensor<int32, []> input_3_groups_0 = const()[name = tensor<string, []>("input_3_groups_0"), val = tensor<int32, []>(1)];
            tensor<fp16, [64, 12, 3, 3]> rrdb_conv_first_weight_to_fp16 = const()[name = tensor<string, []>("rrdb_conv_first_weight_to_fp16"), val = tensor<fp16, [64, 12, 3, 3]>(BLOBFILE(path = tensor<string, []>("@model_path/weights/weight.bin"), offset = tensor<uint64, []>(64)))];
            tensor<fp16, [64]> rrdb_conv_first_bias_to_fp16 = const()[name = tensor<string, []>("rrdb_conv_first_bias_to_fp16"), val = tensor<fp16, [64]>(BLOBFILE(path = tensor<string, []>("@model_path/weights/weight.bin"), offset = tensor<uint64, []>(13952)))];
            tensor<fp16, [1, 64, 256, 256]> input_3_cast_fp16 = conv(bias = rrdb_conv_first_bias_to_fp16, dilations = input_3_dilations_0, groups = input_3_groups_0, pad = input_3_pad_0, pad_type = input_3_pad_type_0, strides = input_3_strides_0, weight = rrdb_conv_first_weight_to_fp16, x = input_1_cast_fp16)[name = tensor<string, []>("input_3_cast_fp16")];
            tensor<string, []> input_5_pad_type_0 = const()[name = tensor<string, []>("input_5_pad_type_0"), val = tensor<string, []>("custom")];
            tensor<int32, [4]> input_5_pad_0 = const()[name = tensor<string, []>("input_5_pad_0"), val = tensor<int32, [4]>([1, 1, 1, 1])];
            tensor<int32, [2]> input_5_strides_0 = const()[name = tensor<string, []>("input_5_strides_0"), val = tensor<int32, [2]>([1, 1])];
            tensor<int32, [2]> input_5_dilations_0 = const()[name = tensor<string, []>("input_5_dilations_0"), val = tensor<int32, [2]>([1, 1])];
            tensor<int32, []> input_5_groups_0 = const()[name = tensor<string, []>("input_5_groups_0"), val = tensor<int32, []>(1)];
            tensor<fp16, [32, 64, 3, 3]> rrdb_body_0_rdb1_conv1_weight_to_fp16 = const()[name = tensor<string, []>("rrdb_body_0_rdb1_conv1_weight_to_fp16"), val = tensor<fp16, [32, 64, 3, 3]>(BLOBFILE(path = tensor<string, []>("@model_path/weights/weight.bin"), offset = tensor<uint64, []>(14144)))];
            tensor<fp16, [32]> rrdb_body_0_rdb1_conv1_bias_to_fp16 = const()[name = tensor<string, []>("rrdb_body_0_rdb1_conv1_bias_to_fp16"), val = tensor<fp16, [32]>(BLOBFILE(path = tensor<string, []>("@model_path/weights/weight.bin"), offset = tensor<uint64, []>(51072)))];
            tensor<fp16, [1, 32, 256, 256]> input_5_cast_fp16 = conv(bias = rrdb_body_0_rdb1_conv1_bias_to_fp16, dilations = input_5_dilations_0, groups = input_5_groups_0, pad = input_5_pad_0, pad_type = input_5_pad_type_0, strides = input_5_strides_0, weight = rrdb_body_0_rdb1_conv1_weight_to_fp16, x = input_3_cast_fp16)[name = tensor<string, []>("input_5_cast_fp16")];
            tensor<fp16, []> var_7_to_fp16 = const()[name = tensor<string, []>("op_7_to_fp16"), val = tensor<fp16, []>(0x1.998p-3)];
            tensor<fp16, [1, 32, 256, 256]> x1_1_cast_fp16 = leaky_relu(alpha = var_7_to_fp16, x = input_5_cast_fp16)[name = tensor<string, []>("x1_1_cast_fp16")];
            tensor<bool, []> input_7_interleave_0 = const()[name = tensor<string, []>("input_7_interleave_0"), val = tensor<bool, []>(false)];
            tensor<fp16, [1, 96, 256, 256]> input_7_cast_fp16 = concat(axis = var_8, interleave = input_7_interleave_0, values = (input_3_cast_fp16, x1_1_cast_fp16))[name = tensor<string, []>("input_7_cast_fp16")];
            tensor<string, []> input_9_pad_type_0 = const()[name = tensor<string, []>("input_9_pad_type_0"), val = tensor<string, []>("custom")];
            tensor<int32, [4]> input_9_pad_0 = const()[name = tensor<string, []>("input_9_pad_0"), val = tensor<int32, [4]>([1, 1, 1, 1])];
            tensor<int32, [2]> input_9_strides_0 = const()[name = tensor<string, []>("input_9_strides_0"), val = tensor<int32, [2]>([1, 1])];
            tensor<int32, [2]> input_9_dilations_0 = const()[name = tensor<string, []>("input_9_dilations_0"), val = tensor<int32, [2]>([1, 1])];
            tensor<int32, []> input_9_groups_0 = const()[name = tensor<string, []>("input_9_groups_0"), val = tensor<int32, []>(1)];
            tensor<fp16, [32, 96, 3, 3]> rrdb_body_0_rdb1_conv2_weight_to_fp16 = const()[name = tensor<string, []>("rrdb_body_0_rdb1_conv2_weight_to_fp16"), val = tensor<fp16, [32, 96, 3, 3]>(BLOBFILE(path = tensor<string, []>("@model_path/weights/weight.bin"), offset = tensor<uint64, []>(51200)))];
            tensor<fp16, [32]> rrdb_body_0_rdb1_conv2_bias_to_fp16 = const()[name = tensor<string, []>("rrdb_body_0_rdb1_conv2_bias_to_fp16"), val = tensor<fp16, [32]>(BLOBFILE(path = tensor<string, []>("@model_path/weights/weight.bin"), offset = tensor<uint64, []>(106560)))];
            tensor<fp16, [1, 32, 256, 256]> input_9_cast_fp16 = conv(bias = rrdb_body_0_rdb1_conv2_bias_to_fp16, dilations = input_9_dilations_0, groups = input_9_groups_0, pad = input_9_pad_0, pad_type = input_9_pad_type_0, strides = input_9_strides_0, weight = rrdb_body_0_rdb1_conv2_weight_to_fp16, x = input_7_cast_fp16)[name = tensor<string, []>("input_9_cast_fp16")];
            tensor<fp16, [1, 32, 256, 256]> x2_1_cast_fp16 = leaky_relu(alpha = var_7_to_fp16, x = input_9_cast_fp16)[name = tensor<string, []>("x2_1_cast_fp16")];
            tensor<bool, []> input_11_interleave_0 = const()[name = tensor<string, []>("input_11_interleave_0"), val = tensor<bool, []>(false)];
            tensor<fp16, [1, 128, 256, 256]> input_11_cast_fp16 = concat(axis = var_8, interleave = input_11_interleave_0, values = (input_3_cast_fp16, x1_1_cast_fp16, x2_1_cast_fp16))[name = tensor<string, []>("input_11_cast_fp16")];
            tensor<string, []> input_13_pad_type_0 = const()[name = tensor<string, []>("input_13_pad_type_0"), val = tensor<string, []>("custom")];
            tensor<int32, [4]> input_13_pad_0 = const()[name = tensor<string, []>("input_13_pad_0"), val = tensor<int32, [4]>([1, 1, 1, 1])];
            tensor<int32, [2]> input_13_strides_0 = const()[name = tensor<string, []>("input_13_strides_0"), val = tensor<int32, [2]>([1, 1])];
            tensor<int32, [2]> input_13_dilations_0 = const()[name = tensor<string, []>("input_13_dilations_0"), val = tensor<int32, [2]>([1, 1])];
            tensor<int32, []> input_13_groups_0 = const()[name = tensor<string, []>("input_13_groups_0"), val = tensor<int32, []>(1)];
            tensor<fp16, [32, 128, 3, 3]> rrdb_body_0_rdb1_conv3_weight_to_fp16 = const()[name = tensor<string, []>("rrdb_body_0_rdb1_conv3_weight_to_fp16"), val = tensor<fp16, [32, 128, 3, 3]>(BLOBFILE(path = tensor<string, []>("@model_path/weights/weight.bin"), offset = tensor<uint64, []>(106688)))];
            tensor<fp16, [32]> rrdb_body_0_rdb1_conv3_bias_to_fp16 = const()[name = tensor<string, []>("rrdb_body_0_rdb1_conv3_bias_to_fp16"), val = tensor<fp16, [32]>(BLOBFILE(path = tensor<string, []>("@model_path/weights/weight.bin"), offset = tensor<uint64, []>(180480)))];
            tensor<fp16, [1, 32, 256, 256]> input_13_cast_fp16 = conv(bias = rrdb_body_0_rdb1_conv3_bias_to_fp16, dilations = input_13_dilations_0, groups = input_13_groups_0, pad = input_13_pad_0, pad_type = input_13_pad_type_0, strides = input_13_strides_0, weight = rrdb_body_0_rdb1_conv3_weight_to_fp16, x = input_11_cast_fp16)[name = tensor<string, []>("input_13_cast_fp16")];
            tensor<fp16, [1, 32, 256, 256]> x3_1_cast_fp16 = leaky_relu(alpha = var_7_to_fp16, x = input_13_cast_fp16)[name = tensor<string, []>("x3_1_cast_fp16")];
            tensor<bool, []> input_15_interleave_0 = const()[name = tensor<string, []>("input_15_interleave_0"), val = tensor<bool, []>(false)];
            tensor<fp16, [1, 160, 256, 256]> input_15_cast_fp16 = concat(axis = var_8, interleave = input_15_interleave_0, values = (input_3_cast_fp16, x1_1_cast_fp16, x2_1_cast_fp16, x3_1_cast_fp16))[name = tensor<string, []>("input_15_cast_fp16")];
            tensor<string, []> input_17_pad_type_0 = const()[name = tensor<string, []>("input_17_pad_type_0"), val = tensor<string, []>("custom")];
            tensor<int32, [4]> input_17_pad_0 = const()[name = tensor<string, []>("input_17_pad_0"), val = tensor<int32, [4]>([1, 1, 1, 1])];
            tensor<int32, [2]> input_17_strides_0 = const()[name = tensor<string, []>("input_17_strides_0"), val = tensor<int32, [2]>([1, 1])];
            tensor<int32, [2]> input_17_dilations_0 = const()[name = tensor<string, []>("input_17_dilations_0"), val = tensor<int32, [2]>([1, 1])];
            tensor<int32, []> input_17_groups_0 = const()[name = tensor<string, []>("input_17_groups_0"), val = tensor<int32, []>(1)];
            tensor<fp16, [32, 160, 3, 3]> rrdb_body_0_rdb1_conv4_weight_to_fp16 = const()[name = tensor<string, []>("rrdb_body_0_rdb1_conv4_weight_to_fp16"), val = tensor<fp16, [32, 160, 3, 3]>(BLOBFILE(path = tensor<string, []>("@model_path/weights/weight.bin"), offset = tensor<uint64, []>(180608)))];
            tensor<fp16, [32]> rrdb_body_0_rdb1_conv4_bias_to_fp16 = const()[name = tensor<string, []>("rrdb_body_0_rdb1_conv4_bias_to_fp16"), val = tensor<fp16, [32]>(BLOBFILE(path = tensor<string, []>("@model_path/weights/weight.bin"), offset = tensor<uint64, []>(272832)))];
            tensor<fp16, [1, 32, 256, 256]> input_17_cast_fp16 = conv(bias = rrdb_body_0_rdb1_conv4_bias_to_fp16, dilations = input_17_dilations_0, groups = input_17_groups_0, pad = input_17_pad_0, pad_type = input_17_pad_type_0, strides = input_17_strides_0, weight = rrdb_body_0_rdb1_conv4_weight_to_fp16, x = input_15_cast_fp16)[name = tensor<string, []>("input_17_cast_fp16")];
            tensor<fp16, [1, 32, 256, 256]> x4_1_cast_fp16 = leaky_relu(alpha = var_7_to_fp16, x = input_17_cast_fp16)[name = tensor<string, []>("x4_1_cast_fp16")];
            tensor<bool, []> input_19_interleave_0 = const()[name = tensor<string, []>("input_19_interleave_0"), val = tensor<bool, []>(false)];
            tensor<fp16, [1, 192, 256, 256]> input_19_cast_fp16 = concat(axis = var_8, interleave = input_19_interleave_0, values = (input_3_cast_fp16, x1_1_cast_fp16, x2_1_cast_fp16, x3_1_cast_fp16, x4_1_cast_fp16))[name = tensor<string, []>("input_19_cast_fp16")];
            tensor<string, []> x5_1_pad_type_0 = const()[name = tensor<string, []>("x5_1_pad_type_0"), val = tensor<string, []>("custom")];
            tensor<int32, [4]> x5_1_pad_0 = const()[name = tensor<string, []>("x5_1_pad_0"), val = tensor<int32, [4]>([1, 1, 1, 1])];
            tensor<int32, [2]> x5_1_strides_0 = const()[name = tensor<string, []>("x5_1_strides_0"), val = tensor<int32, [2]>([1, 1])];
            tensor<int32, [2]> x5_1_dilations_0 = const()[name = tensor<string, []>("x5_1_dilations_0"), val = tensor<int32, [2]>([1, 1])];
            tensor<int32, []> x5_1_groups_0 = const()[name = tensor<string, []>("x5_1_groups_0"), val = tensor<int32, []>(1)];
            tensor<fp16, [64, 192, 3, 3]> var_105_weight_0_to_fp16 = const()[name = tensor<string, []>("op_105_weight_0_to_fp16"), val = tensor<fp16, [64, 192, 3, 3]>(BLOBFILE(path = tensor<string, []>("@model_path/weights/weight.bin"), offset = tensor<uint64, []>(272960)))];
            tensor<fp16, [64]> var_105_bias_0_to_fp16 = const()[name = tensor<string, []>("op_105_bias_0_to_fp16"), val = tensor<fp16, [64]>(BLOBFILE(path = tensor<string, []>("@model_path/weights/weight.bin"), offset = tensor<uint64, []>(494208)))];
            tensor<fp16, [1, 64, 256, 256]> var_105_cast_fp16 = conv(bias = var_105_bias_0_to_fp16, dilations = x5_1_dilations_0, groups = x5_1_groups_0, pad = x5_1_pad_0, pad_type = x5_1_pad_type_0, strides = x5_1_strides_0, weight = var_105_weight_0_to_fp16, x = input_19_cast_fp16)[name = tensor<string, []>("op_105_cast_fp16")];
            tensor<fp16, [1, 64, 256, 256]> input_21_cast_fp16 = add(x = var_105_cast_fp16, y = input_3_cast_fp16)[name = tensor<string, []>("input_21_cast_fp16")];
            tensor<string, []> input_23_pad_type_0 = const()[name = tensor<string, []>("input_23_pad_type_0"), val = tensor<string, []>("custom")];
            tensor<int32, [4]> input_23_pad_0 = const()[name = tensor<string, []>("input_23_pad_0"), val = tensor<int32, [4]>([1, 1, 1, 1])];
            tensor<int32, [2]> input_23_strides_0 = const()[name = tensor<string, []>("input_23_strides_0"), val = tensor<int32, [2]>([1, 1])];
            tensor<int32, [2]> input_23_dilations_0 = const()[name = tensor<string, []>("input_23_dilations_0"), val = tensor<int32, [2]>([1, 1])];
            tensor<int32, []> input_23_groups_0 = const()[name = tensor<string, []>("input_23_groups_0"), val = tensor<int32, []>(1)];
            tensor<fp16, [32, 64, 3, 3]> rrdb_body_0_rdb2_conv1_weight_to_fp16 = const()[name = tensor<string, []>("rrdb_body_0_rdb2_conv1_weight_to_fp16"), val = tensor<fp16, [32, 64, 3, 3]>(BLOBFILE(path = tensor<string, []>("@model_path/weights/weight.bin"), offset = tensor<uint64, []>(494400)))];
            tensor<fp16, [32]> rrdb_body_0_rdb2_conv1_bias_to_fp16 = const()[name = tensor<string, []>("rrdb_body_0_rdb2_conv1_bias_to_fp16"), val = tensor<fp16, [32]>(BLOBFILE(path = tensor<string, []>("@model_path/weights/weight.bin"), offset = tensor<uint64, []>(531328)))];
            tensor<fp16, [1, 32, 256, 256]> input_23_cast_fp16 = conv(bias = rrdb_body_0_rdb2_conv1_bias_to_fp16, dilations = input_23_dilations_0, groups = input_23_groups_0, pad = input_23_pad_0, pad_type = input_23_pad_type_0, strides = input_23_strides_0, weight = rrdb_body_0_rdb2_conv1_weight_to_fp16, x = input_21_cast_fp16)[name = tensor<string, []>("input_23_cast_fp16")];
            tensor<fp16, [1, 32, 256, 256]> x1_3_cast_fp16 = leaky_relu(alpha = var_7_to_fp16, x = input_23_cast_fp16)[name = tensor<string, []>("x1_3_cast_fp16")];
            tensor<bool, []> input_25_interleave_0 = const()[name = tensor<string, []>("input_25_interleave_0"), val = tensor<bool, []>(false)];
            tensor<fp16, [1, 96, 256, 256]> input_25_cast_fp16 = concat(axis = var_8, interleave = input_25_interleave_0, values = (input_21_cast_fp16, x1_3_cast_fp16))[name = tensor<string, []>("input_25_cast_fp16")];
            tensor<string, []> input_27_pad_type_0 = const()[name = tensor<string, []>("input_27_pad_type_0"), val = tensor<string, []>("custom")];
            tensor<int32, [4]> input_27_pad_0 = const()[name = tensor<string, []>("input_27_pad_0"), val = tensor<int32, [4]>([1, 1, 1, 1])];
            tensor<int32, [2]> input_27_strides_0 = const()[name = tensor<string, []>("input_27_strides_0"), val = tensor<int32, [2]>([1, 1])];
            tensor<int32, [2]> input_27_dilations_0 = const()[name = tensor<string, []>("input_27_dilations_0"), val = tensor<int32, [2]>([1, 1])];
            tensor<int32, []> input_27_groups_0 = const()[name = tensor<string, []>("input_27_groups_0"), val = tensor<int32, []>(1)];
            tensor<fp16, [32, 96, 3, 3]> rrdb_body_0_rdb2_conv2_weight_to_fp16 = const()[name = tensor<string, []>("rrdb_body_0_rdb2_conv2_weight_to_fp16"), val = tensor<fp16, [32, 96, 3, 3]>(BLOBFILE(path = tensor<string, []>("@model_path/weights/weight.bin"), offset = tensor<uint64, []>(531456)))];
            tensor<fp16, [32]> rrdb_body_0_rdb2_conv2_bias_to_fp16 = const()[name = tensor<string, []>("rrdb_body_0_rdb2_conv2_bias_to_fp16"), val = tensor<fp16, [32]>(BLOBFILE(path = tensor<string, []>("@model_path/weights/weight.bin"), offset = tensor<uint64, []>(586816)))];
            tensor<fp16, [1, 32, 256, 256]> input_27_cast_fp16 = conv(bias = rrdb_body_0_rdb2_conv2_bias_to_fp16, dilations = input_27_dilations_0, groups = input_27_groups_0, pad = input_27_pad_0, pad_type = input_27_pad_type_0, strides = input_27_strides_0, weight = rrdb_body_0_rdb2_conv2_weight_to_fp16, x = input_25_cast_fp16)[name = tensor<string, []>("input_27_cast_fp16")];
            tensor<fp16, [1, 32, 256, 256]> x2_3_cast_fp16 = leaky_relu(alpha = var_7_to_fp16, x = input_27_cast_fp16)[name = tensor<string, []>("x2_3_cast_fp16")];
            tensor<bool, []> input_29_interleave_0 = const()[name = tensor<string, []>("input_29_interleave_0"), val = tensor<bool, []>(false)];
            tensor<fp16, [1, 128, 256, 256]> input_29_cast_fp16 = concat(axis = var_8, interleave = input_29_interleave_0, values = (input_21_cast_fp16, x1_3_cast_fp16, x2_3_cast_fp16))[name = tensor<string, []>("input_29_cast_fp16")];
            tensor<string, []> input_31_pad_type_0 = const()[name = tensor<string, []>("input_31_pad_type_0"), val = tensor<string, []>("custom")];
            tensor<int32, [4]> input_31_pad_0 = const()[name = tensor<string, []>("input_31_pad_0"), val = tensor<int32, [4]>([1, 1, 1, 1])];
            tensor<int32, [2]> input_31_strides_0 = const()[name = tensor<string, []>("input_31_strides_0"), val = tensor<int32, [2]>([1, 1])];
            tensor<int32, [2]> input_31_dilations_0 = const()[name = tensor<string, []>("input_31_dilations_0"), val = tensor<int32, [2]>([1, 1])];
            tensor<int32, []> input_31_groups_0 = const()[name = tensor<string, []>("input_31_groups_0"), val = tensor<int32, []>(1)];
            tensor<fp16, [32, 128, 3, 3]> rrdb_body_0_rdb2_conv3_weight_to_fp16 = const()[name = tensor<string, []>("rrdb_body_0_rdb2_conv3_weight_to_fp16"), val = tensor<fp16, [32, 128, 3, 3]>(BLOBFILE(path = tensor<string, []>("@model_path/weights/weight.bin"), offset = tensor<uint64, []>(586944)))];
            tensor<fp16, [32]> rrdb_body_0_rdb2_conv3_bias_to_fp16 = const()[name = tensor<string, []>("rrdb_body_0_rdb2_conv3_bias_to_fp16"), val = tensor<fp16, [32]>(BLOBFILE(path = tensor<string, []>("@model_path/weights/weight.bin"), offset = tensor<uint64, []>(660736)))];
            tensor<fp16, [1, 32, 256, 256]> input_31_cast_fp16 = conv(bias = rrdb_body_0_rdb2_conv3_bias_to_fp16, dilations = input_31_dilations_0, groups = input_31_groups_0, pad = input_31_pad_0, pad_type = input_31_pad_type_0, strides = input_31_strides_0, weight = rrdb_body_0_rdb2_conv3_weight_to_fp16, x = input_29_cast_fp16)[name = tensor<string, []>("input_31_cast_fp16")];
            tensor<fp16, [1, 32, 256, 256]> x3_3_cast_fp16 = leaky_relu(alpha = var_7_to_fp16, x = input_31_cast_fp16)[name = tensor<string, []>("x3_3_cast_fp16")];
            tensor<bool, []> input_33_interleave_0 = const()[name = tensor<string, []>("input_33_interleave_0"), val = tensor<bool, []>(false)];
            tensor<fp16, [1, 160, 256, 256]> input_33_cast_fp16 = concat(axis = var_8, interleave = input_33_interleave_0, values = (input_21_cast_fp16, x1_3_cast_fp16, x2_3_cast_fp16, x3_3_cast_fp16))[name = tensor<string, []>("input_33_cast_fp16")];
            tensor<string, []> input_35_pad_type_0 = const()[name = tensor<string, []>("input_35_pad_type_0"), val = tensor<string, []>("custom")];
            tensor<int32, [4]> input_35_pad_0 = const()[name = tensor<string, []>("input_35_pad_0"), val = tensor<int32, [4]>([1, 1, 1, 1])];
            tensor<int32, [2]> input_35_strides_0 = const()[name = tensor<string, []>("input_35_strides_0"), val = tensor<int32, [2]>([1, 1])];
            tensor<int32, [2]> input_35_dilations_0 = const()[name = tensor<string, []>("input_35_dilations_0"), val = tensor<int32, [2]>([1, 1])];
            tensor<int32, []> input_35_groups_0 = const()[name = tensor<string, []>("input_35_groups_0"), val = tensor<int32, []>(1)];
            tensor<fp16, [32, 160, 3, 3]> rrdb_body_0_rdb2_conv4_weight_to_fp16 = const()[name = tensor<string, []>("rrdb_body_0_rdb2_conv4_weight_to_fp16"), val = tensor<fp16, [32, 160, 3, 3]>(BLOBFILE(path = tensor<string, []>("@model_path/weights/weight.bin"), offset = tensor<uint64, []>(660864)))];
            tensor<fp16, [32]> rrdb_body_0_rdb2_conv4_bias_to_fp16 = const()[name = tensor<string, []>("rrdb_body_0_rdb2_conv4_bias_to_fp16"), val = tensor<fp16, [32]>(BLOBFILE(path = tensor<string, []>("@model_path/weights/weight.bin"), offset = tensor<uint64, []>(753088)))];
            tensor<fp16, [1, 32, 256, 256]> input_35_cast_fp16 = conv(bias = rrdb_body_0_rdb2_conv4_bias_to_fp16, dilations = input_35_dilations_0, groups = input_35_groups_0, pad = input_35_pad_0, pad_type = input_35_pad_type_0, strides = input_35_strides_0, weight = rrdb_body_0_rdb2_conv4_weight_to_fp16, x = input_33_cast_fp16)[name = tensor<string, []>("input_35_cast_fp16")];
            tensor<fp16, [1, 32, 256, 256]> x4_3_cast_fp16 = leaky_relu(alpha = var_7_to_fp16, x = input_35_cast_fp16)[name = tensor<string, []>("x4_3_cast_fp16")];
            tensor<bool, []> input_37_interleave_0 = const()[name = tensor<string, []>("input_37_interleave_0"), val = tensor<bool, []>(false)];
            tensor<fp16, [1, 192, 256, 256]> input_37_cast_fp16 = concat(axis = var_8, interleave = input_37_interleave_0, values = (input_21_cast_fp16, x1_3_cast_fp16, x2_3_cast_fp16, x3_3_cast_fp16, x4_3_cast_fp16))[name = tensor<string, []>("input_37_cast_fp16")];
            tensor<string, []> x5_3_pad_type_0 = const()[name = tensor<string, []>("x5_3_pad_type_0"), val = tensor<string, []>("custom")];
            tensor<int32, [4]> x5_3_pad_0 = const()[name = tensor<string, []>("x5_3_pad_0"), val = tensor<int32, [4]>([1, 1, 1, 1])];
            tensor<int32, [2]> x5_3_strides_0 = const()[name = tensor<string, []>("x5_3_strides_0"), val = tensor<int32, [2]>([1, 1])];
            tensor<int32, [2]> x5_3_dilations_0 = const()[name = tensor<string, []>("x5_3_dilations_0"), val = tensor<int32, [2]>([1, 1])];
            tensor<int32, []> x5_3_groups_0 = const()[name = tensor<string, []>("x5_3_groups_0"), val = tensor<int32, []>(1)];
            tensor<fp16, [64, 192, 3, 3]> var_160_weight_0_to_fp16 = const()[name = tensor<string, []>("op_160_weight_0_to_fp16"), val = tensor<fp16, [64, 192, 3, 3]>(BLOBFILE(path = tensor<string, []>("@model_path/weights/weight.bin"), offset = tensor<uint64, []>(753216)))];
            tensor<fp16, [64]> var_160_bias_0_to_fp16 = const()[name = tensor<string, []>("op_160_bias_0_to_fp16"), val = tensor<fp16, [64]>(BLOBFILE(path = tensor<string, []>("@model_path/weights/weight.bin"), offset = tensor<uint64, []>(974464)))];
            tensor<fp16, [1, 64, 256, 256]> var_160_cast_fp16 = conv(bias = var_160_bias_0_to_fp16, dilations = x5_3_dilations_0, groups = x5_3_groups_0, pad = x5_3_pad_0, pad_type = x5_3_pad_type_0, strides = x5_3_strides_0, weight = var_160_weight_0_to_fp16, x = input_37_cast_fp16)[name = tensor<string, []>("op_160_cast_fp16")];
            tensor<fp16, [1, 64, 256, 256]> input_39_cast_fp16 = add(x = var_160_cast_fp16, y = input_21_cast_fp16)[name = tensor<string, []>("input_39_cast_fp16")];
            tensor<string, []> input_41_pad_type_0 = const()[name = tensor<string, []>("input_41_pad_type_0"), val = tensor<string, []>("custom")];
            tensor<int32, [4]> input_41_pad_0 = const()[name = tensor<string, []>("input_41_pad_0"), val = tensor<int32, [4]>([1, 1, 1, 1])];
            tensor<int32, [2]> input_41_strides_0 = const()[name = tensor<string, []>("input_41_strides_0"), val = tensor<int32, [2]>([1, 1])];
            tensor<int32, [2]> input_41_dilations_0 = const()[name = tensor<string, []>("input_41_dilations_0"), val = tensor<int32, [2]>([1, 1])];
            tensor<int32, []> input_41_groups_0 = const()[name = tensor<string, []>("input_41_groups_0"), val = tensor<int32, []>(1)];
            tensor<fp16, [32, 64, 3, 3]> rrdb_body_0_rdb3_conv1_weight_to_fp16 = const()[name = tensor<string, []>("rrdb_body_0_rdb3_conv1_weight_to_fp16"), val = tensor<fp16, [32, 64, 3, 3]>(BLOBFILE(path = tensor<string, []>("@model_path/weights/weight.bin"), offset = tensor<uint64, []>(974656)))];
            tensor<fp16, [32]> rrdb_body_0_rdb3_conv1_bias_to_fp16 = const()[name = tensor<string, []>("rrdb_body_0_rdb3_conv1_bias_to_fp16"), val = tensor<fp16, [32]>(BLOBFILE(path = tensor<string, []>("@model_path/weights/weight.bin"), offset = tensor<uint64, []>(1011584)))];
            tensor<fp16, [1, 32, 256, 256]> input_41_cast_fp16 = conv(bias = rrdb_body_0_rdb3_conv1_bias_to_fp16, dilations = input_41_dilations_0, groups = input_41_groups_0, pad = input_41_pad_0, pad_type = input_41_pad_type_0, strides = input_41_strides_0, weight = rrdb_body_0_rdb3_conv1_weight_to_fp16, x = input_39_cast_fp16)[name = tensor<string, []>("input_41_cast_fp16")];
            tensor<fp16, [1, 32, 256, 256]> x1_5_cast_fp16 = leaky_relu(alpha = var_7_to_fp16, x = input_41_cast_fp16)[name = tensor<string, []>("x1_5_cast_fp16")];
            tensor<bool, []> input_43_interleave_0 = const()[name = tensor<string, []>("input_43_interleave_0"), val = tensor<bool, []>(false)];
            tensor<fp16, [1, 96, 256, 256]> input_43_cast_fp16 = concat(axis = var_8, interleave = input_43_interleave_0, values = (input_39_cast_fp16, x1_5_cast_fp16))[name = tensor<string, []>("input_43_cast_fp16")];
            tensor<string, []> input_45_pad_type_0 = const()[name = tensor<string, []>("input_45_pad_type_0"), val = tensor<string, []>("custom")];
            tensor<int32, [4]> input_45_pad_0 = const()[name = tensor<string, []>("input_45_pad_0"), val = tensor<int32, [4]>([1, 1, 1, 1])];
            tensor<int32, [2]> input_45_strides_0 = const()[name = tensor<string, []>("input_45_strides_0"), val = tensor<int32, [2]>([1, 1])];
            tensor<int32, [2]> input_45_dilations_0 = const()[name = tensor<string, []>("input_45_dilations_0"), val = tensor<int32, [2]>([1, 1])];
            tensor<int32, []> input_45_groups_0 = const()[name = tensor<string, []>("input_45_groups_0"), val = tensor<int32, []>(1)];
            tensor<fp16, [32, 96, 3, 3]> rrdb_body_0_rdb3_conv2_weight_to_fp16 = const()[name = tensor<string, []>("rrdb_body_0_rdb3_conv2_weight_to_fp16"), val = tensor<fp16, [32, 96, 3, 3]>(BLOBFILE(path = tensor<string, []>("@model_path/weights/weight.bin"), offset = tensor<uint64, []>(1011712)))];
            tensor<fp16, [32]> rrdb_body_0_rdb3_conv2_bias_to_fp16 = const()[name = tensor<string, []>("rrdb_body_0_rdb3_conv2_bias_to_fp16"), val = tensor<fp16, [32]>(BLOBFILE(path = tensor<string, []>("@model_path/weights/weight.bin"), offset = tensor<uint64, []>(1067072)))];
            tensor<fp16, [1, 32, 256, 256]> input_45_cast_fp16 = conv(bias = rrdb_body_0_rdb3_conv2_bias_to_fp16, dilations = input_45_dilations_0, groups = input_45_groups_0, pad = input_45_pad_0, pad_type = input_45_pad_type_0, strides = input_45_strides_0, weight = rrdb_body_0_rdb3_conv2_weight_to_fp16, x = input_43_cast_fp16)[name = tensor<string, []>("input_45_cast_fp16")];
            tensor<fp16, [1, 32, 256, 256]> x2_5_cast_fp16 = leaky_relu(alpha = var_7_to_fp16, x = input_45_cast_fp16)[name = tensor<string, []>("x2_5_cast_fp16")];
            tensor<bool, []> input_47_interleave_0 = const()[name = tensor<string, []>("input_47_interleave_0"), val = tensor<bool, []>(false)];
            tensor<fp16, [1, 128, 256, 256]> input_47_cast_fp16 = concat(axis = var_8, interleave = input_47_interleave_0, values = (input_39_cast_fp16, x1_5_cast_fp16, x2_5_cast_fp16))[name = tensor<string, []>("input_47_cast_fp16")];
            tensor<string, []> input_49_pad_type_0 = const()[name = tensor<string, []>("input_49_pad_type_0"), val = tensor<string, []>("custom")];
            tensor<int32, [4]> input_49_pad_0 = const()[name = tensor<string, []>("input_49_pad_0"), val = tensor<int32, [4]>([1, 1, 1, 1])];
            tensor<int32, [2]> input_49_strides_0 = const()[name = tensor<string, []>("input_49_strides_0"), val = tensor<int32, [2]>([1, 1])];
            tensor<int32, [2]> input_49_dilations_0 = const()[name = tensor<string, []>("input_49_dilations_0"), val = tensor<int32, [2]>([1, 1])];
            tensor<int32, []> input_49_groups_0 = const()[name = tensor<string, []>("input_49_groups_0"), val = tensor<int32, []>(1)];
            tensor<fp16, [32, 128, 3, 3]> rrdb_body_0_rdb3_conv3_weight_to_fp16 = const()[name = tensor<string, []>("rrdb_body_0_rdb3_conv3_weight_to_fp16"), val = tensor<fp16, [32, 128, 3, 3]>(BLOBFILE(path = tensor<string, []>("@model_path/weights/weight.bin"), offset = tensor<uint64, []>(1067200)))];
            tensor<fp16, [32]> rrdb_body_0_rdb3_conv3_bias_to_fp16 = const()[name = tensor<string, []>("rrdb_body_0_rdb3_conv3_bias_to_fp16"), val = tensor<fp16, [32]>(BLOBFILE(path = tensor<string, []>("@model_path/weights/weight.bin"), offset = tensor<uint64, []>(1140992)))];
            tensor<fp16, [1, 32, 256, 256]> input_49_cast_fp16 = conv(bias = rrdb_body_0_rdb3_conv3_bias_to_fp16, dilations = input_49_dilations_0, groups = input_49_groups_0, pad = input_49_pad_0, pad_type = input_49_pad_type_0, strides = input_49_strides_0, weight = rrdb_body_0_rdb3_conv3_weight_to_fp16, x = input_47_cast_fp16)[name = tensor<string, []>("input_49_cast_fp16")];
            tensor<fp16, [1, 32, 256, 256]> x3_5_cast_fp16 = leaky_relu(alpha = var_7_to_fp16, x = input_49_cast_fp16)[name = tensor<string, []>("x3_5_cast_fp16")];
            tensor<bool, []> input_51_interleave_0 = const()[name = tensor<string, []>("input_51_interleave_0"), val = tensor<bool, []>(false)];
            tensor<fp16, [1, 160, 256, 256]> input_51_cast_fp16 = concat(axis = var_8, interleave = input_51_interleave_0, values = (input_39_cast_fp16, x1_5_cast_fp16, x2_5_cast_fp16, x3_5_cast_fp16))[name = tensor<string, []>("input_51_cast_fp16")];
            tensor<string, []> input_53_pad_type_0 = const()[name = tensor<string, []>("input_53_pad_type_0"), val = tensor<string, []>("custom")];
            tensor<int32, [4]> input_53_pad_0 = const()[name = tensor<string, []>("input_53_pad_0"), val = tensor<int32, [4]>([1, 1, 1, 1])];
            tensor<int32, [2]> input_53_strides_0 = const()[name = tensor<string, []>("input_53_strides_0"), val = tensor<int32, [2]>([1, 1])];
            tensor<int32, [2]> input_53_dilations_0 = const()[name = tensor<string, []>("input_53_dilations_0"), val = tensor<int32, [2]>([1, 1])];
            tensor<int32, []> input_53_groups_0 = const()[name = tensor<string, []>("input_53_groups_0"), val = tensor<int32, []>(1)];
            tensor<fp16, [32, 160, 3, 3]> rrdb_body_0_rdb3_conv4_weight_to_fp16 = const()[name = tensor<string, []>("rrdb_body_0_rdb3_conv4_weight_to_fp16"), val = tensor<fp16, [32, 160, 3, 3]>(BLOBFILE(path = tensor<string, []>("@model_path/weights/weight.bin"), offset = tensor<uint64, []>(1141120)))];
            tensor<fp16, [32]> rrdb_body_0_rdb3_conv4_bias_to_fp16 = const()[name = tensor<string, []>("rrdb_body_0_rdb3_conv4_bias_to_fp16"), val = tensor<fp16, [32]>(BLOBFILE(path = tensor<string, []>("@model_path/weights/weight.bin"), offset = tensor<uint64, []>(1233344)))];
            tensor<fp16, [1, 32, 256, 256]> input_53_cast_fp16 = conv(bias = rrdb_body_0_rdb3_conv4_bias_to_fp16, dilations = input_53_dilations_0, groups = input_53_groups_0, pad = input_53_pad_0, pad_type = input_53_pad_type_0, strides = input_53_strides_0, weight = rrdb_body_0_rdb3_conv4_weight_to_fp16, x = input_51_cast_fp16)[name = tensor<string, []>("input_53_cast_fp16")];
            tensor<fp16, [1, 32, 256, 256]> x4_5_cast_fp16 = leaky_relu(alpha = var_7_to_fp16, x = input_53_cast_fp16)[name = tensor<string, []>("x4_5_cast_fp16")];
            tensor<bool, []> input_55_interleave_0 = const()[name = tensor<string, []>("input_55_interleave_0"), val = tensor<bool, []>(false)];
            tensor<fp16, [1, 192, 256, 256]> input_55_cast_fp16 = concat(axis = var_8, interleave = input_55_interleave_0, values = (input_39_cast_fp16, x1_5_cast_fp16, x2_5_cast_fp16, x3_5_cast_fp16, x4_5_cast_fp16))[name = tensor<string, []>("input_55_cast_fp16")];
            tensor<string, []> x5_5_pad_type_0 = const()[name = tensor<string, []>("x5_5_pad_type_0"), val = tensor<string, []>("custom")];
            tensor<int32, [4]> x5_5_pad_0 = const()[name = tensor<string, []>("x5_5_pad_0"), val = tensor<int32, [4]>([1, 1, 1, 1])];
            tensor<int32, [2]> x5_5_strides_0 = const()[name = tensor<string, []>("x5_5_strides_0"), val = tensor<int32, [2]>([1, 1])];
            tensor<int32, [2]> x5_5_dilations_0 = const()[name = tensor<string, []>("x5_5_dilations_0"), val = tensor<int32, [2]>([1, 1])];
            tensor<int32, []> x5_5_groups_0 = const()[name = tensor<string, []>("x5_5_groups_0"), val = tensor<int32, []>(1)];
            tensor<fp16, [64, 192, 3, 3]> var_215_weight_0_to_fp16 = const()[name = tensor<string, []>("op_215_weight_0_to_fp16"), val = tensor<fp16, [64, 192, 3, 3]>(BLOBFILE(path = tensor<string, []>("@model_path/weights/weight.bin"), offset = tensor<uint64, []>(1233472)))];
            tensor<fp16, [64]> var_215_bias_0_to_fp16 = const()[name = tensor<string, []>("op_215_bias_0_to_fp16"), val = tensor<fp16, [64]>(BLOBFILE(path = tensor<string, []>("@model_path/weights/weight.bin"), offset = tensor<uint64, []>(1454720)))];
            tensor<fp16, [1, 64, 256, 256]> var_215_cast_fp16 = conv(bias = var_215_bias_0_to_fp16, dilations = x5_5_dilations_0, groups = x5_5_groups_0, pad = x5_5_pad_0, pad_type = x5_5_pad_type_0, strides = x5_5_strides_0, weight = var_215_weight_0_to_fp16, x = input_55_cast_fp16)[name = tensor<string, []>("op_215_cast_fp16")];
            tensor<fp16, [1, 64, 256, 256]> out_1_cast_fp16 = add(x = var_215_cast_fp16, y = input_39_cast_fp16)[name = tensor<string, []>("out_1_cast_fp16")];
            tensor<fp16, []> var_217_to_fp16 = const()[name = tensor<string, []>("op_217_to_fp16"), val = tensor<fp16, []>(0x1.998p-3)];
            tensor<fp16, [1, 64, 256, 256]> var_218_cast_fp16 = mul(x = out_1_cast_fp16, y = var_217_to_fp16)[name = tensor<string, []>("op_218_cast_fp16")];
            tensor<fp16, [1, 64, 256, 256]> input_57_cast_fp16 = add(x = var_218_cast_fp16, y = input_3_cast_fp16)[name = tensor<string, []>("input_57_cast_fp16")];
            tensor<string, []> input_59_pad_type_0 = const()[name = tensor<string, []>("input_59_pad_type_0"), val = tensor<string, []>("custom")];
            tensor<int32, [4]> input_59_pad_0 = const()[name = tensor<string, []>("input_59_pad_0"), val = tensor<int32, [4]>([1, 1, 1, 1])];
            tensor<int32, [2]> input_59_strides_0 = const()[name = tensor<string, []>("input_59_strides_0"), val = tensor<int32, [2]>([1, 1])];
            tensor<int32, [2]> input_59_dilations_0 = const()[name = tensor<string, []>("input_59_dilations_0"), val = tensor<int32, [2]>([1, 1])];
            tensor<int32, []> input_59_groups_0 = const()[name = tensor<string, []>("input_59_groups_0"), val = tensor<int32, []>(1)];
            tensor<fp16, [32, 64, 3, 3]> rrdb_body_1_rdb1_conv1_weight_to_fp16 = const()[name = tensor<string, []>("rrdb_body_1_rdb1_conv1_weight_to_fp16"), val = tensor<fp16, [32, 64, 3, 3]>(BLOBFILE(path = tensor<string, []>("@model_path/weights/weight.bin"), offset = tensor<uint64, []>(1454912)))];
            tensor<fp16, [32]> rrdb_body_1_rdb1_conv1_bias_to_fp16 = const()[name = tensor<string, []>("rrdb_body_1_rdb1_conv1_bias_to_fp16"), val = tensor<fp16, [32]>(BLOBFILE(path = tensor<string, []>("@model_path/weights/weight.bin"), offset = tensor<uint64, []>(1491840)))];
            tensor<fp16, [1, 32, 256, 256]> input_59_cast_fp16 = conv(bias = rrdb_body_1_rdb1_conv1_bias_to_fp16, dilations = input_59_dilations_0, groups = input_59_groups_0, pad = input_59_pad_0, pad_type = input_59_pad_type_0, strides = input_59_strides_0, weight = rrdb_body_1_rdb1_conv1_weight_to_fp16, x = input_57_cast_fp16)[name = tensor<string, []>("input_59_cast_fp16")];
            tensor<fp16, [1, 32, 256, 256]> x1_7_cast_fp16 = leaky_relu(alpha = var_7_to_fp16, x = input_59_cast_fp16)[name = tensor<string, []>("x1_7_cast_fp16")];
            tensor<bool, []> input_61_interleave_0 = const()[name = tensor<string, []>("input_61_interleave_0"), val = tensor<bool, []>(false)];
            tensor<fp16, [1, 96, 256, 256]> input_61_cast_fp16 = concat(axis = var_8, interleave = input_61_interleave_0, values = (input_57_cast_fp16, x1_7_cast_fp16))[name = tensor<string, []>("input_61_cast_fp16")];
            tensor<string, []> input_63_pad_type_0 = const()[name = tensor<string, []>("input_63_pad_type_0"), val = tensor<string, []>("custom")];
            tensor<int32, [4]> input_63_pad_0 = const()[name = tensor<string, []>("input_63_pad_0"), val = tensor<int32, [4]>([1, 1, 1, 1])];
            tensor<int32, [2]> input_63_strides_0 = const()[name = tensor<string, []>("input_63_strides_0"), val = tensor<int32, [2]>([1, 1])];
            tensor<int32, [2]> input_63_dilations_0 = const()[name = tensor<string, []>("input_63_dilations_0"), val = tensor<int32, [2]>([1, 1])];
            tensor<int32, []> input_63_groups_0 = const()[name = tensor<string, []>("input_63_groups_0"), val = tensor<int32, []>(1)];
            tensor<fp16, [32, 96, 3, 3]> rrdb_body_1_rdb1_conv2_weight_to_fp16 = const()[name = tensor<string, []>("rrdb_body_1_rdb1_conv2_weight_to_fp16"), val = tensor<fp16, [32, 96, 3, 3]>(BLOBFILE(path = tensor<string, []>("@model_path/weights/weight.bin"), offset = tensor<uint64, []>(1491968)))];
            tensor<fp16, [32]> rrdb_body_1_rdb1_conv2_bias_to_fp16 = const()[name = tensor<string, []>("rrdb_body_1_rdb1_conv2_bias_to_fp16"), val = tensor<fp16, [32]>(BLOBFILE(path = tensor<string, []>("@model_path/weights/weight.bin"), offset = tensor<uint64, []>(1547328)))];
            tensor<fp16, [1, 32, 256, 256]> input_63_cast_fp16 = conv(bias = rrdb_body_1_rdb1_conv2_bias_to_fp16, dilations = input_63_dilations_0, groups = input_63_groups_0, pad = input_63_pad_0, pad_type = input_63_pad_type_0, strides = input_63_strides_0, weight = rrdb_body_1_rdb1_conv2_weight_to_fp16, x = input_61_cast_fp16)[name = tensor<string, []>("input_63_cast_fp16")];
            tensor<fp16, [1, 32, 256, 256]> x2_7_cast_fp16 = leaky_relu(alpha = var_7_to_fp16, x = input_63_cast_fp16)[name = tensor<string, []>("x2_7_cast_fp16")];
            tensor<bool, []> input_65_interleave_0 = const()[name = tensor<string, []>("input_65_interleave_0"), val = tensor<bool, []>(false)];
            tensor<fp16, [1, 128, 256, 256]> input_65_cast_fp16 = concat(axis = var_8, interleave = input_65_interleave_0, values = (input_57_cast_fp16, x1_7_cast_fp16, x2_7_cast_fp16))[name = tensor<string, []>("input_65_cast_fp16")];
            tensor<string, []> input_67_pad_type_0 = const()[name = tensor<string, []>("input_67_pad_type_0"), val = tensor<string, []>("custom")];
            tensor<int32, [4]> input_67_pad_0 = const()[name = tensor<string, []>("input_67_pad_0"), val = tensor<int32, [4]>([1, 1, 1, 1])];
            tensor<int32, [2]> input_67_strides_0 = const()[name = tensor<string, []>("input_67_strides_0"), val = tensor<int32, [2]>([1, 1])];
            tensor<int32, [2]> input_67_dilations_0 = const()[name = tensor<string, []>("input_67_dilations_0"), val = tensor<int32, [2]>([1, 1])];
            tensor<int32, []> input_67_groups_0 = const()[name = tensor<string, []>("input_67_groups_0"), val = tensor<int32, []>(1)];
            tensor<fp16, [32, 128, 3, 3]> rrdb_body_1_rdb1_conv3_weight_to_fp16 = const()[name = tensor<string, []>("rrdb_body_1_rdb1_conv3_weight_to_fp16"), val = tensor<fp16, [32, 128, 3, 3]>(BLOBFILE(path = tensor<string, []>("@model_path/weights/weight.bin"), offset = tensor<uint64, []>(1547456)))];
            tensor<fp16, [32]> rrdb_body_1_rdb1_conv3_bias_to_fp16 = const()[name = tensor<string, []>("rrdb_body_1_rdb1_conv3_bias_to_fp16"), val = tensor<fp16, [32]>(BLOBFILE(path = tensor<string, []>("@model_path/weights/weight.bin"), offset = tensor<uint64, []>(1621248)))];
            tensor<fp16, [1, 32, 256, 256]> input_67_cast_fp16 = conv(bias = rrdb_body_1_rdb1_conv3_bias_to_fp16, dilations = input_67_dilations_0, groups = input_67_groups_0, pad = input_67_pad_0, pad_type = input_67_pad_type_0, strides = input_67_strides_0, weight = rrdb_body_1_rdb1_conv3_weight_to_fp16, x = input_65_cast_fp16)[name = tensor<string, []>("input_67_cast_fp16")];
            tensor<fp16, [1, 32, 256, 256]> x3_7_cast_fp16 = leaky_relu(alpha = var_7_to_fp16, x = input_67_cast_fp16)[name = tensor<string, []>("x3_7_cast_fp16")];
            tensor<bool, []> input_69_interleave_0 = const()[name = tensor<string, []>("input_69_interleave_0"), val = tensor<bool, []>(false)];
            tensor<fp16, [1, 160, 256, 256]> input_69_cast_fp16 = concat(axis = var_8, interleave = input_69_interleave_0, values = (input_57_cast_fp16, x1_7_cast_fp16, x2_7_cast_fp16, x3_7_cast_fp16))[name = tensor<string, []>("input_69_cast_fp16")];
            tensor<string, []> input_71_pad_type_0 = const()[name = tensor<string, []>("input_71_pad_type_0"), val = tensor<string, []>("custom")];
            tensor<int32, [4]> input_71_pad_0 = const()[name = tensor<string, []>("input_71_pad_0"), val = tensor<int32, [4]>([1, 1, 1, 1])];
            tensor<int32, [2]> input_71_strides_0 = const()[name = tensor<string, []>("input_71_strides_0"), val = tensor<int32, [2]>([1, 1])];
            tensor<int32, [2]> input_71_dilations_0 = const()[name = tensor<string, []>("input_71_dilations_0"), val = tensor<int32, [2]>([1, 1])];
            tensor<int32, []> input_71_groups_0 = const()[name = tensor<string, []>("input_71_groups_0"), val = tensor<int32, []>(1)];
            tensor<fp16, [32, 160, 3, 3]> rrdb_body_1_rdb1_conv4_weight_to_fp16 = const()[name = tensor<string, []>("rrdb_body_1_rdb1_conv4_weight_to_fp16"), val = tensor<fp16, [32, 160, 3, 3]>(BLOBFILE(path = tensor<string, []>("@model_path/weights/weight.bin"), offset = tensor<uint64, []>(1621376)))];
            tensor<fp16, [32]> rrdb_body_1_rdb1_conv4_bias_to_fp16 = const()[name = tensor<string, []>("rrdb_body_1_rdb1_conv4_bias_to_fp16"), val = tensor<fp16, [32]>(BLOBFILE(path = tensor<string, []>("@model_path/weights/weight.bin"), offset = tensor<uint64, []>(1713600)))];
            tensor<fp16, [1, 32, 256, 256]> input_71_cast_fp16 = conv(bias = rrdb_body_1_rdb1_conv4_bias_to_fp16, dilations = input_71_dilations_0, groups = input_71_groups_0, pad = input_71_pad_0, pad_type = input_71_pad_type_0, strides = input_71_strides_0, weight = rrdb_body_1_rdb1_conv4_weight_to_fp16, x = input_69_cast_fp16)[name = tensor<string, []>("input_71_cast_fp16")];
            tensor<fp16, [1, 32, 256, 256]> x4_7_cast_fp16 = leaky_relu(alpha = var_7_to_fp16, x = input_71_cast_fp16)[name = tensor<string, []>("x4_7_cast_fp16")];
            tensor<bool, []> input_73_interleave_0 = const()[name = tensor<string, []>("input_73_interleave_0"), val = tensor<bool, []>(false)];
            tensor<fp16, [1, 192, 256, 256]> input_73_cast_fp16 = concat(axis = var_8, interleave = input_73_interleave_0, values = (input_57_cast_fp16, x1_7_cast_fp16, x2_7_cast_fp16, x3_7_cast_fp16, x4_7_cast_fp16))[name = tensor<string, []>("input_73_cast_fp16")];
            tensor<string, []> x5_7_pad_type_0 = const()[name = tensor<string, []>("x5_7_pad_type_0"), val = tensor<string, []>("custom")];
            tensor<int32, [4]> x5_7_pad_0 = const()[name = tensor<string, []>("x5_7_pad_0"), val = tensor<int32, [4]>([1, 1, 1, 1])];
            tensor<int32, [2]> x5_7_strides_0 = const()[name = tensor<string, []>("x5_7_strides_0"), val = tensor<int32, [2]>([1, 1])];
            tensor<int32, [2]> x5_7_dilations_0 = const()[name = tensor<string, []>("x5_7_dilations_0"), val = tensor<int32, [2]>([1, 1])];
            tensor<int32, []> x5_7_groups_0 = const()[name = tensor<string, []>("x5_7_groups_0"), val = tensor<int32, []>(1)];
            tensor<fp16, [64, 192, 3, 3]> var_276_weight_0_to_fp16 = const()[name = tensor<string, []>("op_276_weight_0_to_fp16"), val = tensor<fp16, [64, 192, 3, 3]>(BLOBFILE(path = tensor<string, []>("@model_path/weights/weight.bin"), offset = tensor<uint64, []>(1713728)))];
            tensor<fp16, [64]> var_276_bias_0_to_fp16 = const()[name = tensor<string, []>("op_276_bias_0_to_fp16"), val = tensor<fp16, [64]>(BLOBFILE(path = tensor<string, []>("@model_path/weights/weight.bin"), offset = tensor<uint64, []>(1934976)))];
            tensor<fp16, [1, 64, 256, 256]> var_276_cast_fp16 = conv(bias = var_276_bias_0_to_fp16, dilations = x5_7_dilations_0, groups = x5_7_groups_0, pad = x5_7_pad_0, pad_type = x5_7_pad_type_0, strides = x5_7_strides_0, weight = var_276_weight_0_to_fp16, x = input_73_cast_fp16)[name = tensor<string, []>("op_276_cast_fp16")];
            tensor<fp16, [1, 64, 256, 256]> input_75_cast_fp16 = add(x = var_276_cast_fp16, y = input_57_cast_fp16)[name = tensor<string, []>("input_75_cast_fp16")];
            tensor<string, []> input_77_pad_type_0 = const()[name = tensor<string, []>("input_77_pad_type_0"), val = tensor<string, []>("custom")];
            tensor<int32, [4]> input_77_pad_0 = const()[name = tensor<string, []>("input_77_pad_0"), val = tensor<int32, [4]>([1, 1, 1, 1])];
            tensor<int32, [2]> input_77_strides_0 = const()[name = tensor<string, []>("input_77_strides_0"), val = tensor<int32, [2]>([1, 1])];
            tensor<int32, [2]> input_77_dilations_0 = const()[name = tensor<string, []>("input_77_dilations_0"), val = tensor<int32, [2]>([1, 1])];
            tensor<int32, []> input_77_groups_0 = const()[name = tensor<string, []>("input_77_groups_0"), val = tensor<int32, []>(1)];
            tensor<fp16, [32, 64, 3, 3]> rrdb_body_1_rdb2_conv1_weight_to_fp16 = const()[name = tensor<string, []>("rrdb_body_1_rdb2_conv1_weight_to_fp16"), val = tensor<fp16, [32, 64, 3, 3]>(BLOBFILE(path = tensor<string, []>("@model_path/weights/weight.bin"), offset = tensor<uint64, []>(1935168)))];
            tensor<fp16, [32]> rrdb_body_1_rdb2_conv1_bias_to_fp16 = const()[name = tensor<string, []>("rrdb_body_1_rdb2_conv1_bias_to_fp16"), val = tensor<fp16, [32]>(BLOBFILE(path = tensor<string, []>("@model_path/weights/weight.bin"), offset = tensor<uint64, []>(1972096)))];
            tensor<fp16, [1, 32, 256, 256]> input_77_cast_fp16 = conv(bias = rrdb_body_1_rdb2_conv1_bias_to_fp16, dilations = input_77_dilations_0, groups = input_77_groups_0, pad = input_77_pad_0, pad_type = input_77_pad_type_0, strides = input_77_strides_0, weight = rrdb_body_1_rdb2_conv1_weight_to_fp16, x = input_75_cast_fp16)[name = tensor<string, []>("input_77_cast_fp16")];
            tensor<fp16, [1, 32, 256, 256]> x1_9_cast_fp16 = leaky_relu(alpha = var_7_to_fp16, x = input_77_cast_fp16)[name = tensor<string, []>("x1_9_cast_fp16")];
            tensor<bool, []> input_79_interleave_0 = const()[name = tensor<string, []>("input_79_interleave_0"), val = tensor<bool, []>(false)];
            tensor<fp16, [1, 96, 256, 256]> input_79_cast_fp16 = concat(axis = var_8, interleave = input_79_interleave_0, values = (input_75_cast_fp16, x1_9_cast_fp16))[name = tensor<string, []>("input_79_cast_fp16")];
            tensor<string, []> input_81_pad_type_0 = const()[name = tensor<string, []>("input_81_pad_type_0"), val = tensor<string, []>("custom")];
            tensor<int32, [4]> input_81_pad_0 = const()[name = tensor<string, []>("input_81_pad_0"), val = tensor<int32, [4]>([1, 1, 1, 1])];
            tensor<int32, [2]> input_81_strides_0 = const()[name = tensor<string, []>("input_81_strides_0"), val = tensor<int32, [2]>([1, 1])];
            tensor<int32, [2]> input_81_dilations_0 = const()[name = tensor<string, []>("input_81_dilations_0"), val = tensor<int32, [2]>([1, 1])];
            tensor<int32, []> input_81_groups_0 = const()[name = tensor<string, []>("input_81_groups_0"), val = tensor<int32, []>(1)];
            tensor<fp16, [32, 96, 3, 3]> rrdb_body_1_rdb2_conv2_weight_to_fp16 = const()[name = tensor<string, []>("rrdb_body_1_rdb2_conv2_weight_to_fp16"), val = tensor<fp16, [32, 96, 3, 3]>(BLOBFILE(path = tensor<string, []>("@model_path/weights/weight.bin"), offset = tensor<uint64, []>(1972224)))];
            tensor<fp16, [32]> rrdb_body_1_rdb2_conv2_bias_to_fp16 = const()[name = tensor<string, []>("rrdb_body_1_rdb2_conv2_bias_to_fp16"), val = tensor<fp16, [32]>(BLOBFILE(path = tensor<string, []>("@model_path/weights/weight.bin"), offset = tensor<uint64, []>(2027584)))];
            tensor<fp16, [1, 32, 256, 256]> input_81_cast_fp16 = conv(bias = rrdb_body_1_rdb2_conv2_bias_to_fp16, dilations = input_81_dilations_0, groups = input_81_groups_0, pad = input_81_pad_0, pad_type = input_81_pad_type_0, strides = input_81_strides_0, weight = rrdb_body_1_rdb2_conv2_weight_to_fp16, x = input_79_cast_fp16)[name = tensor<string, []>("input_81_cast_fp16")];
            tensor<fp16, [1, 32, 256, 256]> x2_9_cast_fp16 = leaky_relu(alpha = var_7_to_fp16, x = input_81_cast_fp16)[name = tensor<string, []>("x2_9_cast_fp16")];
            tensor<bool, []> input_83_interleave_0 = const()[name = tensor<string, []>("input_83_interleave_0"), val = tensor<bool, []>(false)];
            tensor<fp16, [1, 128, 256, 256]> input_83_cast_fp16 = concat(axis = var_8, interleave = input_83_interleave_0, values = (input_75_cast_fp16, x1_9_cast_fp16, x2_9_cast_fp16))[name = tensor<string, []>("input_83_cast_fp16")];
            tensor<string, []> input_85_pad_type_0 = const()[name = tensor<string, []>("input_85_pad_type_0"), val = tensor<string, []>("custom")];
            tensor<int32, [4]> input_85_pad_0 = const()[name = tensor<string, []>("input_85_pad_0"), val = tensor<int32, [4]>([1, 1, 1, 1])];
            tensor<int32, [2]> input_85_strides_0 = const()[name = tensor<string, []>("input_85_strides_0"), val = tensor<int32, [2]>([1, 1])];
            tensor<int32, [2]> input_85_dilations_0 = const()[name = tensor<string, []>("input_85_dilations_0"), val = tensor<int32, [2]>([1, 1])];
            tensor<int32, []> input_85_groups_0 = const()[name = tensor<string, []>("input_85_groups_0"), val = tensor<int32, []>(1)];
            tensor<fp16, [32, 128, 3, 3]> rrdb_body_1_rdb2_conv3_weight_to_fp16 = const()[name = tensor<string, []>("rrdb_body_1_rdb2_conv3_weight_to_fp16"), val = tensor<fp16, [32, 128, 3, 3]>(BLOBFILE(path = tensor<string, []>("@model_path/weights/weight.bin"), offset = tensor<uint64, []>(2027712)))];
            tensor<fp16, [32]> rrdb_body_1_rdb2_conv3_bias_to_fp16 = const()[name = tensor<string, []>("rrdb_body_1_rdb2_conv3_bias_to_fp16"), val = tensor<fp16, [32]>(BLOBFILE(path = tensor<string, []>("@model_path/weights/weight.bin"), offset = tensor<uint64, []>(2101504)))];
            tensor<fp16, [1, 32, 256, 256]> input_85_cast_fp16 = conv(bias = rrdb_body_1_rdb2_conv3_bias_to_fp16, dilations = input_85_dilations_0, groups = input_85_groups_0, pad = input_85_pad_0, pad_type = input_85_pad_type_0, strides = input_85_strides_0, weight = rrdb_body_1_rdb2_conv3_weight_to_fp16, x = input_83_cast_fp16)[name = tensor<string, []>("input_85_cast_fp16")];
            tensor<fp16, [1, 32, 256, 256]> x3_9_cast_fp16 = leaky_relu(alpha = var_7_to_fp16, x = input_85_cast_fp16)[name = tensor<string, []>("x3_9_cast_fp16")];
            tensor<bool, []> input_87_interleave_0 = const()[name = tensor<string, []>("input_87_interleave_0"), val = tensor<bool, []>(false)];
            tensor<fp16, [1, 160, 256, 256]> input_87_cast_fp16 = concat(axis = var_8, interleave = input_87_interleave_0, values = (input_75_cast_fp16, x1_9_cast_fp16, x2_9_cast_fp16, x3_9_cast_fp16))[name = tensor<string, []>("input_87_cast_fp16")];
            tensor<string, []> input_89_pad_type_0 = const()[name = tensor<string, []>("input_89_pad_type_0"), val = tensor<string, []>("custom")];
            tensor<int32, [4]> input_89_pad_0 = const()[name = tensor<string, []>("input_89_pad_0"), val = tensor<int32, [4]>([1, 1, 1, 1])];
            tensor<int32, [2]> input_89_strides_0 = const()[name = tensor<string, []>("input_89_strides_0"), val = tensor<int32, [2]>([1, 1])];
            tensor<int32, [2]> input_89_dilations_0 = const()[name = tensor<string, []>("input_89_dilations_0"), val = tensor<int32, [2]>([1, 1])];
            tensor<int32, []> input_89_groups_0 = const()[name = tensor<string, []>("input_89_groups_0"), val = tensor<int32, []>(1)];
            tensor<fp16, [32, 160, 3, 3]> rrdb_body_1_rdb2_conv4_weight_to_fp16 = const()[name = tensor<string, []>("rrdb_body_1_rdb2_conv4_weight_to_fp16"), val = tensor<fp16, [32, 160, 3, 3]>(BLOBFILE(path = tensor<string, []>("@model_path/weights/weight.bin"), offset = tensor<uint64, []>(2101632)))];
            tensor<fp16, [32]> rrdb_body_1_rdb2_conv4_bias_to_fp16 = const()[name = tensor<string, []>("rrdb_body_1_rdb2_conv4_bias_to_fp16"), val = tensor<fp16, [32]>(BLOBFILE(path = tensor<string, []>("@model_path/weights/weight.bin"), offset = tensor<uint64, []>(2193856)))];
            tensor<fp16, [1, 32, 256, 256]> input_89_cast_fp16 = conv(bias = rrdb_body_1_rdb2_conv4_bias_to_fp16, dilations = input_89_dilations_0, groups = input_89_groups_0, pad = input_89_pad_0, pad_type = input_89_pad_type_0, strides = input_89_strides_0, weight = rrdb_body_1_rdb2_conv4_weight_to_fp16, x = input_87_cast_fp16)[name = tensor<string, []>("input_89_cast_fp16")];
            tensor<fp16, [1, 32, 256, 256]> x4_9_cast_fp16 = leaky_relu(alpha = var_7_to_fp16, x = input_89_cast_fp16)[name = tensor<string, []>("x4_9_cast_fp16")];
            tensor<bool, []> input_91_interleave_0 = const()[name = tensor<string, []>("input_91_interleave_0"), val = tensor<bool, []>(false)];
            tensor<fp16, [1, 192, 256, 256]> input_91_cast_fp16 = concat(axis = var_8, interleave = input_91_interleave_0, values = (input_75_cast_fp16, x1_9_cast_fp16, x2_9_cast_fp16, x3_9_cast_fp16, x4_9_cast_fp16))[name = tensor<string, []>("input_91_cast_fp16")];
            tensor<string, []> x5_9_pad_type_0 = const()[name = tensor<string, []>("x5_9_pad_type_0"), val = tensor<string, []>("custom")];
            tensor<int32, [4]> x5_9_pad_0 = const()[name = tensor<string, []>("x5_9_pad_0"), val = tensor<int32, [4]>([1, 1, 1, 1])];
            tensor<int32, [2]> x5_9_strides_0 = const()[name = tensor<string, []>("x5_9_strides_0"), val = tensor<int32, [2]>([1, 1])];
            tensor<int32, [2]> x5_9_dilations_0 = const()[name = tensor<string, []>("x5_9_dilations_0"), val = tensor<int32, [2]>([1, 1])];
            tensor<int32, []> x5_9_groups_0 = const()[name = tensor<string, []>("x5_9_groups_0"), val = tensor<int32, []>(1)];
            tensor<fp16, [64, 192, 3, 3]> var_331_weight_0_to_fp16 = const()[name = tensor<string, []>("op_331_weight_0_to_fp16"), val = tensor<fp16, [64, 192, 3, 3]>(BLOBFILE(path = tensor<string, []>("@model_path/weights/weight.bin"), offset = tensor<uint64, []>(2193984)))];
            tensor<fp16, [64]> var_331_bias_0_to_fp16 = const()[name = tensor<string, []>("op_331_bias_0_to_fp16"), val = tensor<fp16, [64]>(BLOBFILE(path = tensor<string, []>("@model_path/weights/weight.bin"), offset = tensor<uint64, []>(2415232)))];
            tensor<fp16, [1, 64, 256, 256]> var_331_cast_fp16 = conv(bias = var_331_bias_0_to_fp16, dilations = x5_9_dilations_0, groups = x5_9_groups_0, pad = x5_9_pad_0, pad_type = x5_9_pad_type_0, strides = x5_9_strides_0, weight = var_331_weight_0_to_fp16, x = input_91_cast_fp16)[name = tensor<string, []>("op_331_cast_fp16")];
            tensor<fp16, [1, 64, 256, 256]> input_93_cast_fp16 = add(x = var_331_cast_fp16, y = input_75_cast_fp16)[name = tensor<string, []>("input_93_cast_fp16")];
            tensor<string, []> input_95_pad_type_0 = const()[name = tensor<string, []>("input_95_pad_type_0"), val = tensor<string, []>("custom")];
            tensor<int32, [4]> input_95_pad_0 = const()[name = tensor<string, []>("input_95_pad_0"), val = tensor<int32, [4]>([1, 1, 1, 1])];
            tensor<int32, [2]> input_95_strides_0 = const()[name = tensor<string, []>("input_95_strides_0"), val = tensor<int32, [2]>([1, 1])];
            tensor<int32, [2]> input_95_dilations_0 = const()[name = tensor<string, []>("input_95_dilations_0"), val = tensor<int32, [2]>([1, 1])];
            tensor<int32, []> input_95_groups_0 = const()[name = tensor<string, []>("input_95_groups_0"), val = tensor<int32, []>(1)];
            tensor<fp16, [32, 64, 3, 3]> rrdb_body_1_rdb3_conv1_weight_to_fp16 = const()[name = tensor<string, []>("rrdb_body_1_rdb3_conv1_weight_to_fp16"), val = tensor<fp16, [32, 64, 3, 3]>(BLOBFILE(path = tensor<string, []>("@model_path/weights/weight.bin"), offset = tensor<uint64, []>(2415424)))];
            tensor<fp16, [32]> rrdb_body_1_rdb3_conv1_bias_to_fp16 = const()[name = tensor<string, []>("rrdb_body_1_rdb3_conv1_bias_to_fp16"), val = tensor<fp16, [32]>(BLOBFILE(path = tensor<string, []>("@model_path/weights/weight.bin"), offset = tensor<uint64, []>(2452352)))];
            tensor<fp16, [1, 32, 256, 256]> input_95_cast_fp16 = conv(bias = rrdb_body_1_rdb3_conv1_bias_to_fp16, dilations = input_95_dilations_0, groups = input_95_groups_0, pad = input_95_pad_0, pad_type = input_95_pad_type_0, strides = input_95_strides_0, weight = rrdb_body_1_rdb3_conv1_weight_to_fp16, x = input_93_cast_fp16)[name = tensor<string, []>("input_95_cast_fp16")];
            tensor<fp16, [1, 32, 256, 256]> x1_11_cast_fp16 = leaky_relu(alpha = var_7_to_fp16, x = input_95_cast_fp16)[name = tensor<string, []>("x1_11_cast_fp16")];
            tensor<bool, []> input_97_interleave_0 = const()[name = tensor<string, []>("input_97_interleave_0"), val = tensor<bool, []>(false)];
            tensor<fp16, [1, 96, 256, 256]> input_97_cast_fp16 = concat(axis = var_8, interleave = input_97_interleave_0, values = (input_93_cast_fp16, x1_11_cast_fp16))[name = tensor<string, []>("input_97_cast_fp16")];
            tensor<string, []> input_99_pad_type_0 = const()[name = tensor<string, []>("input_99_pad_type_0"), val = tensor<string, []>("custom")];
            tensor<int32, [4]> input_99_pad_0 = const()[name = tensor<string, []>("input_99_pad_0"), val = tensor<int32, [4]>([1, 1, 1, 1])];
            tensor<int32, [2]> input_99_strides_0 = const()[name = tensor<string, []>("input_99_strides_0"), val = tensor<int32, [2]>([1, 1])];
            tensor<int32, [2]> input_99_dilations_0 = const()[name = tensor<string, []>("input_99_dilations_0"), val = tensor<int32, [2]>([1, 1])];
            tensor<int32, []> input_99_groups_0 = const()[name = tensor<string, []>("input_99_groups_0"), val = tensor<int32, []>(1)];
            tensor<fp16, [32, 96, 3, 3]> rrdb_body_1_rdb3_conv2_weight_to_fp16 = const()[name = tensor<string, []>("rrdb_body_1_rdb3_conv2_weight_to_fp16"), val = tensor<fp16, [32, 96, 3, 3]>(BLOBFILE(path = tensor<string, []>("@model_path/weights/weight.bin"), offset = tensor<uint64, []>(2452480)))];
            tensor<fp16, [32]> rrdb_body_1_rdb3_conv2_bias_to_fp16 = const()[name = tensor<string, []>("rrdb_body_1_rdb3_conv2_bias_to_fp16"), val = tensor<fp16, [32]>(BLOBFILE(path = tensor<string, []>("@model_path/weights/weight.bin"), offset = tensor<uint64, []>(2507840)))];
            tensor<fp16, [1, 32, 256, 256]> input_99_cast_fp16 = conv(bias = rrdb_body_1_rdb3_conv2_bias_to_fp16, dilations = input_99_dilations_0, groups = input_99_groups_0, pad = input_99_pad_0, pad_type = input_99_pad_type_0, strides = input_99_strides_0, weight = rrdb_body_1_rdb3_conv2_weight_to_fp16, x = input_97_cast_fp16)[name = tensor<string, []>("input_99_cast_fp16")];
            tensor<fp16, [1, 32, 256, 256]> x2_11_cast_fp16 = leaky_relu(alpha = var_7_to_fp16, x = input_99_cast_fp16)[name = tensor<string, []>("x2_11_cast_fp16")];
            tensor<bool, []> input_101_interleave_0 = const()[name = tensor<string, []>("input_101_interleave_0"), val = tensor<bool, []>(false)];
            tensor<fp16, [1, 128, 256, 256]> input_101_cast_fp16 = concat(axis = var_8, interleave = input_101_interleave_0, values = (input_93_cast_fp16, x1_11_cast_fp16, x2_11_cast_fp16))[name = tensor<string, []>("input_101_cast_fp16")];
            tensor<string, []> input_103_pad_type_0 = const()[name = tensor<string, []>("input_103_pad_type_0"), val = tensor<string, []>("custom")];
            tensor<int32, [4]> input_103_pad_0 = const()[name = tensor<string, []>("input_103_pad_0"), val = tensor<int32, [4]>([1, 1, 1, 1])];
            tensor<int32, [2]> input_103_strides_0 = const()[name = tensor<string, []>("input_103_strides_0"), val = tensor<int32, [2]>([1, 1])];
            tensor<int32, [2]> input_103_dilations_0 = const()[name = tensor<string, []>("input_103_dilations_0"), val = tensor<int32, [2]>([1, 1])];
            tensor<int32, []> input_103_groups_0 = const()[name = tensor<string, []>("input_103_groups_0"), val = tensor<int32, []>(1)];
            tensor<fp16, [32, 128, 3, 3]> rrdb_body_1_rdb3_conv3_weight_to_fp16 = const()[name = tensor<string, []>("rrdb_body_1_rdb3_conv3_weight_to_fp16"), val = tensor<fp16, [32, 128, 3, 3]>(BLOBFILE(path = tensor<string, []>("@model_path/weights/weight.bin"), offset = tensor<uint64, []>(2507968)))];
            tensor<fp16, [32]> rrdb_body_1_rdb3_conv3_bias_to_fp16 = const()[name = tensor<string, []>("rrdb_body_1_rdb3_conv3_bias_to_fp16"), val = tensor<fp16, [32]>(BLOBFILE(path = tensor<string, []>("@model_path/weights/weight.bin"), offset = tensor<uint64, []>(2581760)))];
            tensor<fp16, [1, 32, 256, 256]> input_103_cast_fp16 = conv(bias = rrdb_body_1_rdb3_conv3_bias_to_fp16, dilations = input_103_dilations_0, groups = input_103_groups_0, pad = input_103_pad_0, pad_type = input_103_pad_type_0, strides = input_103_strides_0, weight = rrdb_body_1_rdb3_conv3_weight_to_fp16, x = input_101_cast_fp16)[name = tensor<string, []>("input_103_cast_fp16")];
            tensor<fp16, [1, 32, 256, 256]> x3_11_cast_fp16 = leaky_relu(alpha = var_7_to_fp16, x = input_103_cast_fp16)[name = tensor<string, []>("x3_11_cast_fp16")];
            tensor<bool, []> input_105_interleave_0 = const()[name = tensor<string, []>("input_105_interleave_0"), val = tensor<bool, []>(false)];
            tensor<fp16, [1, 160, 256, 256]> input_105_cast_fp16 = concat(axis = var_8, interleave = input_105_interleave_0, values = (input_93_cast_fp16, x1_11_cast_fp16, x2_11_cast_fp16, x3_11_cast_fp16))[name = tensor<string, []>("input_105_cast_fp16")];
            tensor<string, []> input_107_pad_type_0 = const()[name = tensor<string, []>("input_107_pad_type_0"), val = tensor<string, []>("custom")];
            tensor<int32, [4]> input_107_pad_0 = const()[name = tensor<string, []>("input_107_pad_0"), val = tensor<int32, [4]>([1, 1, 1, 1])];
            tensor<int32, [2]> input_107_strides_0 = const()[name = tensor<string, []>("input_107_strides_0"), val = tensor<int32, [2]>([1, 1])];
            tensor<int32, [2]> input_107_dilations_0 = const()[name = tensor<string, []>("input_107_dilations_0"), val = tensor<int32, [2]>([1, 1])];
            tensor<int32, []> input_107_groups_0 = const()[name = tensor<string, []>("input_107_groups_0"), val = tensor<int32, []>(1)];
            tensor<fp16, [32, 160, 3, 3]> rrdb_body_1_rdb3_conv4_weight_to_fp16 = const()[name = tensor<string, []>("rrdb_body_1_rdb3_conv4_weight_to_fp16"), val = tensor<fp16, [32, 160, 3, 3]>(BLOBFILE(path = tensor<string, []>("@model_path/weights/weight.bin"), offset = tensor<uint64, []>(2581888)))];
            tensor<fp16, [32]> rrdb_body_1_rdb3_conv4_bias_to_fp16 = const()[name = tensor<string, []>("rrdb_body_1_rdb3_conv4_bias_to_fp16"), val = tensor<fp16, [32]>(BLOBFILE(path = tensor<string, []>("@model_path/weights/weight.bin"), offset = tensor<uint64, []>(2674112)))];
            tensor<fp16, [1, 32, 256, 256]> input_107_cast_fp16 = conv(bias = rrdb_body_1_rdb3_conv4_bias_to_fp16, dilations = input_107_dilations_0, groups = input_107_groups_0, pad = input_107_pad_0, pad_type = input_107_pad_type_0, strides = input_107_strides_0, weight = rrdb_body_1_rdb3_conv4_weight_to_fp16, x = input_105_cast_fp16)[name = tensor<string, []>("input_107_cast_fp16")];
            tensor<fp16, [1, 32, 256, 256]> x4_11_cast_fp16 = leaky_relu(alpha = var_7_to_fp16, x = input_107_cast_fp16)[name = tensor<string, []>("x4_11_cast_fp16")];
            tensor<bool, []> input_109_interleave_0 = const()[name = tensor<string, []>("input_109_interleave_0"), val = tensor<bool, []>(false)];
            tensor<fp16, [1, 192, 256, 256]> input_109_cast_fp16 = concat(axis = var_8, interleave = input_109_interleave_0, values = (input_93_cast_fp16, x1_11_cast_fp16, x2_11_cast_fp16, x3_11_cast_fp16, x4_11_cast_fp16))[name = tensor<string, []>("input_109_cast_fp16")];
            tensor<string, []> x5_11_pad_type_0 = const()[name = tensor<string, []>("x5_11_pad_type_0"), val = tensor<string, []>("custom")];
            tensor<int32, [4]> x5_11_pad_0 = const()[name = tensor<string, []>("x5_11_pad_0"), val = tensor<int32, [4]>([1, 1, 1, 1])];
            tensor<int32, [2]> x5_11_strides_0 = const()[name = tensor<string, []>("x5_11_strides_0"), val = tensor<int32, [2]>([1, 1])];
            tensor<int32, [2]> x5_11_dilations_0 = const()[name = tensor<string, []>("x5_11_dilations_0"), val = tensor<int32, [2]>([1, 1])];
            tensor<int32, []> x5_11_groups_0 = const()[name = tensor<string, []>("x5_11_groups_0"), val = tensor<int32, []>(1)];
            tensor<fp16, [64, 192, 3, 3]> var_386_weight_0_to_fp16 = const()[name = tensor<string, []>("op_386_weight_0_to_fp16"), val = tensor<fp16, [64, 192, 3, 3]>(BLOBFILE(path = tensor<string, []>("@model_path/weights/weight.bin"), offset = tensor<uint64, []>(2674240)))];
            tensor<fp16, [64]> var_386_bias_0_to_fp16 = const()[name = tensor<string, []>("op_386_bias_0_to_fp16"), val = tensor<fp16, [64]>(BLOBFILE(path = tensor<string, []>("@model_path/weights/weight.bin"), offset = tensor<uint64, []>(2895488)))];
            tensor<fp16, [1, 64, 256, 256]> var_386_cast_fp16 = conv(bias = var_386_bias_0_to_fp16, dilations = x5_11_dilations_0, groups = x5_11_groups_0, pad = x5_11_pad_0, pad_type = x5_11_pad_type_0, strides = x5_11_strides_0, weight = var_386_weight_0_to_fp16, x = input_109_cast_fp16)[name = tensor<string, []>("op_386_cast_fp16")];
            tensor<fp16, [1, 64, 256, 256]> out_3_cast_fp16 = add(x = var_386_cast_fp16, y = input_93_cast_fp16)[name = tensor<string, []>("out_3_cast_fp16")];
            tensor<fp16, []> var_388_to_fp16 = const()[name = tensor<string, []>("op_388_to_fp16"), val = tensor<fp16, []>(0x1.998p-3)];
            tensor<fp16, [1, 64, 256, 256]> var_389_cast_fp16 = mul(x = out_3_cast_fp16, y = var_388_to_fp16)[name = tensor<string, []>("op_389_cast_fp16")];
            tensor<fp16, [1, 64, 256, 256]> input_111_cast_fp16 = add(x = var_389_cast_fp16, y = input_57_cast_fp16)[name = tensor<string, []>("input_111_cast_fp16")];
            tensor<string, []> input_113_pad_type_0 = const()[name = tensor<string, []>("input_113_pad_type_0"), val = tensor<string, []>("custom")];
            tensor<int32, [4]> input_113_pad_0 = const()[name = tensor<string, []>("input_113_pad_0"), val = tensor<int32, [4]>([1, 1, 1, 1])];
            tensor<int32, [2]> input_113_strides_0 = const()[name = tensor<string, []>("input_113_strides_0"), val = tensor<int32, [2]>([1, 1])];
            tensor<int32, [2]> input_113_dilations_0 = const()[name = tensor<string, []>("input_113_dilations_0"), val = tensor<int32, [2]>([1, 1])];
            tensor<int32, []> input_113_groups_0 = const()[name = tensor<string, []>("input_113_groups_0"), val = tensor<int32, []>(1)];
            tensor<fp16, [32, 64, 3, 3]> rrdb_body_2_rdb1_conv1_weight_to_fp16 = const()[name = tensor<string, []>("rrdb_body_2_rdb1_conv1_weight_to_fp16"), val = tensor<fp16, [32, 64, 3, 3]>(BLOBFILE(path = tensor<string, []>("@model_path/weights/weight.bin"), offset = tensor<uint64, []>(2895680)))];
            tensor<fp16, [32]> rrdb_body_2_rdb1_conv1_bias_to_fp16 = const()[name = tensor<string, []>("rrdb_body_2_rdb1_conv1_bias_to_fp16"), val = tensor<fp16, [32]>(BLOBFILE(path = tensor<string, []>("@model_path/weights/weight.bin"), offset = tensor<uint64, []>(2932608)))];
            tensor<fp16, [1, 32, 256, 256]> input_113_cast_fp16 = conv(bias = rrdb_body_2_rdb1_conv1_bias_to_fp16, dilations = input_113_dilations_0, groups = input_113_groups_0, pad = input_113_pad_0, pad_type = input_113_pad_type_0, strides = input_113_strides_0, weight = rrdb_body_2_rdb1_conv1_weight_to_fp16, x = input_111_cast_fp16)[name = tensor<string, []>("input_113_cast_fp16")];
            tensor<fp16, [1, 32, 256, 256]> x1_13_cast_fp16 = leaky_relu(alpha = var_7_to_fp16, x = input_113_cast_fp16)[name = tensor<string, []>("x1_13_cast_fp16")];
            tensor<bool, []> input_115_interleave_0 = const()[name = tensor<string, []>("input_115_interleave_0"), val = tensor<bool, []>(false)];
            tensor<fp16, [1, 96, 256, 256]> input_115_cast_fp16 = concat(axis = var_8, interleave = input_115_interleave_0, values = (input_111_cast_fp16, x1_13_cast_fp16))[name = tensor<string, []>("input_115_cast_fp16")];
            tensor<string, []> input_117_pad_type_0 = const()[name = tensor<string, []>("input_117_pad_type_0"), val = tensor<string, []>("custom")];
            tensor<int32, [4]> input_117_pad_0 = const()[name = tensor<string, []>("input_117_pad_0"), val = tensor<int32, [4]>([1, 1, 1, 1])];
            tensor<int32, [2]> input_117_strides_0 = const()[name = tensor<string, []>("input_117_strides_0"), val = tensor<int32, [2]>([1, 1])];
            tensor<int32, [2]> input_117_dilations_0 = const()[name = tensor<string, []>("input_117_dilations_0"), val = tensor<int32, [2]>([1, 1])];
            tensor<int32, []> input_117_groups_0 = const()[name = tensor<string, []>("input_117_groups_0"), val = tensor<int32, []>(1)];
            tensor<fp16, [32, 96, 3, 3]> rrdb_body_2_rdb1_conv2_weight_to_fp16 = const()[name = tensor<string, []>("rrdb_body_2_rdb1_conv2_weight_to_fp16"), val = tensor<fp16, [32, 96, 3, 3]>(BLOBFILE(path = tensor<string, []>("@model_path/weights/weight.bin"), offset = tensor<uint64, []>(2932736)))];
            tensor<fp16, [32]> rrdb_body_2_rdb1_conv2_bias_to_fp16 = const()[name = tensor<string, []>("rrdb_body_2_rdb1_conv2_bias_to_fp16"), val = tensor<fp16, [32]>(BLOBFILE(path = tensor<string, []>("@model_path/weights/weight.bin"), offset = tensor<uint64, []>(2988096)))];
            tensor<fp16, [1, 32, 256, 256]> input_117_cast_fp16 = conv(bias = rrdb_body_2_rdb1_conv2_bias_to_fp16, dilations = input_117_dilations_0, groups = input_117_groups_0, pad = input_117_pad_0, pad_type = input_117_pad_type_0, strides = input_117_strides_0, weight = rrdb_body_2_rdb1_conv2_weight_to_fp16, x = input_115_cast_fp16)[name = tensor<string, []>("input_117_cast_fp16")];
            tensor<fp16, [1, 32, 256, 256]> x2_13_cast_fp16 = leaky_relu(alpha = var_7_to_fp16, x = input_117_cast_fp16)[name = tensor<string, []>("x2_13_cast_fp16")];
            tensor<bool, []> input_119_interleave_0 = const()[name = tensor<string, []>("input_119_interleave_0"), val = tensor<bool, []>(false)];
            tensor<fp16, [1, 128, 256, 256]> input_119_cast_fp16 = concat(axis = var_8, interleave = input_119_interleave_0, values = (input_111_cast_fp16, x1_13_cast_fp16, x2_13_cast_fp16))[name = tensor<string, []>("input_119_cast_fp16")];
            tensor<string, []> input_121_pad_type_0 = const()[name = tensor<string, []>("input_121_pad_type_0"), val = tensor<string, []>("custom")];
            tensor<int32, [4]> input_121_pad_0 = const()[name = tensor<string, []>("input_121_pad_0"), val = tensor<int32, [4]>([1, 1, 1, 1])];
            tensor<int32, [2]> input_121_strides_0 = const()[name = tensor<string, []>("input_121_strides_0"), val = tensor<int32, [2]>([1, 1])];
            tensor<int32, [2]> input_121_dilations_0 = const()[name = tensor<string, []>("input_121_dilations_0"), val = tensor<int32, [2]>([1, 1])];
            tensor<int32, []> input_121_groups_0 = const()[name = tensor<string, []>("input_121_groups_0"), val = tensor<int32, []>(1)];
            tensor<fp16, [32, 128, 3, 3]> rrdb_body_2_rdb1_conv3_weight_to_fp16 = const()[name = tensor<string, []>("rrdb_body_2_rdb1_conv3_weight_to_fp16"), val = tensor<fp16, [32, 128, 3, 3]>(BLOBFILE(path = tensor<string, []>("@model_path/weights/weight.bin"), offset = tensor<uint64, []>(2988224)))];
            tensor<fp16, [32]> rrdb_body_2_rdb1_conv3_bias_to_fp16 = const()[name = tensor<string, []>("rrdb_body_2_rdb1_conv3_bias_to_fp16"), val = tensor<fp16, [32]>(BLOBFILE(path = tensor<string, []>("@model_path/weights/weight.bin"), offset = tensor<uint64, []>(3062016)))];
            tensor<fp16, [1, 32, 256, 256]> input_121_cast_fp16 = conv(bias = rrdb_body_2_rdb1_conv3_bias_to_fp16, dilations = input_121_dilations_0, groups = input_121_groups_0, pad = input_121_pad_0, pad_type = input_121_pad_type_0, strides = input_121_strides_0, weight = rrdb_body_2_rdb1_conv3_weight_to_fp16, x = input_119_cast_fp16)[name = tensor<string, []>("input_121_cast_fp16")];
            tensor<fp16, [1, 32, 256, 256]> x3_13_cast_fp16 = leaky_relu(alpha = var_7_to_fp16, x = input_121_cast_fp16)[name = tensor<string, []>("x3_13_cast_fp16")];
            tensor<bool, []> input_123_interleave_0 = const()[name = tensor<string, []>("input_123_interleave_0"), val = tensor<bool, []>(false)];
            tensor<fp16, [1, 160, 256, 256]> input_123_cast_fp16 = concat(axis = var_8, interleave = input_123_interleave_0, values = (input_111_cast_fp16, x1_13_cast_fp16, x2_13_cast_fp16, x3_13_cast_fp16))[name = tensor<string, []>("input_123_cast_fp16")];
            tensor<string, []> input_125_pad_type_0 = const()[name = tensor<string, []>("input_125_pad_type_0"), val = tensor<string, []>("custom")];
            tensor<int32, [4]> input_125_pad_0 = const()[name = tensor<string, []>("input_125_pad_0"), val = tensor<int32, [4]>([1, 1, 1, 1])];
            tensor<int32, [2]> input_125_strides_0 = const()[name = tensor<string, []>("input_125_strides_0"), val = tensor<int32, [2]>([1, 1])];
            tensor<int32, [2]> input_125_dilations_0 = const()[name = tensor<string, []>("input_125_dilations_0"), val = tensor<int32, [2]>([1, 1])];
            tensor<int32, []> input_125_groups_0 = const()[name = tensor<string, []>("input_125_groups_0"), val = tensor<int32, []>(1)];
            tensor<fp16, [32, 160, 3, 3]> rrdb_body_2_rdb1_conv4_weight_to_fp16 = const()[name = tensor<string, []>("rrdb_body_2_rdb1_conv4_weight_to_fp16"), val = tensor<fp16, [32, 160, 3, 3]>(BLOBFILE(path = tensor<string, []>("@model_path/weights/weight.bin"), offset = tensor<uint64, []>(3062144)))];
            tensor<fp16, [32]> rrdb_body_2_rdb1_conv4_bias_to_fp16 = const()[name = tensor<string, []>("rrdb_body_2_rdb1_conv4_bias_to_fp16"), val = tensor<fp16, [32]>(BLOBFILE(path = tensor<string, []>("@model_path/weights/weight.bin"), offset = tensor<uint64, []>(3154368)))];
            tensor<fp16, [1, 32, 256, 256]> input_125_cast_fp16 = conv(bias = rrdb_body_2_rdb1_conv4_bias_to_fp16, dilations = input_125_dilations_0, groups = input_125_groups_0, pad = input_125_pad_0, pad_type = input_125_pad_type_0, strides = input_125_strides_0, weight = rrdb_body_2_rdb1_conv4_weight_to_fp16, x = input_123_cast_fp16)[name = tensor<string, []>("input_125_cast_fp16")];
            tensor<fp16, [1, 32, 256, 256]> x4_13_cast_fp16 = leaky_relu(alpha = var_7_to_fp16, x = input_125_cast_fp16)[name = tensor<string, []>("x4_13_cast_fp16")];
            tensor<bool, []> input_127_interleave_0 = const()[name = tensor<string, []>("input_127_interleave_0"), val = tensor<bool, []>(false)];
            tensor<fp16, [1, 192, 256, 256]> input_127_cast_fp16 = concat(axis = var_8, interleave = input_127_interleave_0, values = (input_111_cast_fp16, x1_13_cast_fp16, x2_13_cast_fp16, x3_13_cast_fp16, x4_13_cast_fp16))[name = tensor<string, []>("input_127_cast_fp16")];
            tensor<string, []> x5_13_pad_type_0 = const()[name = tensor<string, []>("x5_13_pad_type_0"), val = tensor<string, []>("custom")];
            tensor<int32, [4]> x5_13_pad_0 = const()[name = tensor<string, []>("x5_13_pad_0"), val = tensor<int32, [4]>([1, 1, 1, 1])];
            tensor<int32, [2]> x5_13_strides_0 = const()[name = tensor<string, []>("x5_13_strides_0"), val = tensor<int32, [2]>([1, 1])];
            tensor<int32, [2]> x5_13_dilations_0 = const()[name = tensor<string, []>("x5_13_dilations_0"), val = tensor<int32, [2]>([1, 1])];
            tensor<int32, []> x5_13_groups_0 = const()[name = tensor<string, []>("x5_13_groups_0"), val = tensor<int32, []>(1)];
            tensor<fp16, [64, 192, 3, 3]> var_447_weight_0_to_fp16 = const()[name = tensor<string, []>("op_447_weight_0_to_fp16"), val = tensor<fp16, [64, 192, 3, 3]>(BLOBFILE(path = tensor<string, []>("@model_path/weights/weight.bin"), offset = tensor<uint64, []>(3154496)))];
            tensor<fp16, [64]> var_447_bias_0_to_fp16 = const()[name = tensor<string, []>("op_447_bias_0_to_fp16"), val = tensor<fp16, [64]>(BLOBFILE(path = tensor<string, []>("@model_path/weights/weight.bin"), offset = tensor<uint64, []>(3375744)))];
            tensor<fp16, [1, 64, 256, 256]> var_447_cast_fp16 = conv(bias = var_447_bias_0_to_fp16, dilations = x5_13_dilations_0, groups = x5_13_groups_0, pad = x5_13_pad_0, pad_type = x5_13_pad_type_0, strides = x5_13_strides_0, weight = var_447_weight_0_to_fp16, x = input_127_cast_fp16)[name = tensor<string, []>("op_447_cast_fp16")];
            tensor<fp16, [1, 64, 256, 256]> input_129_cast_fp16 = add(x = var_447_cast_fp16, y = input_111_cast_fp16)[name = tensor<string, []>("input_129_cast_fp16")];
            tensor<string, []> input_131_pad_type_0 = const()[name = tensor<string, []>("input_131_pad_type_0"), val = tensor<string, []>("custom")];
            tensor<int32, [4]> input_131_pad_0 = const()[name = tensor<string, []>("input_131_pad_0"), val = tensor<int32, [4]>([1, 1, 1, 1])];
            tensor<int32, [2]> input_131_strides_0 = const()[name = tensor<string, []>("input_131_strides_0"), val = tensor<int32, [2]>([1, 1])];
            tensor<int32, [2]> input_131_dilations_0 = const()[name = tensor<string, []>("input_131_dilations_0"), val = tensor<int32, [2]>([1, 1])];
            tensor<int32, []> input_131_groups_0 = const()[name = tensor<string, []>("input_131_groups_0"), val = tensor<int32, []>(1)];
            tensor<fp16, [32, 64, 3, 3]> rrdb_body_2_rdb2_conv1_weight_to_fp16 = const()[name = tensor<string, []>("rrdb_body_2_rdb2_conv1_weight_to_fp16"), val = tensor<fp16, [32, 64, 3, 3]>(BLOBFILE(path = tensor<string, []>("@model_path/weights/weight.bin"), offset = tensor<uint64, []>(3375936)))];
            tensor<fp16, [32]> rrdb_body_2_rdb2_conv1_bias_to_fp16 = const()[name = tensor<string, []>("rrdb_body_2_rdb2_conv1_bias_to_fp16"), val = tensor<fp16, [32]>(BLOBFILE(path = tensor<string, []>("@model_path/weights/weight.bin"), offset = tensor<uint64, []>(3412864)))];
            tensor<fp16, [1, 32, 256, 256]> input_131_cast_fp16 = conv(bias = rrdb_body_2_rdb2_conv1_bias_to_fp16, dilations = input_131_dilations_0, groups = input_131_groups_0, pad = input_131_pad_0, pad_type = input_131_pad_type_0, strides = input_131_strides_0, weight = rrdb_body_2_rdb2_conv1_weight_to_fp16, x = input_129_cast_fp16)[name = tensor<string, []>("input_131_cast_fp16")];
            tensor<fp16, [1, 32, 256, 256]> x1_15_cast_fp16 = leaky_relu(alpha = var_7_to_fp16, x = input_131_cast_fp16)[name = tensor<string, []>("x1_15_cast_fp16")];
            tensor<bool, []> input_133_interleave_0 = const()[name = tensor<string, []>("input_133_interleave_0"), val = tensor<bool, []>(false)];
            tensor<fp16, [1, 96, 256, 256]> input_133_cast_fp16 = concat(axis = var_8, interleave = input_133_interleave_0, values = (input_129_cast_fp16, x1_15_cast_fp16))[name = tensor<string, []>("input_133_cast_fp16")];
            tensor<string, []> input_135_pad_type_0 = const()[name = tensor<string, []>("input_135_pad_type_0"), val = tensor<string, []>("custom")];
            tensor<int32, [4]> input_135_pad_0 = const()[name = tensor<string, []>("input_135_pad_0"), val = tensor<int32, [4]>([1, 1, 1, 1])];
            tensor<int32, [2]> input_135_strides_0 = const()[name = tensor<string, []>("input_135_strides_0"), val = tensor<int32, [2]>([1, 1])];
            tensor<int32, [2]> input_135_dilations_0 = const()[name = tensor<string, []>("input_135_dilations_0"), val = tensor<int32, [2]>([1, 1])];
            tensor<int32, []> input_135_groups_0 = const()[name = tensor<string, []>("input_135_groups_0"), val = tensor<int32, []>(1)];
            tensor<fp16, [32, 96, 3, 3]> rrdb_body_2_rdb2_conv2_weight_to_fp16 = const()[name = tensor<string, []>("rrdb_body_2_rdb2_conv2_weight_to_fp16"), val = tensor<fp16, [32, 96, 3, 3]>(BLOBFILE(path = tensor<string, []>("@model_path/weights/weight.bin"), offset = tensor<uint64, []>(3412992)))];
            tensor<fp16, [32]> rrdb_body_2_rdb2_conv2_bias_to_fp16 = const()[name = tensor<string, []>("rrdb_body_2_rdb2_conv2_bias_to_fp16"), val = tensor<fp16, [32]>(BLOBFILE(path = tensor<string, []>("@model_path/weights/weight.bin"), offset = tensor<uint64, []>(3468352)))];
            tensor<fp16, [1, 32, 256, 256]> input_135_cast_fp16 = conv(bias = rrdb_body_2_rdb2_conv2_bias_to_fp16, dilations = input_135_dilations_0, groups = input_135_groups_0, pad = input_135_pad_0, pad_type = input_135_pad_type_0, strides = input_135_strides_0, weight = rrdb_body_2_rdb2_conv2_weight_to_fp16, x = input_133_cast_fp16)[name = tensor<string, []>("input_135_cast_fp16")];
            tensor<fp16, [1, 32, 256, 256]> x2_15_cast_fp16 = leaky_relu(alpha = var_7_to_fp16, x = input_135_cast_fp16)[name = tensor<string, []>("x2_15_cast_fp16")];
            tensor<bool, []> input_137_interleave_0 = const()[name = tensor<string, []>("input_137_interleave_0"), val = tensor<bool, []>(false)];
            tensor<fp16, [1, 128, 256, 256]> input_137_cast_fp16 = concat(axis = var_8, interleave = input_137_interleave_0, values = (input_129_cast_fp16, x1_15_cast_fp16, x2_15_cast_fp16))[name = tensor<string, []>("input_137_cast_fp16")];
            tensor<string, []> input_139_pad_type_0 = const()[name = tensor<string, []>("input_139_pad_type_0"), val = tensor<string, []>("custom")];
            tensor<int32, [4]> input_139_pad_0 = const()[name = tensor<string, []>("input_139_pad_0"), val = tensor<int32, [4]>([1, 1, 1, 1])];
            tensor<int32, [2]> input_139_strides_0 = const()[name = tensor<string, []>("input_139_strides_0"), val = tensor<int32, [2]>([1, 1])];
            tensor<int32, [2]> input_139_dilations_0 = const()[name = tensor<string, []>("input_139_dilations_0"), val = tensor<int32, [2]>([1, 1])];
            tensor<int32, []> input_139_groups_0 = const()[name = tensor<string, []>("input_139_groups_0"), val = tensor<int32, []>(1)];
            tensor<fp16, [32, 128, 3, 3]> rrdb_body_2_rdb2_conv3_weight_to_fp16 = const()[name = tensor<string, []>("rrdb_body_2_rdb2_conv3_weight_to_fp16"), val = tensor<fp16, [32, 128, 3, 3]>(BLOBFILE(path = tensor<string, []>("@model_path/weights/weight.bin"), offset = tensor<uint64, []>(3468480)))];
            tensor<fp16, [32]> rrdb_body_2_rdb2_conv3_bias_to_fp16 = const()[name = tensor<string, []>("rrdb_body_2_rdb2_conv3_bias_to_fp16"), val = tensor<fp16, [32]>(BLOBFILE(path = tensor<string, []>("@model_path/weights/weight.bin"), offset = tensor<uint64, []>(3542272)))];
            tensor<fp16, [1, 32, 256, 256]> input_139_cast_fp16 = conv(bias = rrdb_body_2_rdb2_conv3_bias_to_fp16, dilations = input_139_dilations_0, groups = input_139_groups_0, pad = input_139_pad_0, pad_type = input_139_pad_type_0, strides = input_139_strides_0, weight = rrdb_body_2_rdb2_conv3_weight_to_fp16, x = input_137_cast_fp16)[name = tensor<string, []>("input_139_cast_fp16")];
            tensor<fp16, [1, 32, 256, 256]> x3_15_cast_fp16 = leaky_relu(alpha = var_7_to_fp16, x = input_139_cast_fp16)[name = tensor<string, []>("x3_15_cast_fp16")];
            tensor<bool, []> input_141_interleave_0 = const()[name = tensor<string, []>("input_141_interleave_0"), val = tensor<bool, []>(false)];
            tensor<fp16, [1, 160, 256, 256]> input_141_cast_fp16 = concat(axis = var_8, interleave = input_141_interleave_0, values = (input_129_cast_fp16, x1_15_cast_fp16, x2_15_cast_fp16, x3_15_cast_fp16))[name = tensor<string, []>("input_141_cast_fp16")];
            tensor<string, []> input_143_pad_type_0 = const()[name = tensor<string, []>("input_143_pad_type_0"), val = tensor<string, []>("custom")];
            tensor<int32, [4]> input_143_pad_0 = const()[name = tensor<string, []>("input_143_pad_0"), val = tensor<int32, [4]>([1, 1, 1, 1])];
            tensor<int32, [2]> input_143_strides_0 = const()[name = tensor<string, []>("input_143_strides_0"), val = tensor<int32, [2]>([1, 1])];
            tensor<int32, [2]> input_143_dilations_0 = const()[name = tensor<string, []>("input_143_dilations_0"), val = tensor<int32, [2]>([1, 1])];
            tensor<int32, []> input_143_groups_0 = const()[name = tensor<string, []>("input_143_groups_0"), val = tensor<int32, []>(1)];
            tensor<fp16, [32, 160, 3, 3]> rrdb_body_2_rdb2_conv4_weight_to_fp16 = const()[name = tensor<string, []>("rrdb_body_2_rdb2_conv4_weight_to_fp16"), val = tensor<fp16, [32, 160, 3, 3]>(BLOBFILE(path = tensor<string, []>("@model_path/weights/weight.bin"), offset = tensor<uint64, []>(3542400)))];
            tensor<fp16, [32]> rrdb_body_2_rdb2_conv4_bias_to_fp16 = const()[name = tensor<string, []>("rrdb_body_2_rdb2_conv4_bias_to_fp16"), val = tensor<fp16, [32]>(BLOBFILE(path = tensor<string, []>("@model_path/weights/weight.bin"), offset = tensor<uint64, []>(3634624)))];
            tensor<fp16, [1, 32, 256, 256]> input_143_cast_fp16 = conv(bias = rrdb_body_2_rdb2_conv4_bias_to_fp16, dilations = input_143_dilations_0, groups = input_143_groups_0, pad = input_143_pad_0, pad_type = input_143_pad_type_0, strides = input_143_strides_0, weight = rrdb_body_2_rdb2_conv4_weight_to_fp16, x = input_141_cast_fp16)[name = tensor<string, []>("input_143_cast_fp16")];
            tensor<fp16, [1, 32, 256, 256]> x4_15_cast_fp16 = leaky_relu(alpha = var_7_to_fp16, x = input_143_cast_fp16)[name = tensor<string, []>("x4_15_cast_fp16")];
            tensor<bool, []> input_145_interleave_0 = const()[name = tensor<string, []>("input_145_interleave_0"), val = tensor<bool, []>(false)];
            tensor<fp16, [1, 192, 256, 256]> input_145_cast_fp16 = concat(axis = var_8, interleave = input_145_interleave_0, values = (input_129_cast_fp16, x1_15_cast_fp16, x2_15_cast_fp16, x3_15_cast_fp16, x4_15_cast_fp16))[name = tensor<string, []>("input_145_cast_fp16")];
            tensor<string, []> x5_15_pad_type_0 = const()[name = tensor<string, []>("x5_15_pad_type_0"), val = tensor<string, []>("custom")];
            tensor<int32, [4]> x5_15_pad_0 = const()[name = tensor<string, []>("x5_15_pad_0"), val = tensor<int32, [4]>([1, 1, 1, 1])];
            tensor<int32, [2]> x5_15_strides_0 = const()[name = tensor<string, []>("x5_15_strides_0"), val = tensor<int32, [2]>([1, 1])];
            tensor<int32, [2]> x5_15_dilations_0 = const()[name = tensor<string, []>("x5_15_dilations_0"), val = tensor<int32, [2]>([1, 1])];
            tensor<int32, []> x5_15_groups_0 = const()[name = tensor<string, []>("x5_15_groups_0"), val = tensor<int32, []>(1)];
            tensor<fp16, [64, 192, 3, 3]> var_502_weight_0_to_fp16 = const()[name = tensor<string, []>("op_502_weight_0_to_fp16"), val = tensor<fp16, [64, 192, 3, 3]>(BLOBFILE(path = tensor<string, []>("@model_path/weights/weight.bin"), offset = tensor<uint64, []>(3634752)))];
            tensor<fp16, [64]> var_502_bias_0_to_fp16 = const()[name = tensor<string, []>("op_502_bias_0_to_fp16"), val = tensor<fp16, [64]>(BLOBFILE(path = tensor<string, []>("@model_path/weights/weight.bin"), offset = tensor<uint64, []>(3856000)))];
            tensor<fp16, [1, 64, 256, 256]> var_502_cast_fp16 = conv(bias = var_502_bias_0_to_fp16, dilations = x5_15_dilations_0, groups = x5_15_groups_0, pad = x5_15_pad_0, pad_type = x5_15_pad_type_0, strides = x5_15_strides_0, weight = var_502_weight_0_to_fp16, x = input_145_cast_fp16)[name = tensor<string, []>("op_502_cast_fp16")];
            tensor<fp16, [1, 64, 256, 256]> input_147_cast_fp16 = add(x = var_502_cast_fp16, y = input_129_cast_fp16)[name = tensor<string, []>("input_147_cast_fp16")];
            tensor<string, []> input_149_pad_type_0 = const()[name = tensor<string, []>("input_149_pad_type_0"), val = tensor<string, []>("custom")];
            tensor<int32, [4]> input_149_pad_0 = const()[name = tensor<string, []>("input_149_pad_0"), val = tensor<int32, [4]>([1, 1, 1, 1])];
            tensor<int32, [2]> input_149_strides_0 = const()[name = tensor<string, []>("input_149_strides_0"), val = tensor<int32, [2]>([1, 1])];
            tensor<int32, [2]> input_149_dilations_0 = const()[name = tensor<string, []>("input_149_dilations_0"), val = tensor<int32, [2]>([1, 1])];
            tensor<int32, []> input_149_groups_0 = const()[name = tensor<string, []>("input_149_groups_0"), val = tensor<int32, []>(1)];
            tensor<fp16, [32, 64, 3, 3]> rrdb_body_2_rdb3_conv1_weight_to_fp16 = const()[name = tensor<string, []>("rrdb_body_2_rdb3_conv1_weight_to_fp16"), val = tensor<fp16, [32, 64, 3, 3]>(BLOBFILE(path = tensor<string, []>("@model_path/weights/weight.bin"), offset = tensor<uint64, []>(3856192)))];
            tensor<fp16, [32]> rrdb_body_2_rdb3_conv1_bias_to_fp16 = const()[name = tensor<string, []>("rrdb_body_2_rdb3_conv1_bias_to_fp16"), val = tensor<fp16, [32]>(BLOBFILE(path = tensor<string, []>("@model_path/weights/weight.bin"), offset = tensor<uint64, []>(3893120)))];
            tensor<fp16, [1, 32, 256, 256]> input_149_cast_fp16 = conv(bias = rrdb_body_2_rdb3_conv1_bias_to_fp16, dilations = input_149_dilations_0, groups = input_149_groups_0, pad = input_149_pad_0, pad_type = input_149_pad_type_0, strides = input_149_strides_0, weight = rrdb_body_2_rdb3_conv1_weight_to_fp16, x = input_147_cast_fp16)[name = tensor<string, []>("input_149_cast_fp16")];
            tensor<fp16, [1, 32, 256, 256]> x1_17_cast_fp16 = leaky_relu(alpha = var_7_to_fp16, x = input_149_cast_fp16)[name = tensor<string, []>("x1_17_cast_fp16")];
            tensor<bool, []> input_151_interleave_0 = const()[name = tensor<string, []>("input_151_interleave_0"), val = tensor<bool, []>(false)];
            tensor<fp16, [1, 96, 256, 256]> input_151_cast_fp16 = concat(axis = var_8, interleave = input_151_interleave_0, values = (input_147_cast_fp16, x1_17_cast_fp16))[name = tensor<string, []>("input_151_cast_fp16")];
            tensor<string, []> input_153_pad_type_0 = const()[name = tensor<string, []>("input_153_pad_type_0"), val = tensor<string, []>("custom")];
            tensor<int32, [4]> input_153_pad_0 = const()[name = tensor<string, []>("input_153_pad_0"), val = tensor<int32, [4]>([1, 1, 1, 1])];
            tensor<int32, [2]> input_153_strides_0 = const()[name = tensor<string, []>("input_153_strides_0"), val = tensor<int32, [2]>([1, 1])];
            tensor<int32, [2]> input_153_dilations_0 = const()[name = tensor<string, []>("input_153_dilations_0"), val = tensor<int32, [2]>([1, 1])];
            tensor<int32, []> input_153_groups_0 = const()[name = tensor<string, []>("input_153_groups_0"), val = tensor<int32, []>(1)];
            tensor<fp16, [32, 96, 3, 3]> rrdb_body_2_rdb3_conv2_weight_to_fp16 = const()[name = tensor<string, []>("rrdb_body_2_rdb3_conv2_weight_to_fp16"), val = tensor<fp16, [32, 96, 3, 3]>(BLOBFILE(path = tensor<string, []>("@model_path/weights/weight.bin"), offset = tensor<uint64, []>(3893248)))];
            tensor<fp16, [32]> rrdb_body_2_rdb3_conv2_bias_to_fp16 = const()[name = tensor<string, []>("rrdb_body_2_rdb3_conv2_bias_to_fp16"), val = tensor<fp16, [32]>(BLOBFILE(path = tensor<string, []>("@model_path/weights/weight.bin"), offset = tensor<uint64, []>(3948608)))];
            tensor<fp16, [1, 32, 256, 256]> input_153_cast_fp16 = conv(bias = rrdb_body_2_rdb3_conv2_bias_to_fp16, dilations = input_153_dilations_0, groups = input_153_groups_0, pad = input_153_pad_0, pad_type = input_153_pad_type_0, strides = input_153_strides_0, weight = rrdb_body_2_rdb3_conv2_weight_to_fp16, x = input_151_cast_fp16)[name = tensor<string, []>("input_153_cast_fp16")];
            tensor<fp16, [1, 32, 256, 256]> x2_17_cast_fp16 = leaky_relu(alpha = var_7_to_fp16, x = input_153_cast_fp16)[name = tensor<string, []>("x2_17_cast_fp16")];
            tensor<bool, []> input_155_interleave_0 = const()[name = tensor<string, []>("input_155_interleave_0"), val = tensor<bool, []>(false)];
            tensor<fp16, [1, 128, 256, 256]> input_155_cast_fp16 = concat(axis = var_8, interleave = input_155_interleave_0, values = (input_147_cast_fp16, x1_17_cast_fp16, x2_17_cast_fp16))[name = tensor<string, []>("input_155_cast_fp16")];
            tensor<string, []> input_157_pad_type_0 = const()[name = tensor<string, []>("input_157_pad_type_0"), val = tensor<string, []>("custom")];
            tensor<int32, [4]> input_157_pad_0 = const()[name = tensor<string, []>("input_157_pad_0"), val = tensor<int32, [4]>([1, 1, 1, 1])];
            tensor<int32, [2]> input_157_strides_0 = const()[name = tensor<string, []>("input_157_strides_0"), val = tensor<int32, [2]>([1, 1])];
            tensor<int32, [2]> input_157_dilations_0 = const()[name = tensor<string, []>("input_157_dilations_0"), val = tensor<int32, [2]>([1, 1])];
            tensor<int32, []> input_157_groups_0 = const()[name = tensor<string, []>("input_157_groups_0"), val = tensor<int32, []>(1)];
            tensor<fp16, [32, 128, 3, 3]> rrdb_body_2_rdb3_conv3_weight_to_fp16 = const()[name = tensor<string, []>("rrdb_body_2_rdb3_conv3_weight_to_fp16"), val = tensor<fp16, [32, 128, 3, 3]>(BLOBFILE(path = tensor<string, []>("@model_path/weights/weight.bin"), offset = tensor<uint64, []>(3948736)))];
            tensor<fp16, [32]> rrdb_body_2_rdb3_conv3_bias_to_fp16 = const()[name = tensor<string, []>("rrdb_body_2_rdb3_conv3_bias_to_fp16"), val = tensor<fp16, [32]>(BLOBFILE(path = tensor<string, []>("@model_path/weights/weight.bin"), offset = tensor<uint64, []>(4022528)))];
            tensor<fp16, [1, 32, 256, 256]> input_157_cast_fp16 = conv(bias = rrdb_body_2_rdb3_conv3_bias_to_fp16, dilations = input_157_dilations_0, groups = input_157_groups_0, pad = input_157_pad_0, pad_type = input_157_pad_type_0, strides = input_157_strides_0, weight = rrdb_body_2_rdb3_conv3_weight_to_fp16, x = input_155_cast_fp16)[name = tensor<string, []>("input_157_cast_fp16")];
            tensor<fp16, [1, 32, 256, 256]> x3_17_cast_fp16 = leaky_relu(alpha = var_7_to_fp16, x = input_157_cast_fp16)[name = tensor<string, []>("x3_17_cast_fp16")];
            tensor<bool, []> input_159_interleave_0 = const()[name = tensor<string, []>("input_159_interleave_0"), val = tensor<bool, []>(false)];
            tensor<fp16, [1, 160, 256, 256]> input_159_cast_fp16 = concat(axis = var_8, interleave = input_159_interleave_0, values = (input_147_cast_fp16, x1_17_cast_fp16, x2_17_cast_fp16, x3_17_cast_fp16))[name = tensor<string, []>("input_159_cast_fp16")];
            tensor<string, []> input_161_pad_type_0 = const()[name = tensor<string, []>("input_161_pad_type_0"), val = tensor<string, []>("custom")];
            tensor<int32, [4]> input_161_pad_0 = const()[name = tensor<string, []>("input_161_pad_0"), val = tensor<int32, [4]>([1, 1, 1, 1])];
            tensor<int32, [2]> input_161_strides_0 = const()[name = tensor<string, []>("input_161_strides_0"), val = tensor<int32, [2]>([1, 1])];
            tensor<int32, [2]> input_161_dilations_0 = const()[name = tensor<string, []>("input_161_dilations_0"), val = tensor<int32, [2]>([1, 1])];
            tensor<int32, []> input_161_groups_0 = const()[name = tensor<string, []>("input_161_groups_0"), val = tensor<int32, []>(1)];
            tensor<fp16, [32, 160, 3, 3]> rrdb_body_2_rdb3_conv4_weight_to_fp16 = const()[name = tensor<string, []>("rrdb_body_2_rdb3_conv4_weight_to_fp16"), val = tensor<fp16, [32, 160, 3, 3]>(BLOBFILE(path = tensor<string, []>("@model_path/weights/weight.bin"), offset = tensor<uint64, []>(4022656)))];
            tensor<fp16, [32]> rrdb_body_2_rdb3_conv4_bias_to_fp16 = const()[name = tensor<string, []>("rrdb_body_2_rdb3_conv4_bias_to_fp16"), val = tensor<fp16, [32]>(BLOBFILE(path = tensor<string, []>("@model_path/weights/weight.bin"), offset = tensor<uint64, []>(4114880)))];
            tensor<fp16, [1, 32, 256, 256]> input_161_cast_fp16 = conv(bias = rrdb_body_2_rdb3_conv4_bias_to_fp16, dilations = input_161_dilations_0, groups = input_161_groups_0, pad = input_161_pad_0, pad_type = input_161_pad_type_0, strides = input_161_strides_0, weight = rrdb_body_2_rdb3_conv4_weight_to_fp16, x = input_159_cast_fp16)[name = tensor<string, []>("input_161_cast_fp16")];
            tensor<fp16, [1, 32, 256, 256]> x4_17_cast_fp16 = leaky_relu(alpha = var_7_to_fp16, x = input_161_cast_fp16)[name = tensor<string, []>("x4_17_cast_fp16")];
            tensor<bool, []> input_163_interleave_0 = const()[name = tensor<string, []>("input_163_interleave_0"), val = tensor<bool, []>(false)];
            tensor<fp16, [1, 192, 256, 256]> input_163_cast_fp16 = concat(axis = var_8, interleave = input_163_interleave_0, values = (input_147_cast_fp16, x1_17_cast_fp16, x2_17_cast_fp16, x3_17_cast_fp16, x4_17_cast_fp16))[name = tensor<string, []>("input_163_cast_fp16")];
            tensor<string, []> x5_17_pad_type_0 = const()[name = tensor<string, []>("x5_17_pad_type_0"), val = tensor<string, []>("custom")];
            tensor<int32, [4]> x5_17_pad_0 = const()[name = tensor<string, []>("x5_17_pad_0"), val = tensor<int32, [4]>([1, 1, 1, 1])];
            tensor<int32, [2]> x5_17_strides_0 = const()[name = tensor<string, []>("x5_17_strides_0"), val = tensor<int32, [2]>([1, 1])];
            tensor<int32, [2]> x5_17_dilations_0 = const()[name = tensor<string, []>("x5_17_dilations_0"), val = tensor<int32, [2]>([1, 1])];
            tensor<int32, []> x5_17_groups_0 = const()[name = tensor<string, []>("x5_17_groups_0"), val = tensor<int32, []>(1)];
            tensor<fp16, [64, 192, 3, 3]> var_557_weight_0_to_fp16 = const()[name = tensor<string, []>("op_557_weight_0_to_fp16"), val = tensor<fp16, [64, 192, 3, 3]>(BLOBFILE(path = tensor<string, []>("@model_path/weights/weight.bin"), offset = tensor<uint64, []>(4115008)))];
            tensor<fp16, [64]> var_557_bias_0_to_fp16 = const()[name = tensor<string, []>("op_557_bias_0_to_fp16"), val = tensor<fp16, [64]>(BLOBFILE(path = tensor<string, []>("@model_path/weights/weight.bin"), offset = tensor<uint64, []>(4336256)))];
            tensor<fp16, [1, 64, 256, 256]> var_557_cast_fp16 = conv(bias = var_557_bias_0_to_fp16, dilations = x5_17_dilations_0, groups = x5_17_groups_0, pad = x5_17_pad_0, pad_type = x5_17_pad_type_0, strides = x5_17_strides_0, weight = var_557_weight_0_to_fp16, x = input_163_cast_fp16)[name = tensor<string, []>("op_557_cast_fp16")];
            tensor<fp16, [1, 64, 256, 256]> out_5_cast_fp16 = add(x = var_557_cast_fp16, y = input_147_cast_fp16)[name = tensor<string, []>("out_5_cast_fp16")];
            tensor<fp16, []> var_559_to_fp16 = const()[name = tensor<string, []>("op_559_to_fp16"), val = tensor<fp16, []>(0x1.998p-3)];
            tensor<fp16, [1, 64, 256, 256]> var_560_cast_fp16 = mul(x = out_5_cast_fp16, y = var_559_to_fp16)[name = tensor<string, []>("op_560_cast_fp16")];
            tensor<fp16, [1, 64, 256, 256]> input_165_cast_fp16 = add(x = var_560_cast_fp16, y = input_111_cast_fp16)[name = tensor<string, []>("input_165_cast_fp16")];
            tensor<string, []> input_167_pad_type_0 = const()[name = tensor<string, []>("input_167_pad_type_0"), val = tensor<string, []>("custom")];
            tensor<int32, [4]> input_167_pad_0 = const()[name = tensor<string, []>("input_167_pad_0"), val = tensor<int32, [4]>([1, 1, 1, 1])];
            tensor<int32, [2]> input_167_strides_0 = const()[name = tensor<string, []>("input_167_strides_0"), val = tensor<int32, [2]>([1, 1])];
            tensor<int32, [2]> input_167_dilations_0 = const()[name = tensor<string, []>("input_167_dilations_0"), val = tensor<int32, [2]>([1, 1])];
            tensor<int32, []> input_167_groups_0 = const()[name = tensor<string, []>("input_167_groups_0"), val = tensor<int32, []>(1)];
            tensor<fp16, [32, 64, 3, 3]> rrdb_body_3_rdb1_conv1_weight_to_fp16 = const()[name = tensor<string, []>("rrdb_body_3_rdb1_conv1_weight_to_fp16"), val = tensor<fp16, [32, 64, 3, 3]>(BLOBFILE(path = tensor<string, []>("@model_path/weights/weight.bin"), offset = tensor<uint64, []>(4336448)))];
            tensor<fp16, [32]> rrdb_body_3_rdb1_conv1_bias_to_fp16 = const()[name = tensor<string, []>("rrdb_body_3_rdb1_conv1_bias_to_fp16"), val = tensor<fp16, [32]>(BLOBFILE(path = tensor<string, []>("@model_path/weights/weight.bin"), offset = tensor<uint64, []>(4373376)))];
            tensor<fp16, [1, 32, 256, 256]> input_167_cast_fp16 = conv(bias = rrdb_body_3_rdb1_conv1_bias_to_fp16, dilations = input_167_dilations_0, groups = input_167_groups_0, pad = input_167_pad_0, pad_type = input_167_pad_type_0, strides = input_167_strides_0, weight = rrdb_body_3_rdb1_conv1_weight_to_fp16, x = input_165_cast_fp16)[name = tensor<string, []>("input_167_cast_fp16")];
            tensor<fp16, [1, 32, 256, 256]> x1_19_cast_fp16 = leaky_relu(alpha = var_7_to_fp16, x = input_167_cast_fp16)[name = tensor<string, []>("x1_19_cast_fp16")];
            tensor<bool, []> input_169_interleave_0 = const()[name = tensor<string, []>("input_169_interleave_0"), val = tensor<bool, []>(false)];
            tensor<fp16, [1, 96, 256, 256]> input_169_cast_fp16 = concat(axis = var_8, interleave = input_169_interleave_0, values = (input_165_cast_fp16, x1_19_cast_fp16))[name = tensor<string, []>("input_169_cast_fp16")];
            tensor<string, []> input_171_pad_type_0 = const()[name = tensor<string, []>("input_171_pad_type_0"), val = tensor<string, []>("custom")];
            tensor<int32, [4]> input_171_pad_0 = const()[name = tensor<string, []>("input_171_pad_0"), val = tensor<int32, [4]>([1, 1, 1, 1])];
            tensor<int32, [2]> input_171_strides_0 = const()[name = tensor<string, []>("input_171_strides_0"), val = tensor<int32, [2]>([1, 1])];
            tensor<int32, [2]> input_171_dilations_0 = const()[name = tensor<string, []>("input_171_dilations_0"), val = tensor<int32, [2]>([1, 1])];
            tensor<int32, []> input_171_groups_0 = const()[name = tensor<string, []>("input_171_groups_0"), val = tensor<int32, []>(1)];
            tensor<fp16, [32, 96, 3, 3]> rrdb_body_3_rdb1_conv2_weight_to_fp16 = const()[name = tensor<string, []>("rrdb_body_3_rdb1_conv2_weight_to_fp16"), val = tensor<fp16, [32, 96, 3, 3]>(BLOBFILE(path = tensor<string, []>("@model_path/weights/weight.bin"), offset = tensor<uint64, []>(4373504)))];
            tensor<fp16, [32]> rrdb_body_3_rdb1_conv2_bias_to_fp16 = const()[name = tensor<string, []>("rrdb_body_3_rdb1_conv2_bias_to_fp16"), val = tensor<fp16, [32]>(BLOBFILE(path = tensor<string, []>("@model_path/weights/weight.bin"), offset = tensor<uint64, []>(4428864)))];
            tensor<fp16, [1, 32, 256, 256]> input_171_cast_fp16 = conv(bias = rrdb_body_3_rdb1_conv2_bias_to_fp16, dilations = input_171_dilations_0, groups = input_171_groups_0, pad = input_171_pad_0, pad_type = input_171_pad_type_0, strides = input_171_strides_0, weight = rrdb_body_3_rdb1_conv2_weight_to_fp16, x = input_169_cast_fp16)[name = tensor<string, []>("input_171_cast_fp16")];
            tensor<fp16, [1, 32, 256, 256]> x2_19_cast_fp16 = leaky_relu(alpha = var_7_to_fp16, x = input_171_cast_fp16)[name = tensor<string, []>("x2_19_cast_fp16")];
            tensor<bool, []> input_173_interleave_0 = const()[name = tensor<string, []>("input_173_interleave_0"), val = tensor<bool, []>(false)];
            tensor<fp16, [1, 128, 256, 256]> input_173_cast_fp16 = concat(axis = var_8, interleave = input_173_interleave_0, values = (input_165_cast_fp16, x1_19_cast_fp16, x2_19_cast_fp16))[name = tensor<string, []>("input_173_cast_fp16")];
            tensor<string, []> input_175_pad_type_0 = const()[name = tensor<string, []>("input_175_pad_type_0"), val = tensor<string, []>("custom")];
            tensor<int32, [4]> input_175_pad_0 = const()[name = tensor<string, []>("input_175_pad_0"), val = tensor<int32, [4]>([1, 1, 1, 1])];
            tensor<int32, [2]> input_175_strides_0 = const()[name = tensor<string, []>("input_175_strides_0"), val = tensor<int32, [2]>([1, 1])];
            tensor<int32, [2]> input_175_dilations_0 = const()[name = tensor<string, []>("input_175_dilations_0"), val = tensor<int32, [2]>([1, 1])];
            tensor<int32, []> input_175_groups_0 = const()[name = tensor<string, []>("input_175_groups_0"), val = tensor<int32, []>(1)];
            tensor<fp16, [32, 128, 3, 3]> rrdb_body_3_rdb1_conv3_weight_to_fp16 = const()[name = tensor<string, []>("rrdb_body_3_rdb1_conv3_weight_to_fp16"), val = tensor<fp16, [32, 128, 3, 3]>(BLOBFILE(path = tensor<string, []>("@model_path/weights/weight.bin"), offset = tensor<uint64, []>(4428992)))];
            tensor<fp16, [32]> rrdb_body_3_rdb1_conv3_bias_to_fp16 = const()[name = tensor<string, []>("rrdb_body_3_rdb1_conv3_bias_to_fp16"), val = tensor<fp16, [32]>(BLOBFILE(path = tensor<string, []>("@model_path/weights/weight.bin"), offset = tensor<uint64, []>(4502784)))];
            tensor<fp16, [1, 32, 256, 256]> input_175_cast_fp16 = conv(bias = rrdb_body_3_rdb1_conv3_bias_to_fp16, dilations = input_175_dilations_0, groups = input_175_groups_0, pad = input_175_pad_0, pad_type = input_175_pad_type_0, strides = input_175_strides_0, weight = rrdb_body_3_rdb1_conv3_weight_to_fp16, x = input_173_cast_fp16)[name = tensor<string, []>("input_175_cast_fp16")];
            tensor<fp16, [1, 32, 256, 256]> x3_19_cast_fp16 = leaky_relu(alpha = var_7_to_fp16, x = input_175_cast_fp16)[name = tensor<string, []>("x3_19_cast_fp16")];
            tensor<bool, []> input_177_interleave_0 = const()[name = tensor<string, []>("input_177_interleave_0"), val = tensor<bool, []>(false)];
            tensor<fp16, [1, 160, 256, 256]> input_177_cast_fp16 = concat(axis = var_8, interleave = input_177_interleave_0, values = (input_165_cast_fp16, x1_19_cast_fp16, x2_19_cast_fp16, x3_19_cast_fp16))[name = tensor<string, []>("input_177_cast_fp16")];
            tensor<string, []> input_179_pad_type_0 = const()[name = tensor<string, []>("input_179_pad_type_0"), val = tensor<string, []>("custom")];
            tensor<int32, [4]> input_179_pad_0 = const()[name = tensor<string, []>("input_179_pad_0"), val = tensor<int32, [4]>([1, 1, 1, 1])];
            tensor<int32, [2]> input_179_strides_0 = const()[name = tensor<string, []>("input_179_strides_0"), val = tensor<int32, [2]>([1, 1])];
            tensor<int32, [2]> input_179_dilations_0 = const()[name = tensor<string, []>("input_179_dilations_0"), val = tensor<int32, [2]>([1, 1])];
            tensor<int32, []> input_179_groups_0 = const()[name = tensor<string, []>("input_179_groups_0"), val = tensor<int32, []>(1)];
            tensor<fp16, [32, 160, 3, 3]> rrdb_body_3_rdb1_conv4_weight_to_fp16 = const()[name = tensor<string, []>("rrdb_body_3_rdb1_conv4_weight_to_fp16"), val = tensor<fp16, [32, 160, 3, 3]>(BLOBFILE(path = tensor<string, []>("@model_path/weights/weight.bin"), offset = tensor<uint64, []>(4502912)))];
            tensor<fp16, [32]> rrdb_body_3_rdb1_conv4_bias_to_fp16 = const()[name = tensor<string, []>("rrdb_body_3_rdb1_conv4_bias_to_fp16"), val = tensor<fp16, [32]>(BLOBFILE(path = tensor<string, []>("@model_path/weights/weight.bin"), offset = tensor<uint64, []>(4595136)))];
            tensor<fp16, [1, 32, 256, 256]> input_179_cast_fp16 = conv(bias = rrdb_body_3_rdb1_conv4_bias_to_fp16, dilations = input_179_dilations_0, groups = input_179_groups_0, pad = input_179_pad_0, pad_type = input_179_pad_type_0, strides = input_179_strides_0, weight = rrdb_body_3_rdb1_conv4_weight_to_fp16, x = input_177_cast_fp16)[name = tensor<string, []>("input_179_cast_fp16")];
            tensor<fp16, [1, 32, 256, 256]> x4_19_cast_fp16 = leaky_relu(alpha = var_7_to_fp16, x = input_179_cast_fp16)[name = tensor<string, []>("x4_19_cast_fp16")];
            tensor<bool, []> input_181_interleave_0 = const()[name = tensor<string, []>("input_181_interleave_0"), val = tensor<bool, []>(false)];
            tensor<fp16, [1, 192, 256, 256]> input_181_cast_fp16 = concat(axis = var_8, interleave = input_181_interleave_0, values = (input_165_cast_fp16, x1_19_cast_fp16, x2_19_cast_fp16, x3_19_cast_fp16, x4_19_cast_fp16))[name = tensor<string, []>("input_181_cast_fp16")];
            tensor<string, []> x5_19_pad_type_0 = const()[name = tensor<string, []>("x5_19_pad_type_0"), val = tensor<string, []>("custom")];
            tensor<int32, [4]> x5_19_pad_0 = const()[name = tensor<string, []>("x5_19_pad_0"), val = tensor<int32, [4]>([1, 1, 1, 1])];
            tensor<int32, [2]> x5_19_strides_0 = const()[name = tensor<string, []>("x5_19_strides_0"), val = tensor<int32, [2]>([1, 1])];
            tensor<int32, [2]> x5_19_dilations_0 = const()[name = tensor<string, []>("x5_19_dilations_0"), val = tensor<int32, [2]>([1, 1])];
            tensor<int32, []> x5_19_groups_0 = const()[name = tensor<string, []>("x5_19_groups_0"), val = tensor<int32, []>(1)];
            tensor<fp16, [64, 192, 3, 3]> var_618_weight_0_to_fp16 = const()[name = tensor<string, []>("op_618_weight_0_to_fp16"), val = tensor<fp16, [64, 192, 3, 3]>(BLOBFILE(path = tensor<string, []>("@model_path/weights/weight.bin"), offset = tensor<uint64, []>(4595264)))];
            tensor<fp16, [64]> var_618_bias_0_to_fp16 = const()[name = tensor<string, []>("op_618_bias_0_to_fp16"), val = tensor<fp16, [64]>(BLOBFILE(path = tensor<string, []>("@model_path/weights/weight.bin"), offset = tensor<uint64, []>(4816512)))];
            tensor<fp16, [1, 64, 256, 256]> var_618_cast_fp16 = conv(bias = var_618_bias_0_to_fp16, dilations = x5_19_dilations_0, groups = x5_19_groups_0, pad = x5_19_pad_0, pad_type = x5_19_pad_type_0, strides = x5_19_strides_0, weight = var_618_weight_0_to_fp16, x = input_181_cast_fp16)[name = tensor<string, []>("op_618_cast_fp16")];
            tensor<fp16, [1, 64, 256, 256]> input_183_cast_fp16 = add(x = var_618_cast_fp16, y = input_165_cast_fp16)[name = tensor<string, []>("input_183_cast_fp16")];
            tensor<string, []> input_185_pad_type_0 = const()[name = tensor<string, []>("input_185_pad_type_0"), val = tensor<string, []>("custom")];
            tensor<int32, [4]> input_185_pad_0 = const()[name = tensor<string, []>("input_185_pad_0"), val = tensor<int32, [4]>([1, 1, 1, 1])];
            tensor<int32, [2]> input_185_strides_0 = const()[name = tensor<string, []>("input_185_strides_0"), val = tensor<int32, [2]>([1, 1])];
            tensor<int32, [2]> input_185_dilations_0 = const()[name = tensor<string, []>("input_185_dilations_0"), val = tensor<int32, [2]>([1, 1])];
            tensor<int32, []> input_185_groups_0 = const()[name = tensor<string, []>("input_185_groups_0"), val = tensor<int32, []>(1)];
            tensor<fp16, [32, 64, 3, 3]> rrdb_body_3_rdb2_conv1_weight_to_fp16 = const()[name = tensor<string, []>("rrdb_body_3_rdb2_conv1_weight_to_fp16"), val = tensor<fp16, [32, 64, 3, 3]>(BLOBFILE(path = tensor<string, []>("@model_path/weights/weight.bin"), offset = tensor<uint64, []>(4816704)))];
            tensor<fp16, [32]> rrdb_body_3_rdb2_conv1_bias_to_fp16 = const()[name = tensor<string, []>("rrdb_body_3_rdb2_conv1_bias_to_fp16"), val = tensor<fp16, [32]>(BLOBFILE(path = tensor<string, []>("@model_path/weights/weight.bin"), offset = tensor<uint64, []>(4853632)))];
            tensor<fp16, [1, 32, 256, 256]> input_185_cast_fp16 = conv(bias = rrdb_body_3_rdb2_conv1_bias_to_fp16, dilations = input_185_dilations_0, groups = input_185_groups_0, pad = input_185_pad_0, pad_type = input_185_pad_type_0, strides = input_185_strides_0, weight = rrdb_body_3_rdb2_conv1_weight_to_fp16, x = input_183_cast_fp16)[name = tensor<string, []>("input_185_cast_fp16")];
            tensor<fp16, [1, 32, 256, 256]> x1_21_cast_fp16 = leaky_relu(alpha = var_7_to_fp16, x = input_185_cast_fp16)[name = tensor<string, []>("x1_21_cast_fp16")];
            tensor<bool, []> input_187_interleave_0 = const()[name = tensor<string, []>("input_187_interleave_0"), val = tensor<bool, []>(false)];
            tensor<fp16, [1, 96, 256, 256]> input_187_cast_fp16 = concat(axis = var_8, interleave = input_187_interleave_0, values = (input_183_cast_fp16, x1_21_cast_fp16))[name = tensor<string, []>("input_187_cast_fp16")];
            tensor<string, []> input_189_pad_type_0 = const()[name = tensor<string, []>("input_189_pad_type_0"), val = tensor<string, []>("custom")];
            tensor<int32, [4]> input_189_pad_0 = const()[name = tensor<string, []>("input_189_pad_0"), val = tensor<int32, [4]>([1, 1, 1, 1])];
            tensor<int32, [2]> input_189_strides_0 = const()[name = tensor<string, []>("input_189_strides_0"), val = tensor<int32, [2]>([1, 1])];
            tensor<int32, [2]> input_189_dilations_0 = const()[name = tensor<string, []>("input_189_dilations_0"), val = tensor<int32, [2]>([1, 1])];
            tensor<int32, []> input_189_groups_0 = const()[name = tensor<string, []>("input_189_groups_0"), val = tensor<int32, []>(1)];
            tensor<fp16, [32, 96, 3, 3]> rrdb_body_3_rdb2_conv2_weight_to_fp16 = const()[name = tensor<string, []>("rrdb_body_3_rdb2_conv2_weight_to_fp16"), val = tensor<fp16, [32, 96, 3, 3]>(BLOBFILE(path = tensor<string, []>("@model_path/weights/weight.bin"), offset = tensor<uint64, []>(4853760)))];
            tensor<fp16, [32]> rrdb_body_3_rdb2_conv2_bias_to_fp16 = const()[name = tensor<string, []>("rrdb_body_3_rdb2_conv2_bias_to_fp16"), val = tensor<fp16, [32]>(BLOBFILE(path = tensor<string, []>("@model_path/weights/weight.bin"), offset = tensor<uint64, []>(4909120)))];
            tensor<fp16, [1, 32, 256, 256]> input_189_cast_fp16 = conv(bias = rrdb_body_3_rdb2_conv2_bias_to_fp16, dilations = input_189_dilations_0, groups = input_189_groups_0, pad = input_189_pad_0, pad_type = input_189_pad_type_0, strides = input_189_strides_0, weight = rrdb_body_3_rdb2_conv2_weight_to_fp16, x = input_187_cast_fp16)[name = tensor<string, []>("input_189_cast_fp16")];
            tensor<fp16, [1, 32, 256, 256]> x2_21_cast_fp16 = leaky_relu(alpha = var_7_to_fp16, x = input_189_cast_fp16)[name = tensor<string, []>("x2_21_cast_fp16")];
            tensor<bool, []> input_191_interleave_0 = const()[name = tensor<string, []>("input_191_interleave_0"), val = tensor<bool, []>(false)];
            tensor<fp16, [1, 128, 256, 256]> input_191_cast_fp16 = concat(axis = var_8, interleave = input_191_interleave_0, values = (input_183_cast_fp16, x1_21_cast_fp16, x2_21_cast_fp16))[name = tensor<string, []>("input_191_cast_fp16")];
            tensor<string, []> input_193_pad_type_0 = const()[name = tensor<string, []>("input_193_pad_type_0"), val = tensor<string, []>("custom")];
            tensor<int32, [4]> input_193_pad_0 = const()[name = tensor<string, []>("input_193_pad_0"), val = tensor<int32, [4]>([1, 1, 1, 1])];
            tensor<int32, [2]> input_193_strides_0 = const()[name = tensor<string, []>("input_193_strides_0"), val = tensor<int32, [2]>([1, 1])];
            tensor<int32, [2]> input_193_dilations_0 = const()[name = tensor<string, []>("input_193_dilations_0"), val = tensor<int32, [2]>([1, 1])];
            tensor<int32, []> input_193_groups_0 = const()[name = tensor<string, []>("input_193_groups_0"), val = tensor<int32, []>(1)];
            tensor<fp16, [32, 128, 3, 3]> rrdb_body_3_rdb2_conv3_weight_to_fp16 = const()[name = tensor<string, []>("rrdb_body_3_rdb2_conv3_weight_to_fp16"), val = tensor<fp16, [32, 128, 3, 3]>(BLOBFILE(path = tensor<string, []>("@model_path/weights/weight.bin"), offset = tensor<uint64, []>(4909248)))];
            tensor<fp16, [32]> rrdb_body_3_rdb2_conv3_bias_to_fp16 = const()[name = tensor<string, []>("rrdb_body_3_rdb2_conv3_bias_to_fp16"), val = tensor<fp16, [32]>(BLOBFILE(path = tensor<string, []>("@model_path/weights/weight.bin"), offset = tensor<uint64, []>(4983040)))];
            tensor<fp16, [1, 32, 256, 256]> input_193_cast_fp16 = conv(bias = rrdb_body_3_rdb2_conv3_bias_to_fp16, dilations = input_193_dilations_0, groups = input_193_groups_0, pad = input_193_pad_0, pad_type = input_193_pad_type_0, strides = input_193_strides_0, weight = rrdb_body_3_rdb2_conv3_weight_to_fp16, x = input_191_cast_fp16)[name = tensor<string, []>("input_193_cast_fp16")];
            tensor<fp16, [1, 32, 256, 256]> x3_21_cast_fp16 = leaky_relu(alpha = var_7_to_fp16, x = input_193_cast_fp16)[name = tensor<string, []>("x3_21_cast_fp16")];
            tensor<bool, []> input_195_interleave_0 = const()[name = tensor<string, []>("input_195_interleave_0"), val = tensor<bool, []>(false)];
            tensor<fp16, [1, 160, 256, 256]> input_195_cast_fp16 = concat(axis = var_8, interleave = input_195_interleave_0, values = (input_183_cast_fp16, x1_21_cast_fp16, x2_21_cast_fp16, x3_21_cast_fp16))[name = tensor<string, []>("input_195_cast_fp16")];
            tensor<string, []> input_197_pad_type_0 = const()[name = tensor<string, []>("input_197_pad_type_0"), val = tensor<string, []>("custom")];
            tensor<int32, [4]> input_197_pad_0 = const()[name = tensor<string, []>("input_197_pad_0"), val = tensor<int32, [4]>([1, 1, 1, 1])];
            tensor<int32, [2]> input_197_strides_0 = const()[name = tensor<string, []>("input_197_strides_0"), val = tensor<int32, [2]>([1, 1])];
            tensor<int32, [2]> input_197_dilations_0 = const()[name = tensor<string, []>("input_197_dilations_0"), val = tensor<int32, [2]>([1, 1])];
            tensor<int32, []> input_197_groups_0 = const()[name = tensor<string, []>("input_197_groups_0"), val = tensor<int32, []>(1)];
            tensor<fp16, [32, 160, 3, 3]> rrdb_body_3_rdb2_conv4_weight_to_fp16 = const()[name = tensor<string, []>("rrdb_body_3_rdb2_conv4_weight_to_fp16"), val = tensor<fp16, [32, 160, 3, 3]>(BLOBFILE(path = tensor<string, []>("@model_path/weights/weight.bin"), offset = tensor<uint64, []>(4983168)))];
            tensor<fp16, [32]> rrdb_body_3_rdb2_conv4_bias_to_fp16 = const()[name = tensor<string, []>("rrdb_body_3_rdb2_conv4_bias_to_fp16"), val = tensor<fp16, [32]>(BLOBFILE(path = tensor<string, []>("@model_path/weights/weight.bin"), offset = tensor<uint64, []>(5075392)))];
            tensor<fp16, [1, 32, 256, 256]> input_197_cast_fp16 = conv(bias = rrdb_body_3_rdb2_conv4_bias_to_fp16, dilations = input_197_dilations_0, groups = input_197_groups_0, pad = input_197_pad_0, pad_type = input_197_pad_type_0, strides = input_197_strides_0, weight = rrdb_body_3_rdb2_conv4_weight_to_fp16, x = input_195_cast_fp16)[name = tensor<string, []>("input_197_cast_fp16")];
            tensor<fp16, [1, 32, 256, 256]> x4_21_cast_fp16 = leaky_relu(alpha = var_7_to_fp16, x = input_197_cast_fp16)[name = tensor<string, []>("x4_21_cast_fp16")];
            tensor<bool, []> input_199_interleave_0 = const()[name = tensor<string, []>("input_199_interleave_0"), val = tensor<bool, []>(false)];
            tensor<fp16, [1, 192, 256, 256]> input_199_cast_fp16 = concat(axis = var_8, interleave = input_199_interleave_0, values = (input_183_cast_fp16, x1_21_cast_fp16, x2_21_cast_fp16, x3_21_cast_fp16, x4_21_cast_fp16))[name = tensor<string, []>("input_199_cast_fp16")];
            tensor<string, []> x5_21_pad_type_0 = const()[name = tensor<string, []>("x5_21_pad_type_0"), val = tensor<string, []>("custom")];
            tensor<int32, [4]> x5_21_pad_0 = const()[name = tensor<string, []>("x5_21_pad_0"), val = tensor<int32, [4]>([1, 1, 1, 1])];
            tensor<int32, [2]> x5_21_strides_0 = const()[name = tensor<string, []>("x5_21_strides_0"), val = tensor<int32, [2]>([1, 1])];
            tensor<int32, [2]> x5_21_dilations_0 = const()[name = tensor<string, []>("x5_21_dilations_0"), val = tensor<int32, [2]>([1, 1])];
            tensor<int32, []> x5_21_groups_0 = const()[name = tensor<string, []>("x5_21_groups_0"), val = tensor<int32, []>(1)];
            tensor<fp16, [64, 192, 3, 3]> var_673_weight_0_to_fp16 = const()[name = tensor<string, []>("op_673_weight_0_to_fp16"), val = tensor<fp16, [64, 192, 3, 3]>(BLOBFILE(path = tensor<string, []>("@model_path/weights/weight.bin"), offset = tensor<uint64, []>(5075520)))];
            tensor<fp16, [64]> var_673_bias_0_to_fp16 = const()[name = tensor<string, []>("op_673_bias_0_to_fp16"), val = tensor<fp16, [64]>(BLOBFILE(path = tensor<string, []>("@model_path/weights/weight.bin"), offset = tensor<uint64, []>(5296768)))];
            tensor<fp16, [1, 64, 256, 256]> var_673_cast_fp16 = conv(bias = var_673_bias_0_to_fp16, dilations = x5_21_dilations_0, groups = x5_21_groups_0, pad = x5_21_pad_0, pad_type = x5_21_pad_type_0, strides = x5_21_strides_0, weight = var_673_weight_0_to_fp16, x = input_199_cast_fp16)[name = tensor<string, []>("op_673_cast_fp16")];
            tensor<fp16, [1, 64, 256, 256]> input_201_cast_fp16 = add(x = var_673_cast_fp16, y = input_183_cast_fp16)[name = tensor<string, []>("input_201_cast_fp16")];
            tensor<string, []> input_203_pad_type_0 = const()[name = tensor<string, []>("input_203_pad_type_0"), val = tensor<string, []>("custom")];
            tensor<int32, [4]> input_203_pad_0 = const()[name = tensor<string, []>("input_203_pad_0"), val = tensor<int32, [4]>([1, 1, 1, 1])];
            tensor<int32, [2]> input_203_strides_0 = const()[name = tensor<string, []>("input_203_strides_0"), val = tensor<int32, [2]>([1, 1])];
            tensor<int32, [2]> input_203_dilations_0 = const()[name = tensor<string, []>("input_203_dilations_0"), val = tensor<int32, [2]>([1, 1])];
            tensor<int32, []> input_203_groups_0 = const()[name = tensor<string, []>("input_203_groups_0"), val = tensor<int32, []>(1)];
            tensor<fp16, [32, 64, 3, 3]> rrdb_body_3_rdb3_conv1_weight_to_fp16 = const()[name = tensor<string, []>("rrdb_body_3_rdb3_conv1_weight_to_fp16"), val = tensor<fp16, [32, 64, 3, 3]>(BLOBFILE(path = tensor<string, []>("@model_path/weights/weight.bin"), offset = tensor<uint64, []>(5296960)))];
            tensor<fp16, [32]> rrdb_body_3_rdb3_conv1_bias_to_fp16 = const()[name = tensor<string, []>("rrdb_body_3_rdb3_conv1_bias_to_fp16"), val = tensor<fp16, [32]>(BLOBFILE(path = tensor<string, []>("@model_path/weights/weight.bin"), offset = tensor<uint64, []>(5333888)))];
            tensor<fp16, [1, 32, 256, 256]> input_203_cast_fp16 = conv(bias = rrdb_body_3_rdb3_conv1_bias_to_fp16, dilations = input_203_dilations_0, groups = input_203_groups_0, pad = input_203_pad_0, pad_type = input_203_pad_type_0, strides = input_203_strides_0, weight = rrdb_body_3_rdb3_conv1_weight_to_fp16, x = input_201_cast_fp16)[name = tensor<string, []>("input_203_cast_fp16")];
            tensor<fp16, [1, 32, 256, 256]> x1_23_cast_fp16 = leaky_relu(alpha = var_7_to_fp16, x = input_203_cast_fp16)[name = tensor<string, []>("x1_23_cast_fp16")];
            tensor<bool, []> input_205_interleave_0 = const()[name = tensor<string, []>("input_205_interleave_0"), val = tensor<bool, []>(false)];
            tensor<fp16, [1, 96, 256, 256]> input_205_cast_fp16 = concat(axis = var_8, interleave = input_205_interleave_0, values = (input_201_cast_fp16, x1_23_cast_fp16))[name = tensor<string, []>("input_205_cast_fp16")];
            tensor<string, []> input_207_pad_type_0 = const()[name = tensor<string, []>("input_207_pad_type_0"), val = tensor<string, []>("custom")];
            tensor<int32, [4]> input_207_pad_0 = const()[name = tensor<string, []>("input_207_pad_0"), val = tensor<int32, [4]>([1, 1, 1, 1])];
            tensor<int32, [2]> input_207_strides_0 = const()[name = tensor<string, []>("input_207_strides_0"), val = tensor<int32, [2]>([1, 1])];
            tensor<int32, [2]> input_207_dilations_0 = const()[name = tensor<string, []>("input_207_dilations_0"), val = tensor<int32, [2]>([1, 1])];
            tensor<int32, []> input_207_groups_0 = const()[name = tensor<string, []>("input_207_groups_0"), val = tensor<int32, []>(1)];
            tensor<fp16, [32, 96, 3, 3]> rrdb_body_3_rdb3_conv2_weight_to_fp16 = const()[name = tensor<string, []>("rrdb_body_3_rdb3_conv2_weight_to_fp16"), val = tensor<fp16, [32, 96, 3, 3]>(BLOBFILE(path = tensor<string, []>("@model_path/weights/weight.bin"), offset = tensor<uint64, []>(5334016)))];
            tensor<fp16, [32]> rrdb_body_3_rdb3_conv2_bias_to_fp16 = const()[name = tensor<string, []>("rrdb_body_3_rdb3_conv2_bias_to_fp16"), val = tensor<fp16, [32]>(BLOBFILE(path = tensor<string, []>("@model_path/weights/weight.bin"), offset = tensor<uint64, []>(5389376)))];
            tensor<fp16, [1, 32, 256, 256]> input_207_cast_fp16 = conv(bias = rrdb_body_3_rdb3_conv2_bias_to_fp16, dilations = input_207_dilations_0, groups = input_207_groups_0, pad = input_207_pad_0, pad_type = input_207_pad_type_0, strides = input_207_strides_0, weight = rrdb_body_3_rdb3_conv2_weight_to_fp16, x = input_205_cast_fp16)[name = tensor<string, []>("input_207_cast_fp16")];
            tensor<fp16, [1, 32, 256, 256]> x2_23_cast_fp16 = leaky_relu(alpha = var_7_to_fp16, x = input_207_cast_fp16)[name = tensor<string, []>("x2_23_cast_fp16")];
            tensor<bool, []> input_209_interleave_0 = const()[name = tensor<string, []>("input_209_interleave_0"), val = tensor<bool, []>(false)];
            tensor<fp16, [1, 128, 256, 256]> input_209_cast_fp16 = concat(axis = var_8, interleave = input_209_interleave_0, values = (input_201_cast_fp16, x1_23_cast_fp16, x2_23_cast_fp16))[name = tensor<string, []>("input_209_cast_fp16")];
            tensor<string, []> input_211_pad_type_0 = const()[name = tensor<string, []>("input_211_pad_type_0"), val = tensor<string, []>("custom")];
            tensor<int32, [4]> input_211_pad_0 = const()[name = tensor<string, []>("input_211_pad_0"), val = tensor<int32, [4]>([1, 1, 1, 1])];
            tensor<int32, [2]> input_211_strides_0 = const()[name = tensor<string, []>("input_211_strides_0"), val = tensor<int32, [2]>([1, 1])];
            tensor<int32, [2]> input_211_dilations_0 = const()[name = tensor<string, []>("input_211_dilations_0"), val = tensor<int32, [2]>([1, 1])];
            tensor<int32, []> input_211_groups_0 = const()[name = tensor<string, []>("input_211_groups_0"), val = tensor<int32, []>(1)];
            tensor<fp16, [32, 128, 3, 3]> rrdb_body_3_rdb3_conv3_weight_to_fp16 = const()[name = tensor<string, []>("rrdb_body_3_rdb3_conv3_weight_to_fp16"), val = tensor<fp16, [32, 128, 3, 3]>(BLOBFILE(path = tensor<string, []>("@model_path/weights/weight.bin"), offset = tensor<uint64, []>(5389504)))];
            tensor<fp16, [32]> rrdb_body_3_rdb3_conv3_bias_to_fp16 = const()[name = tensor<string, []>("rrdb_body_3_rdb3_conv3_bias_to_fp16"), val = tensor<fp16, [32]>(BLOBFILE(path = tensor<string, []>("@model_path/weights/weight.bin"), offset = tensor<uint64, []>(5463296)))];
            tensor<fp16, [1, 32, 256, 256]> input_211_cast_fp16 = conv(bias = rrdb_body_3_rdb3_conv3_bias_to_fp16, dilations = input_211_dilations_0, groups = input_211_groups_0, pad = input_211_pad_0, pad_type = input_211_pad_type_0, strides = input_211_strides_0, weight = rrdb_body_3_rdb3_conv3_weight_to_fp16, x = input_209_cast_fp16)[name = tensor<string, []>("input_211_cast_fp16")];
            tensor<fp16, [1, 32, 256, 256]> x3_23_cast_fp16 = leaky_relu(alpha = var_7_to_fp16, x = input_211_cast_fp16)[name = tensor<string, []>("x3_23_cast_fp16")];
            tensor<bool, []> input_213_interleave_0 = const()[name = tensor<string, []>("input_213_interleave_0"), val = tensor<bool, []>(false)];
            tensor<fp16, [1, 160, 256, 256]> input_213_cast_fp16 = concat(axis = var_8, interleave = input_213_interleave_0, values = (input_201_cast_fp16, x1_23_cast_fp16, x2_23_cast_fp16, x3_23_cast_fp16))[name = tensor<string, []>("input_213_cast_fp16")];
            tensor<string, []> input_215_pad_type_0 = const()[name = tensor<string, []>("input_215_pad_type_0"), val = tensor<string, []>("custom")];
            tensor<int32, [4]> input_215_pad_0 = const()[name = tensor<string, []>("input_215_pad_0"), val = tensor<int32, [4]>([1, 1, 1, 1])];
            tensor<int32, [2]> input_215_strides_0 = const()[name = tensor<string, []>("input_215_strides_0"), val = tensor<int32, [2]>([1, 1])];
            tensor<int32, [2]> input_215_dilations_0 = const()[name = tensor<string, []>("input_215_dilations_0"), val = tensor<int32, [2]>([1, 1])];
            tensor<int32, []> input_215_groups_0 = const()[name = tensor<string, []>("input_215_groups_0"), val = tensor<int32, []>(1)];
            tensor<fp16, [32, 160, 3, 3]> rrdb_body_3_rdb3_conv4_weight_to_fp16 = const()[name = tensor<string, []>("rrdb_body_3_rdb3_conv4_weight_to_fp16"), val = tensor<fp16, [32, 160, 3, 3]>(BLOBFILE(path = tensor<string, []>("@model_path/weights/weight.bin"), offset = tensor<uint64, []>(5463424)))];
            tensor<fp16, [32]> rrdb_body_3_rdb3_conv4_bias_to_fp16 = const()[name = tensor<string, []>("rrdb_body_3_rdb3_conv4_bias_to_fp16"), val = tensor<fp16, [32]>(BLOBFILE(path = tensor<string, []>("@model_path/weights/weight.bin"), offset = tensor<uint64, []>(5555648)))];
            tensor<fp16, [1, 32, 256, 256]> input_215_cast_fp16 = conv(bias = rrdb_body_3_rdb3_conv4_bias_to_fp16, dilations = input_215_dilations_0, groups = input_215_groups_0, pad = input_215_pad_0, pad_type = input_215_pad_type_0, strides = input_215_strides_0, weight = rrdb_body_3_rdb3_conv4_weight_to_fp16, x = input_213_cast_fp16)[name = tensor<string, []>("input_215_cast_fp16")];
            tensor<fp16, [1, 32, 256, 256]> x4_23_cast_fp16 = leaky_relu(alpha = var_7_to_fp16, x = input_215_cast_fp16)[name = tensor<string, []>("x4_23_cast_fp16")];
            tensor<bool, []> input_217_interleave_0 = const()[name = tensor<string, []>("input_217_interleave_0"), val = tensor<bool, []>(false)];
            tensor<fp16, [1, 192, 256, 256]> input_217_cast_fp16 = concat(axis = var_8, interleave = input_217_interleave_0, values = (input_201_cast_fp16, x1_23_cast_fp16, x2_23_cast_fp16, x3_23_cast_fp16, x4_23_cast_fp16))[name = tensor<string, []>("input_217_cast_fp16")];
            tensor<string, []> x5_23_pad_type_0 = const()[name = tensor<string, []>("x5_23_pad_type_0"), val = tensor<string, []>("custom")];
            tensor<int32, [4]> x5_23_pad_0 = const()[name = tensor<string, []>("x5_23_pad_0"), val = tensor<int32, [4]>([1, 1, 1, 1])];
            tensor<int32, [2]> x5_23_strides_0 = const()[name = tensor<string, []>("x5_23_strides_0"), val = tensor<int32, [2]>([1, 1])];
            tensor<int32, [2]> x5_23_dilations_0 = const()[name = tensor<string, []>("x5_23_dilations_0"), val = tensor<int32, [2]>([1, 1])];
            tensor<int32, []> x5_23_groups_0 = const()[name = tensor<string, []>("x5_23_groups_0"), val = tensor<int32, []>(1)];
            tensor<fp16, [64, 192, 3, 3]> var_728_weight_0_to_fp16 = const()[name = tensor<string, []>("op_728_weight_0_to_fp16"), val = tensor<fp16, [64, 192, 3, 3]>(BLOBFILE(path = tensor<string, []>("@model_path/weights/weight.bin"), offset = tensor<uint64, []>(5555776)))];
            tensor<fp16, [64]> var_728_bias_0_to_fp16 = const()[name = tensor<string, []>("op_728_bias_0_to_fp16"), val = tensor<fp16, [64]>(BLOBFILE(path = tensor<string, []>("@model_path/weights/weight.bin"), offset = tensor<uint64, []>(5777024)))];
            tensor<fp16, [1, 64, 256, 256]> var_728_cast_fp16 = conv(bias = var_728_bias_0_to_fp16, dilations = x5_23_dilations_0, groups = x5_23_groups_0, pad = x5_23_pad_0, pad_type = x5_23_pad_type_0, strides = x5_23_strides_0, weight = var_728_weight_0_to_fp16, x = input_217_cast_fp16)[name = tensor<string, []>("op_728_cast_fp16")];
            tensor<fp16, [1, 64, 256, 256]> out_7_cast_fp16 = add(x = var_728_cast_fp16, y = input_201_cast_fp16)[name = tensor<string, []>("out_7_cast_fp16")];
            tensor<fp16, []> var_730_to_fp16 = const()[name = tensor<string, []>("op_730_to_fp16"), val = tensor<fp16, []>(0x1.998p-3)];
            tensor<fp16, [1, 64, 256, 256]> var_731_cast_fp16 = mul(x = out_7_cast_fp16, y = var_730_to_fp16)[name = tensor<string, []>("op_731_cast_fp16")];
            tensor<fp16, [1, 64, 256, 256]> input_219_cast_fp16 = add(x = var_731_cast_fp16, y = input_165_cast_fp16)[name = tensor<string, []>("input_219_cast_fp16")];
            tensor<string, []> input_221_pad_type_0 = const()[name = tensor<string, []>("input_221_pad_type_0"), val = tensor<string, []>("custom")];
            tensor<int32, [4]> input_221_pad_0 = const()[name = tensor<string, []>("input_221_pad_0"), val = tensor<int32, [4]>([1, 1, 1, 1])];
            tensor<int32, [2]> input_221_strides_0 = const()[name = tensor<string, []>("input_221_strides_0"), val = tensor<int32, [2]>([1, 1])];
            tensor<int32, [2]> input_221_dilations_0 = const()[name = tensor<string, []>("input_221_dilations_0"), val = tensor<int32, [2]>([1, 1])];
            tensor<int32, []> input_221_groups_0 = const()[name = tensor<string, []>("input_221_groups_0"), val = tensor<int32, []>(1)];
            tensor<fp16, [32, 64, 3, 3]> rrdb_body_4_rdb1_conv1_weight_to_fp16 = const()[name = tensor<string, []>("rrdb_body_4_rdb1_conv1_weight_to_fp16"), val = tensor<fp16, [32, 64, 3, 3]>(BLOBFILE(path = tensor<string, []>("@model_path/weights/weight.bin"), offset = tensor<uint64, []>(5777216)))];
            tensor<fp16, [32]> rrdb_body_4_rdb1_conv1_bias_to_fp16 = const()[name = tensor<string, []>("rrdb_body_4_rdb1_conv1_bias_to_fp16"), val = tensor<fp16, [32]>(BLOBFILE(path = tensor<string, []>("@model_path/weights/weight.bin"), offset = tensor<uint64, []>(5814144)))];
            tensor<fp16, [1, 32, 256, 256]> input_221_cast_fp16 = conv(bias = rrdb_body_4_rdb1_conv1_bias_to_fp16, dilations = input_221_dilations_0, groups = input_221_groups_0, pad = input_221_pad_0, pad_type = input_221_pad_type_0, strides = input_221_strides_0, weight = rrdb_body_4_rdb1_conv1_weight_to_fp16, x = input_219_cast_fp16)[name = tensor<string, []>("input_221_cast_fp16")];
            tensor<fp16, [1, 32, 256, 256]> x1_25_cast_fp16 = leaky_relu(alpha = var_7_to_fp16, x = input_221_cast_fp16)[name = tensor<string, []>("x1_25_cast_fp16")];
            tensor<bool, []> input_223_interleave_0 = const()[name = tensor<string, []>("input_223_interleave_0"), val = tensor<bool, []>(false)];
            tensor<fp16, [1, 96, 256, 256]> input_223_cast_fp16 = concat(axis = var_8, interleave = input_223_interleave_0, values = (input_219_cast_fp16, x1_25_cast_fp16))[name = tensor<string, []>("input_223_cast_fp16")];
            tensor<string, []> input_225_pad_type_0 = const()[name = tensor<string, []>("input_225_pad_type_0"), val = tensor<string, []>("custom")];
            tensor<int32, [4]> input_225_pad_0 = const()[name = tensor<string, []>("input_225_pad_0"), val = tensor<int32, [4]>([1, 1, 1, 1])];
            tensor<int32, [2]> input_225_strides_0 = const()[name = tensor<string, []>("input_225_strides_0"), val = tensor<int32, [2]>([1, 1])];
            tensor<int32, [2]> input_225_dilations_0 = const()[name = tensor<string, []>("input_225_dilations_0"), val = tensor<int32, [2]>([1, 1])];
            tensor<int32, []> input_225_groups_0 = const()[name = tensor<string, []>("input_225_groups_0"), val = tensor<int32, []>(1)];
            tensor<fp16, [32, 96, 3, 3]> rrdb_body_4_rdb1_conv2_weight_to_fp16 = const()[name = tensor<string, []>("rrdb_body_4_rdb1_conv2_weight_to_fp16"), val = tensor<fp16, [32, 96, 3, 3]>(BLOBFILE(path = tensor<string, []>("@model_path/weights/weight.bin"), offset = tensor<uint64, []>(5814272)))];
            tensor<fp16, [32]> rrdb_body_4_rdb1_conv2_bias_to_fp16 = const()[name = tensor<string, []>("rrdb_body_4_rdb1_conv2_bias_to_fp16"), val = tensor<fp16, [32]>(BLOBFILE(path = tensor<string, []>("@model_path/weights/weight.bin"), offset = tensor<uint64, []>(5869632)))];
            tensor<fp16, [1, 32, 256, 256]> input_225_cast_fp16 = conv(bias = rrdb_body_4_rdb1_conv2_bias_to_fp16, dilations = input_225_dilations_0, groups = input_225_groups_0, pad = input_225_pad_0, pad_type = input_225_pad_type_0, strides = input_225_strides_0, weight = rrdb_body_4_rdb1_conv2_weight_to_fp16, x = input_223_cast_fp16)[name = tensor<string, []>("input_225_cast_fp16")];
            tensor<fp16, [1, 32, 256, 256]> x2_25_cast_fp16 = leaky_relu(alpha = var_7_to_fp16, x = input_225_cast_fp16)[name = tensor<string, []>("x2_25_cast_fp16")];
            tensor<bool, []> input_227_interleave_0 = const()[name = tensor<string, []>("input_227_interleave_0"), val = tensor<bool, []>(false)];
            tensor<fp16, [1, 128, 256, 256]> input_227_cast_fp16 = concat(axis = var_8, interleave = input_227_interleave_0, values = (input_219_cast_fp16, x1_25_cast_fp16, x2_25_cast_fp16))[name = tensor<string, []>("input_227_cast_fp16")];
            tensor<string, []> input_229_pad_type_0 = const()[name = tensor<string, []>("input_229_pad_type_0"), val = tensor<string, []>("custom")];
            tensor<int32, [4]> input_229_pad_0 = const()[name = tensor<string, []>("input_229_pad_0"), val = tensor<int32, [4]>([1, 1, 1, 1])];
            tensor<int32, [2]> input_229_strides_0 = const()[name = tensor<string, []>("input_229_strides_0"), val = tensor<int32, [2]>([1, 1])];
            tensor<int32, [2]> input_229_dilations_0 = const()[name = tensor<string, []>("input_229_dilations_0"), val = tensor<int32, [2]>([1, 1])];
            tensor<int32, []> input_229_groups_0 = const()[name = tensor<string, []>("input_229_groups_0"), val = tensor<int32, []>(1)];
            tensor<fp16, [32, 128, 3, 3]> rrdb_body_4_rdb1_conv3_weight_to_fp16 = const()[name = tensor<string, []>("rrdb_body_4_rdb1_conv3_weight_to_fp16"), val = tensor<fp16, [32, 128, 3, 3]>(BLOBFILE(path = tensor<string, []>("@model_path/weights/weight.bin"), offset = tensor<uint64, []>(5869760)))];
            tensor<fp16, [32]> rrdb_body_4_rdb1_conv3_bias_to_fp16 = const()[name = tensor<string, []>("rrdb_body_4_rdb1_conv3_bias_to_fp16"), val = tensor<fp16, [32]>(BLOBFILE(path = tensor<string, []>("@model_path/weights/weight.bin"), offset = tensor<uint64, []>(5943552)))];
            tensor<fp16, [1, 32, 256, 256]> input_229_cast_fp16 = conv(bias = rrdb_body_4_rdb1_conv3_bias_to_fp16, dilations = input_229_dilations_0, groups = input_229_groups_0, pad = input_229_pad_0, pad_type = input_229_pad_type_0, strides = input_229_strides_0, weight = rrdb_body_4_rdb1_conv3_weight_to_fp16, x = input_227_cast_fp16)[name = tensor<string, []>("input_229_cast_fp16")];
            tensor<fp16, [1, 32, 256, 256]> x3_25_cast_fp16 = leaky_relu(alpha = var_7_to_fp16, x = input_229_cast_fp16)[name = tensor<string, []>("x3_25_cast_fp16")];
            tensor<bool, []> input_231_interleave_0 = const()[name = tensor<string, []>("input_231_interleave_0"), val = tensor<bool, []>(false)];
            tensor<fp16, [1, 160, 256, 256]> input_231_cast_fp16 = concat(axis = var_8, interleave = input_231_interleave_0, values = (input_219_cast_fp16, x1_25_cast_fp16, x2_25_cast_fp16, x3_25_cast_fp16))[name = tensor<string, []>("input_231_cast_fp16")];
            tensor<string, []> input_233_pad_type_0 = const()[name = tensor<string, []>("input_233_pad_type_0"), val = tensor<string, []>("custom")];
            tensor<int32, [4]> input_233_pad_0 = const()[name = tensor<string, []>("input_233_pad_0"), val = tensor<int32, [4]>([1, 1, 1, 1])];
            tensor<int32, [2]> input_233_strides_0 = const()[name = tensor<string, []>("input_233_strides_0"), val = tensor<int32, [2]>([1, 1])];
            tensor<int32, [2]> input_233_dilations_0 = const()[name = tensor<string, []>("input_233_dilations_0"), val = tensor<int32, [2]>([1, 1])];
            tensor<int32, []> input_233_groups_0 = const()[name = tensor<string, []>("input_233_groups_0"), val = tensor<int32, []>(1)];
            tensor<fp16, [32, 160, 3, 3]> rrdb_body_4_rdb1_conv4_weight_to_fp16 = const()[name = tensor<string, []>("rrdb_body_4_rdb1_conv4_weight_to_fp16"), val = tensor<fp16, [32, 160, 3, 3]>(BLOBFILE(path = tensor<string, []>("@model_path/weights/weight.bin"), offset = tensor<uint64, []>(5943680)))];
            tensor<fp16, [32]> rrdb_body_4_rdb1_conv4_bias_to_fp16 = const()[name = tensor<string, []>("rrdb_body_4_rdb1_conv4_bias_to_fp16"), val = tensor<fp16, [32]>(BLOBFILE(path = tensor<string, []>("@model_path/weights/weight.bin"), offset = tensor<uint64, []>(6035904)))];
            tensor<fp16, [1, 32, 256, 256]> input_233_cast_fp16 = conv(bias = rrdb_body_4_rdb1_conv4_bias_to_fp16, dilations = input_233_dilations_0, groups = input_233_groups_0, pad = input_233_pad_0, pad_type = input_233_pad_type_0, strides = input_233_strides_0, weight = rrdb_body_4_rdb1_conv4_weight_to_fp16, x = input_231_cast_fp16)[name = tensor<string, []>("input_233_cast_fp16")];
            tensor<fp16, [1, 32, 256, 256]> x4_25_cast_fp16 = leaky_relu(alpha = var_7_to_fp16, x = input_233_cast_fp16)[name = tensor<string, []>("x4_25_cast_fp16")];
            tensor<bool, []> input_235_interleave_0 = const()[name = tensor<string, []>("input_235_interleave_0"), val = tensor<bool, []>(false)];
            tensor<fp16, [1, 192, 256, 256]> input_235_cast_fp16 = concat(axis = var_8, interleave = input_235_interleave_0, values = (input_219_cast_fp16, x1_25_cast_fp16, x2_25_cast_fp16, x3_25_cast_fp16, x4_25_cast_fp16))[name = tensor<string, []>("input_235_cast_fp16")];
            tensor<string, []> x5_25_pad_type_0 = const()[name = tensor<string, []>("x5_25_pad_type_0"), val = tensor<string, []>("custom")];
            tensor<int32, [4]> x5_25_pad_0 = const()[name = tensor<string, []>("x5_25_pad_0"), val = tensor<int32, [4]>([1, 1, 1, 1])];
            tensor<int32, [2]> x5_25_strides_0 = const()[name = tensor<string, []>("x5_25_strides_0"), val = tensor<int32, [2]>([1, 1])];
            tensor<int32, [2]> x5_25_dilations_0 = const()[name = tensor<string, []>("x5_25_dilations_0"), val = tensor<int32, [2]>([1, 1])];
            tensor<int32, []> x5_25_groups_0 = const()[name = tensor<string, []>("x5_25_groups_0"), val = tensor<int32, []>(1)];
            tensor<fp16, [64, 192, 3, 3]> var_789_weight_0_to_fp16 = const()[name = tensor<string, []>("op_789_weight_0_to_fp16"), val = tensor<fp16, [64, 192, 3, 3]>(BLOBFILE(path = tensor<string, []>("@model_path/weights/weight.bin"), offset = tensor<uint64, []>(6036032)))];
            tensor<fp16, [64]> var_789_bias_0_to_fp16 = const()[name = tensor<string, []>("op_789_bias_0_to_fp16"), val = tensor<fp16, [64]>(BLOBFILE(path = tensor<string, []>("@model_path/weights/weight.bin"), offset = tensor<uint64, []>(6257280)))];
            tensor<fp16, [1, 64, 256, 256]> var_789_cast_fp16 = conv(bias = var_789_bias_0_to_fp16, dilations = x5_25_dilations_0, groups = x5_25_groups_0, pad = x5_25_pad_0, pad_type = x5_25_pad_type_0, strides = x5_25_strides_0, weight = var_789_weight_0_to_fp16, x = input_235_cast_fp16)[name = tensor<string, []>("op_789_cast_fp16")];
            tensor<fp16, [1, 64, 256, 256]> input_237_cast_fp16 = add(x = var_789_cast_fp16, y = input_219_cast_fp16)[name = tensor<string, []>("input_237_cast_fp16")];
            tensor<string, []> input_239_pad_type_0 = const()[name = tensor<string, []>("input_239_pad_type_0"), val = tensor<string, []>("custom")];
            tensor<int32, [4]> input_239_pad_0 = const()[name = tensor<string, []>("input_239_pad_0"), val = tensor<int32, [4]>([1, 1, 1, 1])];
            tensor<int32, [2]> input_239_strides_0 = const()[name = tensor<string, []>("input_239_strides_0"), val = tensor<int32, [2]>([1, 1])];
            tensor<int32, [2]> input_239_dilations_0 = const()[name = tensor<string, []>("input_239_dilations_0"), val = tensor<int32, [2]>([1, 1])];
            tensor<int32, []> input_239_groups_0 = const()[name = tensor<string, []>("input_239_groups_0"), val = tensor<int32, []>(1)];
            tensor<fp16, [32, 64, 3, 3]> rrdb_body_4_rdb2_conv1_weight_to_fp16 = const()[name = tensor<string, []>("rrdb_body_4_rdb2_conv1_weight_to_fp16"), val = tensor<fp16, [32, 64, 3, 3]>(BLOBFILE(path = tensor<string, []>("@model_path/weights/weight.bin"), offset = tensor<uint64, []>(6257472)))];
            tensor<fp16, [32]> rrdb_body_4_rdb2_conv1_bias_to_fp16 = const()[name = tensor<string, []>("rrdb_body_4_rdb2_conv1_bias_to_fp16"), val = tensor<fp16, [32]>(BLOBFILE(path = tensor<string, []>("@model_path/weights/weight.bin"), offset = tensor<uint64, []>(6294400)))];
            tensor<fp16, [1, 32, 256, 256]> input_239_cast_fp16 = conv(bias = rrdb_body_4_rdb2_conv1_bias_to_fp16, dilations = input_239_dilations_0, groups = input_239_groups_0, pad = input_239_pad_0, pad_type = input_239_pad_type_0, strides = input_239_strides_0, weight = rrdb_body_4_rdb2_conv1_weight_to_fp16, x = input_237_cast_fp16)[name = tensor<string, []>("input_239_cast_fp16")];
            tensor<fp16, [1, 32, 256, 256]> x1_27_cast_fp16 = leaky_relu(alpha = var_7_to_fp16, x = input_239_cast_fp16)[name = tensor<string, []>("x1_27_cast_fp16")];
            tensor<bool, []> input_241_interleave_0 = const()[name = tensor<string, []>("input_241_interleave_0"), val = tensor<bool, []>(false)];
            tensor<fp16, [1, 96, 256, 256]> input_241_cast_fp16 = concat(axis = var_8, interleave = input_241_interleave_0, values = (input_237_cast_fp16, x1_27_cast_fp16))[name = tensor<string, []>("input_241_cast_fp16")];
            tensor<string, []> input_243_pad_type_0 = const()[name = tensor<string, []>("input_243_pad_type_0"), val = tensor<string, []>("custom")];
            tensor<int32, [4]> input_243_pad_0 = const()[name = tensor<string, []>("input_243_pad_0"), val = tensor<int32, [4]>([1, 1, 1, 1])];
            tensor<int32, [2]> input_243_strides_0 = const()[name = tensor<string, []>("input_243_strides_0"), val = tensor<int32, [2]>([1, 1])];
            tensor<int32, [2]> input_243_dilations_0 = const()[name = tensor<string, []>("input_243_dilations_0"), val = tensor<int32, [2]>([1, 1])];
            tensor<int32, []> input_243_groups_0 = const()[name = tensor<string, []>("input_243_groups_0"), val = tensor<int32, []>(1)];
            tensor<fp16, [32, 96, 3, 3]> rrdb_body_4_rdb2_conv2_weight_to_fp16 = const()[name = tensor<string, []>("rrdb_body_4_rdb2_conv2_weight_to_fp16"), val = tensor<fp16, [32, 96, 3, 3]>(BLOBFILE(path = tensor<string, []>("@model_path/weights/weight.bin"), offset = tensor<uint64, []>(6294528)))];
            tensor<fp16, [32]> rrdb_body_4_rdb2_conv2_bias_to_fp16 = const()[name = tensor<string, []>("rrdb_body_4_rdb2_conv2_bias_to_fp16"), val = tensor<fp16, [32]>(BLOBFILE(path = tensor<string, []>("@model_path/weights/weight.bin"), offset = tensor<uint64, []>(6349888)))];
            tensor<fp16, [1, 32, 256, 256]> input_243_cast_fp16 = conv(bias = rrdb_body_4_rdb2_conv2_bias_to_fp16, dilations = input_243_dilations_0, groups = input_243_groups_0, pad = input_243_pad_0, pad_type = input_243_pad_type_0, strides = input_243_strides_0, weight = rrdb_body_4_rdb2_conv2_weight_to_fp16, x = input_241_cast_fp16)[name = tensor<string, []>("input_243_cast_fp16")];
            tensor<fp16, [1, 32, 256, 256]> x2_27_cast_fp16 = leaky_relu(alpha = var_7_to_fp16, x = input_243_cast_fp16)[name = tensor<string, []>("x2_27_cast_fp16")];
            tensor<bool, []> input_245_interleave_0 = const()[name = tensor<string, []>("input_245_interleave_0"), val = tensor<bool, []>(false)];
            tensor<fp16, [1, 128, 256, 256]> input_245_cast_fp16 = concat(axis = var_8, interleave = input_245_interleave_0, values = (input_237_cast_fp16, x1_27_cast_fp16, x2_27_cast_fp16))[name = tensor<string, []>("input_245_cast_fp16")];
            tensor<string, []> input_247_pad_type_0 = const()[name = tensor<string, []>("input_247_pad_type_0"), val = tensor<string, []>("custom")];
            tensor<int32, [4]> input_247_pad_0 = const()[name = tensor<string, []>("input_247_pad_0"), val = tensor<int32, [4]>([1, 1, 1, 1])];
            tensor<int32, [2]> input_247_strides_0 = const()[name = tensor<string, []>("input_247_strides_0"), val = tensor<int32, [2]>([1, 1])];
            tensor<int32, [2]> input_247_dilations_0 = const()[name = tensor<string, []>("input_247_dilations_0"), val = tensor<int32, [2]>([1, 1])];
            tensor<int32, []> input_247_groups_0 = const()[name = tensor<string, []>("input_247_groups_0"), val = tensor<int32, []>(1)];
            tensor<fp16, [32, 128, 3, 3]> rrdb_body_4_rdb2_conv3_weight_to_fp16 = const()[name = tensor<string, []>("rrdb_body_4_rdb2_conv3_weight_to_fp16"), val = tensor<fp16, [32, 128, 3, 3]>(BLOBFILE(path = tensor<string, []>("@model_path/weights/weight.bin"), offset = tensor<uint64, []>(6350016)))];
            tensor<fp16, [32]> rrdb_body_4_rdb2_conv3_bias_to_fp16 = const()[name = tensor<string, []>("rrdb_body_4_rdb2_conv3_bias_to_fp16"), val = tensor<fp16, [32]>(BLOBFILE(path = tensor<string, []>("@model_path/weights/weight.bin"), offset = tensor<uint64, []>(6423808)))];
            tensor<fp16, [1, 32, 256, 256]> input_247_cast_fp16 = conv(bias = rrdb_body_4_rdb2_conv3_bias_to_fp16, dilations = input_247_dilations_0, groups = input_247_groups_0, pad = input_247_pad_0, pad_type = input_247_pad_type_0, strides = input_247_strides_0, weight = rrdb_body_4_rdb2_conv3_weight_to_fp16, x = input_245_cast_fp16)[name = tensor<string, []>("input_247_cast_fp16")];
…
            tensor<int32, [4]> input_1183_pad_0 = const()[name = tensor<string, []>("input_1183_pad_0"), val = tensor<int32, [4]>([1, 1, 1, 1])];
            tensor<int32, [2]> input_1183_strides_0 = const()[name = tensor<string, []>("input_1183_strides_0"), val = tensor<int32, [2]>([1, 1])];
            tensor<int32, [2]> input_1183_dilations_0 = const()[name = tensor<string, []>("input_1183_dilations_0"), val = tensor<int32, [2]>([1, 1])];
            tensor<int32, []> input_1183_groups_0 = const()[name = tensor<string, []>("input_1183_groups_0"), val = tensor<int32, []>(1)];
            tensor<fp16, [32, 128, 3, 3]> rrdb_body_21_rdb3_conv3_weight_to_fp16 = const()[name = tensor<string, []>("rrdb_body_21_rdb3_conv3_weight_to_fp16"), val = tensor<fp16, [32, 128, 3, 3]>(BLOBFILE(path = tensor<string, []>("@model_path/weights/weight.bin"), offset = tensor<uint64, []>(31323328)))];
            tensor<fp16, [32]> rrdb_body_21_rdb3_conv3_bias_to_fp16 = const()[name = tensor<string, []>("rrdb_body_21_rdb3_conv3_bias_to_fp16"), val = tensor<fp16, [32]>(BLOBFILE(path = tensor<string, []>("@model_path/weights/weight.bin"), offset = tensor<uint64, []>(31397120)))];
            tensor<fp16, [1, 32, 256, 256]> input_1183_cast_fp16 = conv(bias = rrdb_body_21_rdb3_conv3_bias_to_fp16, dilations = input_1183_dilations_0, groups = input_1183_groups_0, pad = input_1183_pad_0, pad_type = input_1183_pad_type_0, strides = input_1183_strides_0, weight = rrdb_body_21_rdb3_conv3_weight_to_fp16, x = input_1181_cast_fp16)[name = tensor<string, []>("input_1183_cast_fp16")];
            tensor<fp16, [1, 32, 256, 256]> x3_131_cast_fp16 = leaky_relu(alpha = var_7_to_fp16, x = input_1183_cast_fp16)[name = tensor<string, []>("x3_131_cast_fp16")];
            tensor<bool, []> input_1185_interleave_0 = const()[name = tensor<string, []>("input_1185_interleave_0"), val = tensor<bool, []>(false)];
            tensor<fp16, [1, 160, 256, 256]> input_1185_cast_fp16 = concat(axis = var_8, interleave = input_1185_interleave_0, values = (input_1173_cast_fp16, x1_131_cast_fp16, x2_131_cast_fp16, x3_131_cast_fp16))[name = tensor<string, []>("input_1185_cast_fp16")];
            tensor<string, []> input_1187_pad_type_0 = const()[name = tensor<string, []>("input_1187_pad_type_0"), val = tensor<string, []>("custom")];
            tensor<int32, [4]> input_1187_pad_0 = const()[name = tensor<string, []>("input_1187_pad_0"), val = tensor<int32, [4]>([1, 1, 1, 1])];
            tensor<int32, [2]> input_1187_strides_0 = const()[name = tensor<string, []>("input_1187_strides_0"), val = tensor<int32, [2]>([1, 1])];
            tensor<int32, [2]> input_1187_dilations_0 = const()[name = tensor<string, []>("input_1187_dilations_0"), val = tensor<int32, [2]>([1, 1])];
            tensor<int32, []> input_1187_groups_0 = const()[name = tensor<string, []>("input_1187_groups_0"), val = tensor<int32, []>(1)];
            tensor<fp16, [32, 160, 3, 3]> rrdb_body_21_rdb3_conv4_weight_to_fp16 = const()[name = tensor<string, []>("rrdb_body_21_rdb3_conv4_weight_to_fp16"), val = tensor<fp16, [32, 160, 3, 3]>(BLOBFILE(path = tensor<string, []>("@model_path/weights/weight.bin"), offset = tensor<uint64, []>(31397248)))];
            tensor<fp16, [32]> rrdb_body_21_rdb3_conv4_bias_to_fp16 = const()[name = tensor<string, []>("rrdb_body_21_rdb3_conv4_bias_to_fp16"), val = tensor<fp16, [32]>(BLOBFILE(path = tensor<string, []>("@model_path/weights/weight.bin"), offset = tensor<uint64, []>(31489472)))];
            tensor<fp16, [1, 32, 256, 256]> input_1187_cast_fp16 = conv(bias = rrdb_body_21_rdb3_conv4_bias_to_fp16, dilations = input_1187_dilations_0, groups = input_1187_groups_0, pad = input_1187_pad_0, pad_type = input_1187_pad_type_0, strides = input_1187_strides_0, weight = rrdb_body_21_rdb3_conv4_weight_to_fp16, x = input_1185_cast_fp16)[name = tensor<string, []>("input_1187_cast_fp16")];
            tensor<fp16, [1, 32, 256, 256]> x4_131_cast_fp16 = leaky_relu(alpha = var_7_to_fp16, x = input_1187_cast_fp16)[name = tensor<string, []>("x4_131_cast_fp16")];
            tensor<bool, []> input_1189_interleave_0 = const()[name = tensor<string, []>("input_1189_interleave_0"), val = tensor<bool, []>(false)];
            tensor<fp16, [1, 192, 256, 256]> input_1189_cast_fp16 = concat(axis = var_8, interleave = input_1189_interleave_0, values = (input_1173_cast_fp16, x1_131_cast_fp16, x2_131_cast_fp16, x3_131_cast_fp16, x4_131_cast_fp16))[name = tensor<string, []>("input_1189_cast_fp16")];
            tensor<string, []> x5_131_pad_type_0 = const()[name = tensor<string, []>("x5_131_pad_type_0"), val = tensor<string, []>("custom")];
            tensor<int32, [4]> x5_131_pad_0 = const()[name = tensor<string, []>("x5_131_pad_0"), val = tensor<int32, [4]>([1, 1, 1, 1])];
            tensor<int32, [2]> x5_131_strides_0 = const()[name = tensor<string, []>("x5_131_strides_0"), val = tensor<int32, [2]>([1, 1])];
            tensor<int32, [2]> x5_131_dilations_0 = const()[name = tensor<string, []>("x5_131_dilations_0"), val = tensor<int32, [2]>([1, 1])];
            tensor<int32, []> x5_131_groups_0 = const()[name = tensor<string, []>("x5_131_groups_0"), val = tensor<int32, []>(1)];
            tensor<fp16, [64, 192, 3, 3]> var_3806_weight_0_to_fp16 = const()[name = tensor<string, []>("op_3806_weight_0_to_fp16"), val = tensor<fp16, [64, 192, 3, 3]>(BLOBFILE(path = tensor<string, []>("@model_path/weights/weight.bin"), offset = tensor<uint64, []>(31489600)))];
            tensor<fp16, [64]> var_3806_bias_0_to_fp16 = const()[name = tensor<string, []>("op_3806_bias_0_to_fp16"), val = tensor<fp16, [64]>(BLOBFILE(path = tensor<string, []>("@model_path/weights/weight.bin"), offset = tensor<uint64, []>(31710848)))];
            tensor<fp16, [1, 64, 256, 256]> var_3806_cast_fp16 = conv(bias = var_3806_bias_0_to_fp16, dilations = x5_131_dilations_0, groups = x5_131_groups_0, pad = x5_131_pad_0, pad_type = x5_131_pad_type_0, strides = x5_131_strides_0, weight = var_3806_weight_0_to_fp16, x = input_1189_cast_fp16)[name = tensor<string, []>("op_3806_cast_fp16")];
            tensor<fp16, [1, 64, 256, 256]> out_43_cast_fp16 = add(x = var_3806_cast_fp16, y = input_1173_cast_fp16)[name = tensor<string, []>("out_43_cast_fp16")];
            tensor<fp16, []> var_3808_to_fp16 = const()[name = tensor<string, []>("op_3808_to_fp16"), val = tensor<fp16, []>(0x1.998p-3)];
            tensor<fp16, [1, 64, 256, 256]> var_3809_cast_fp16 = mul(x = out_43_cast_fp16, y = var_3808_to_fp16)[name = tensor<string, []>("op_3809_cast_fp16")];
            tensor<fp16, [1, 64, 256, 256]> input_1191_cast_fp16 = add(x = var_3809_cast_fp16, y = input_1137_cast_fp16)[name = tensor<string, []>("input_1191_cast_fp16")];
            tensor<string, []> input_1193_pad_type_0 = const()[name = tensor<string, []>("input_1193_pad_type_0"), val = tensor<string, []>("custom")];
            tensor<int32, [4]> input_1193_pad_0 = const()[name = tensor<string, []>("input_1193_pad_0"), val = tensor<int32, [4]>([1, 1, 1, 1])];
            tensor<int32, [2]> input_1193_strides_0 = const()[name = tensor<string, []>("input_1193_strides_0"), val = tensor<int32, [2]>([1, 1])];
            tensor<int32, [2]> input_1193_dilations_0 = const()[name = tensor<string, []>("input_1193_dilations_0"), val = tensor<int32, [2]>([1, 1])];
            tensor<int32, []> input_1193_groups_0 = const()[name = tensor<string, []>("input_1193_groups_0"), val = tensor<int32, []>(1)];
            tensor<fp16, [32, 64, 3, 3]> rrdb_body_22_rdb1_conv1_weight_to_fp16 = const()[name = tensor<string, []>("rrdb_body_22_rdb1_conv1_weight_to_fp16"), val = tensor<fp16, [32, 64, 3, 3]>(BLOBFILE(path = tensor<string, []>("@model_path/weights/weight.bin"), offset = tensor<uint64, []>(31711040)))];
            tensor<fp16, [32]> rrdb_body_22_rdb1_conv1_bias_to_fp16 = const()[name = tensor<string, []>("rrdb_body_22_rdb1_conv1_bias_to_fp16"), val = tensor<fp16, [32]>(BLOBFILE(path = tensor<string, []>("@model_path/weights/weight.bin"), offset = tensor<uint64, []>(31747968)))];
            tensor<fp16, [1, 32, 256, 256]> input_1193_cast_fp16 = conv(bias = rrdb_body_22_rdb1_conv1_bias_to_fp16, dilations = input_1193_dilations_0, groups = input_1193_groups_0, pad = input_1193_pad_0, pad_type = input_1193_pad_type_0, strides = input_1193_strides_0, weight = rrdb_body_22_rdb1_conv1_weight_to_fp16, x = input_1191_cast_fp16)[name = tensor<string, []>("input_1193_cast_fp16")];
            tensor<fp16, [1, 32, 256, 256]> x1_133_cast_fp16 = leaky_relu(alpha = var_7_to_fp16, x = input_1193_cast_fp16)[name = tensor<string, []>("x1_133_cast_fp16")];
            tensor<bool, []> input_1195_interleave_0 = const()[name = tensor<string, []>("input_1195_interleave_0"), val = tensor<bool, []>(false)];
            tensor<fp16, [1, 96, 256, 256]> input_1195_cast_fp16 = concat(axis = var_8, interleave = input_1195_interleave_0, values = (input_1191_cast_fp16, x1_133_cast_fp16))[name = tensor<string, []>("input_1195_cast_fp16")];
            tensor<string, []> input_1197_pad_type_0 = const()[name = tensor<string, []>("input_1197_pad_type_0"), val = tensor<string, []>("custom")];
            tensor<int32, [4]> input_1197_pad_0 = const()[name = tensor<string, []>("input_1197_pad_0"), val = tensor<int32, [4]>([1, 1, 1, 1])];
            tensor<int32, [2]> input_1197_strides_0 = const()[name = tensor<string, []>("input_1197_strides_0"), val = tensor<int32, [2]>([1, 1])];
            tensor<int32, [2]> input_1197_dilations_0 = const()[name = tensor<string, []>("input_1197_dilations_0"), val = tensor<int32, [2]>([1, 1])];
            tensor<int32, []> input_1197_groups_0 = const()[name = tensor<string, []>("input_1197_groups_0"), val = tensor<int32, []>(1)];
            tensor<fp16, [32, 96, 3, 3]> rrdb_body_22_rdb1_conv2_weight_to_fp16 = const()[name = tensor<string, []>("rrdb_body_22_rdb1_conv2_weight_to_fp16"), val = tensor<fp16, [32, 96, 3, 3]>(BLOBFILE(path = tensor<string, []>("@model_path/weights/weight.bin"), offset = tensor<uint64, []>(31748096)))];
            tensor<fp16, [32]> rrdb_body_22_rdb1_conv2_bias_to_fp16 = const()[name = tensor<string, []>("rrdb_body_22_rdb1_conv2_bias_to_fp16"), val = tensor<fp16, [32]>(BLOBFILE(path = tensor<string, []>("@model_path/weights/weight.bin"), offset = tensor<uint64, []>(31803456)))];
            tensor<fp16, [1, 32, 256, 256]> input_1197_cast_fp16 = conv(bias = rrdb_body_22_rdb1_conv2_bias_to_fp16, dilations = input_1197_dilations_0, groups = input_1197_groups_0, pad = input_1197_pad_0, pad_type = input_1197_pad_type_0, strides = input_1197_strides_0, weight = rrdb_body_22_rdb1_conv2_weight_to_fp16, x = input_1195_cast_fp16)[name = tensor<string, []>("input_1197_cast_fp16")];
            tensor<fp16, [1, 32, 256, 256]> x2_133_cast_fp16 = leaky_relu(alpha = var_7_to_fp16, x = input_1197_cast_fp16)[name = tensor<string, []>("x2_133_cast_fp16")];
            tensor<bool, []> input_1199_interleave_0 = const()[name = tensor<string, []>("input_1199_interleave_0"), val = tensor<bool, []>(false)];
            tensor<fp16, [1, 128, 256, 256]> input_1199_cast_fp16 = concat(axis = var_8, interleave = input_1199_interleave_0, values = (input_1191_cast_fp16, x1_133_cast_fp16, x2_133_cast_fp16))[name = tensor<string, []>("input_1199_cast_fp16")];
            tensor<string, []> input_1201_pad_type_0 = const()[name = tensor<string, []>("input_1201_pad_type_0"), val = tensor<string, []>("custom")];
            tensor<int32, [4]> input_1201_pad_0 = const()[name = tensor<string, []>("input_1201_pad_0"), val = tensor<int32, [4]>([1, 1, 1, 1])];
            tensor<int32, [2]> input_1201_strides_0 = const()[name = tensor<string, []>("input_1201_strides_0"), val = tensor<int32, [2]>([1, 1])];
            tensor<int32, [2]> input_1201_dilations_0 = const()[name = tensor<string, []>("input_1201_dilations_0"), val = tensor<int32, [2]>([1, 1])];
            tensor<int32, []> input_1201_groups_0 = const()[name = tensor<string, []>("input_1201_groups_0"), val = tensor<int32, []>(1)];
            tensor<fp16, [32, 128, 3, 3]> rrdb_body_22_rdb1_conv3_weight_to_fp16 = const()[name = tensor<string, []>("rrdb_body_22_rdb1_conv3_weight_to_fp16"), val = tensor<fp16, [32, 128, 3, 3]>(BLOBFILE(path = tensor<string, []>("@model_path/weights/weight.bin"), offset = tensor<uint64, []>(31803584)))];
            tensor<fp16, [32]> rrdb_body_22_rdb1_conv3_bias_to_fp16 = const()[name = tensor<string, []>("rrdb_body_22_rdb1_conv3_bias_to_fp16"), val = tensor<fp16, [32]>(BLOBFILE(path = tensor<string, []>("@model_path/weights/weight.bin"), offset = tensor<uint64, []>(31877376)))];
            tensor<fp16, [1, 32, 256, 256]> input_1201_cast_fp16 = conv(bias = rrdb_body_22_rdb1_conv3_bias_to_fp16, dilations = input_1201_dilations_0, groups = input_1201_groups_0, pad = input_1201_pad_0, pad_type = input_1201_pad_type_0, strides = input_1201_strides_0, weight = rrdb_body_22_rdb1_conv3_weight_to_fp16, x = input_1199_cast_fp16)[name = tensor<string, []>("input_1201_cast_fp16")];
            tensor<fp16, [1, 32, 256, 256]> x3_133_cast_fp16 = leaky_relu(alpha = var_7_to_fp16, x = input_1201_cast_fp16)[name = tensor<string, []>("x3_133_cast_fp16")];
            tensor<bool, []> input_1203_interleave_0 = const()[name = tensor<string, []>("input_1203_interleave_0"), val = tensor<bool, []>(false)];
            tensor<fp16, [1, 160, 256, 256]> input_1203_cast_fp16 = concat(axis = var_8, interleave = input_1203_interleave_0, values = (input_1191_cast_fp16, x1_133_cast_fp16, x2_133_cast_fp16, x3_133_cast_fp16))[name = tensor<string, []>("input_1203_cast_fp16")];
            tensor<string, []> input_1205_pad_type_0 = const()[name = tensor<string, []>("input_1205_pad_type_0"), val = tensor<string, []>("custom")];
            tensor<int32, [4]> input_1205_pad_0 = const()[name = tensor<string, []>("input_1205_pad_0"), val = tensor<int32, [4]>([1, 1, 1, 1])];
            tensor<int32, [2]> input_1205_strides_0 = const()[name = tensor<string, []>("input_1205_strides_0"), val = tensor<int32, [2]>([1, 1])];
            tensor<int32, [2]> input_1205_dilations_0 = const()[name = tensor<string, []>("input_1205_dilations_0"), val = tensor<int32, [2]>([1, 1])];
            tensor<int32, []> input_1205_groups_0 = const()[name = tensor<string, []>("input_1205_groups_0"), val = tensor<int32, []>(1)];
            tensor<fp16, [32, 160, 3, 3]> rrdb_body_22_rdb1_conv4_weight_to_fp16 = const()[name = tensor<string, []>("rrdb_body_22_rdb1_conv4_weight_to_fp16"), val = tensor<fp16, [32, 160, 3, 3]>(BLOBFILE(path = tensor<string, []>("@model_path/weights/weight.bin"), offset = tensor<uint64, []>(31877504)))];
            tensor<fp16, [32]> rrdb_body_22_rdb1_conv4_bias_to_fp16 = const()[name = tensor<string, []>("rrdb_body_22_rdb1_conv4_bias_to_fp16"), val = tensor<fp16, [32]>(BLOBFILE(path = tensor<string, []>("@model_path/weights/weight.bin"), offset = tensor<uint64, []>(31969728)))];
            tensor<fp16, [1, 32, 256, 256]> input_1205_cast_fp16 = conv(bias = rrdb_body_22_rdb1_conv4_bias_to_fp16, dilations = input_1205_dilations_0, groups = input_1205_groups_0, pad = input_1205_pad_0, pad_type = input_1205_pad_type_0, strides = input_1205_strides_0, weight = rrdb_body_22_rdb1_conv4_weight_to_fp16, x = input_1203_cast_fp16)[name = tensor<string, []>("input_1205_cast_fp16")];
            tensor<fp16, [1, 32, 256, 256]> x4_133_cast_fp16 = leaky_relu(alpha = var_7_to_fp16, x = input_1205_cast_fp16)[name = tensor<string, []>("x4_133_cast_fp16")];
            tensor<bool, []> input_1207_interleave_0 = const()[name = tensor<string, []>("input_1207_interleave_0"), val = tensor<bool, []>(false)];
            tensor<fp16, [1, 192, 256, 256]> input_1207_cast_fp16 = concat(axis = var_8, interleave = input_1207_interleave_0, values = (input_1191_cast_fp16, x1_133_cast_fp16, x2_133_cast_fp16, x3_133_cast_fp16, x4_133_cast_fp16))[name = tensor<string, []>("input_1207_cast_fp16")];
            tensor<string, []> x5_133_pad_type_0 = const()[name = tensor<string, []>("x5_133_pad_type_0"), val = tensor<string, []>("custom")];
            tensor<int32, [4]> x5_133_pad_0 = const()[name = tensor<string, []>("x5_133_pad_0"), val = tensor<int32, [4]>([1, 1, 1, 1])];
            tensor<int32, [2]> x5_133_strides_0 = const()[name = tensor<string, []>("x5_133_strides_0"), val = tensor<int32, [2]>([1, 1])];
            tensor<int32, [2]> x5_133_dilations_0 = const()[name = tensor<string, []>("x5_133_dilations_0"), val = tensor<int32, [2]>([1, 1])];
            tensor<int32, []> x5_133_groups_0 = const()[name = tensor<string, []>("x5_133_groups_0"), val = tensor<int32, []>(1)];
            tensor<fp16, [64, 192, 3, 3]> var_3867_weight_0_to_fp16 = const()[name = tensor<string, []>("op_3867_weight_0_to_fp16"), val = tensor<fp16, [64, 192, 3, 3]>(BLOBFILE(path = tensor<string, []>("@model_path/weights/weight.bin"), offset = tensor<uint64, []>(31969856)))];
            tensor<fp16, [64]> var_3867_bias_0_to_fp16 = const()[name = tensor<string, []>("op_3867_bias_0_to_fp16"), val = tensor<fp16, [64]>(BLOBFILE(path = tensor<string, []>("@model_path/weights/weight.bin"), offset = tensor<uint64, []>(32191104)))];
            tensor<fp16, [1, 64, 256, 256]> var_3867_cast_fp16 = conv(bias = var_3867_bias_0_to_fp16, dilations = x5_133_dilations_0, groups = x5_133_groups_0, pad = x5_133_pad_0, pad_type = x5_133_pad_type_0, strides = x5_133_strides_0, weight = var_3867_weight_0_to_fp16, x = input_1207_cast_fp16)[name = tensor<string, []>("op_3867_cast_fp16")];
            tensor<fp16, [1, 64, 256, 256]> input_1209_cast_fp16 = add(x = var_3867_cast_fp16, y = input_1191_cast_fp16)[name = tensor<string, []>("input_1209_cast_fp16")];
            tensor<string, []> input_1211_pad_type_0 = const()[name = tensor<string, []>("input_1211_pad_type_0"), val = tensor<string, []>("custom")];
            tensor<int32, [4]> input_1211_pad_0 = const()[name = tensor<string, []>("input_1211_pad_0"), val = tensor<int32, [4]>([1, 1, 1, 1])];
            tensor<int32, [2]> input_1211_strides_0 = const()[name = tensor<string, []>("input_1211_strides_0"), val = tensor<int32, [2]>([1, 1])];
            tensor<int32, [2]> input_1211_dilations_0 = const()[name = tensor<string, []>("input_1211_dilations_0"), val = tensor<int32, [2]>([1, 1])];
            tensor<int32, []> input_1211_groups_0 = const()[name = tensor<string, []>("input_1211_groups_0"), val = tensor<int32, []>(1)];
            tensor<fp16, [32, 64, 3, 3]> rrdb_body_22_rdb2_conv1_weight_to_fp16 = const()[name = tensor<string, []>("rrdb_body_22_rdb2_conv1_weight_to_fp16"), val = tensor<fp16, [32, 64, 3, 3]>(BLOBFILE(path = tensor<string, []>("@model_path/weights/weight.bin"), offset = tensor<uint64, []>(32191296)))];
            tensor<fp16, [32]> rrdb_body_22_rdb2_conv1_bias_to_fp16 = const()[name = tensor<string, []>("rrdb_body_22_rdb2_conv1_bias_to_fp16"), val = tensor<fp16, [32]>(BLOBFILE(path = tensor<string, []>("@model_path/weights/weight.bin"), offset = tensor<uint64, []>(32228224)))];
            tensor<fp16, [1, 32, 256, 256]> input_1211_cast_fp16 = conv(bias = rrdb_body_22_rdb2_conv1_bias_to_fp16, dilations = input_1211_dilations_0, groups = input_1211_groups_0, pad = input_1211_pad_0, pad_type = input_1211_pad_type_0, strides = input_1211_strides_0, weight = rrdb_body_22_rdb2_conv1_weight_to_fp16, x = input_1209_cast_fp16)[name = tensor<string, []>("input_1211_cast_fp16")];
            tensor<fp16, [1, 32, 256, 256]> x1_135_cast_fp16 = leaky_relu(alpha = var_7_to_fp16, x = input_1211_cast_fp16)[name = tensor<string, []>("x1_135_cast_fp16")];
            tensor<bool, []> input_1213_interleave_0 = const()[name = tensor<string, []>("input_1213_interleave_0"), val = tensor<bool, []>(false)];
            tensor<fp16, [1, 96, 256, 256]> input_1213_cast_fp16 = concat(axis = var_8, interleave = input_1213_interleave_0, values = (input_1209_cast_fp16, x1_135_cast_fp16))[name = tensor<string, []>("input_1213_cast_fp16")];
            tensor<string, []> input_1215_pad_type_0 = const()[name = tensor<string, []>("input_1215_pad_type_0"), val = tensor<string, []>("custom")];
            tensor<int32, [4]> input_1215_pad_0 = const()[name = tensor<string, []>("input_1215_pad_0"), val = tensor<int32, [4]>([1, 1, 1, 1])];
            tensor<int32, [2]> input_1215_strides_0 = const()[name = tensor<string, []>("input_1215_strides_0"), val = tensor<int32, [2]>([1, 1])];
            tensor<int32, [2]> input_1215_dilations_0 = const()[name = tensor<string, []>("input_1215_dilations_0"), val = tensor<int32, [2]>([1, 1])];
            tensor<int32, []> input_1215_groups_0 = const()[name = tensor<string, []>("input_1215_groups_0"), val = tensor<int32, []>(1)];
            tensor<fp16, [32, 96, 3, 3]> rrdb_body_22_rdb2_conv2_weight_to_fp16 = const()[name = tensor<string, []>("rrdb_body_22_rdb2_conv2_weight_to_fp16"), val = tensor<fp16, [32, 96, 3, 3]>(BLOBFILE(path = tensor<string, []>("@model_path/weights/weight.bin"), offset = tensor<uint64, []>(32228352)))];
            tensor<fp16, [32]> rrdb_body_22_rdb2_conv2_bias_to_fp16 = const()[name = tensor<string, []>("rrdb_body_22_rdb2_conv2_bias_to_fp16"), val = tensor<fp16, [32]>(BLOBFILE(path = tensor<string, []>("@model_path/weights/weight.bin"), offset = tensor<uint64, []>(32283712)))];
            tensor<fp16, [1, 32, 256, 256]> input_1215_cast_fp16 = conv(bias = rrdb_body_22_rdb2_conv2_bias_to_fp16, dilations = input_1215_dilations_0, groups = input_1215_groups_0, pad = input_1215_pad_0, pad_type = input_1215_pad_type_0, strides = input_1215_strides_0, weight = rrdb_body_22_rdb2_conv2_weight_to_fp16, x = input_1213_cast_fp16)[name = tensor<string, []>("input_1215_cast_fp16")];
            tensor<fp16, [1, 32, 256, 256]> x2_135_cast_fp16 = leaky_relu(alpha = var_7_to_fp16, x = input_1215_cast_fp16)[name = tensor<string, []>("x2_135_cast_fp16")];
            tensor<bool, []> input_1217_interleave_0 = const()[name = tensor<string, []>("input_1217_interleave_0"), val = tensor<bool, []>(false)];
            tensor<fp16, [1, 128, 256, 256]> input_1217_cast_fp16 = concat(axis = var_8, interleave = input_1217_interleave_0, values = (input_1209_cast_fp16, x1_135_cast_fp16, x2_135_cast_fp16))[name = tensor<string, []>("input_1217_cast_fp16")];
            tensor<string, []> input_1219_pad_type_0 = const()[name = tensor<string, []>("input_1219_pad_type_0"), val = tensor<string, []>("custom")];
            tensor<int32, [4]> input_1219_pad_0 = const()[name = tensor<string, []>("input_1219_pad_0"), val = tensor<int32, [4]>([1, 1, 1, 1])];
            tensor<int32, [2]> input_1219_strides_0 = const()[name = tensor<string, []>("input_1219_strides_0"), val = tensor<int32, [2]>([1, 1])];
            tensor<int32, [2]> input_1219_dilations_0 = const()[name = tensor<string, []>("input_1219_dilations_0"), val = tensor<int32, [2]>([1, 1])];
            tensor<int32, []> input_1219_groups_0 = const()[name = tensor<string, []>("input_1219_groups_0"), val = tensor<int32, []>(1)];
            tensor<fp16, [32, 128, 3, 3]> rrdb_body_22_rdb2_conv3_weight_to_fp16 = const()[name = tensor<string, []>("rrdb_body_22_rdb2_conv3_weight_to_fp16"), val = tensor<fp16, [32, 128, 3, 3]>(BLOBFILE(path = tensor<string, []>("@model_path/weights/weight.bin"), offset = tensor<uint64, []>(32283840)))];
            tensor<fp16, [32]> rrdb_body_22_rdb2_conv3_bias_to_fp16 = const()[name = tensor<string, []>("rrdb_body_22_rdb2_conv3_bias_to_fp16"), val = tensor<fp16, [32]>(BLOBFILE(path = tensor<string, []>("@model_path/weights/weight.bin"), offset = tensor<uint64, []>(32357632)))];
            tensor<fp16, [1, 32, 256, 256]> input_1219_cast_fp16 = conv(bias = rrdb_body_22_rdb2_conv3_bias_to_fp16, dilations = input_1219_dilations_0, groups = input_1219_groups_0, pad = input_1219_pad_0, pad_type = input_1219_pad_type_0, strides = input_1219_strides_0, weight = rrdb_body_22_rdb2_conv3_weight_to_fp16, x = input_1217_cast_fp16)[name = tensor<string, []>("input_1219_cast_fp16")];
            tensor<fp16, [1, 32, 256, 256]> x3_135_cast_fp16 = leaky_relu(alpha = var_7_to_fp16, x = input_1219_cast_fp16)[name = tensor<string, []>("x3_135_cast_fp16")];
            tensor<bool, []> input_1221_interleave_0 = const()[name = tensor<string, []>("input_1221_interleave_0"), val = tensor<bool, []>(false)];
            tensor<fp16, [1, 160, 256, 256]> input_1221_cast_fp16 = concat(axis = var_8, interleave = input_1221_interleave_0, values = (input_1209_cast_fp16, x1_135_cast_fp16, x2_135_cast_fp16, x3_135_cast_fp16))[name = tensor<string, []>("input_1221_cast_fp16")];
            tensor<string, []> input_1223_pad_type_0 = const()[name = tensor<string, []>("input_1223_pad_type_0"), val = tensor<string, []>("custom")];
            tensor<int32, [4]> input_1223_pad_0 = const()[name = tensor<string, []>("input_1223_pad_0"), val = tensor<int32, [4]>([1, 1, 1, 1])];
            tensor<int32, [2]> input_1223_strides_0 = const()[name = tensor<string, []>("input_1223_strides_0"), val = tensor<int32, [2]>([1, 1])];
            tensor<int32, [2]> input_1223_dilations_0 = const()[name = tensor<string, []>("input_1223_dilations_0"), val = tensor<int32, [2]>([1, 1])];
            tensor<int32, []> input_1223_groups_0 = const()[name = tensor<string, []>("input_1223_groups_0"), val = tensor<int32, []>(1)];
            tensor<fp16, [32, 160, 3, 3]> rrdb_body_22_rdb2_conv4_weight_to_fp16 = const()[name = tensor<string, []>("rrdb_body_22_rdb2_conv4_weight_to_fp16"), val = tensor<fp16, [32, 160, 3, 3]>(BLOBFILE(path = tensor<string, []>("@model_path/weights/weight.bin"), offset = tensor<uint64, []>(32357760)))];
            tensor<fp16, [32]> rrdb_body_22_rdb2_conv4_bias_to_fp16 = const()[name = tensor<string, []>("rrdb_body_22_rdb2_conv4_bias_to_fp16"), val = tensor<fp16, [32]>(BLOBFILE(path = tensor<string, []>("@model_path/weights/weight.bin"), offset = tensor<uint64, []>(32449984)))];
            tensor<fp16, [1, 32, 256, 256]> input_1223_cast_fp16 = conv(bias = rrdb_body_22_rdb2_conv4_bias_to_fp16, dilations = input_1223_dilations_0, groups = input_1223_groups_0, pad = input_1223_pad_0, pad_type = input_1223_pad_type_0, strides = input_1223_strides_0, weight = rrdb_body_22_rdb2_conv4_weight_to_fp16, x = input_1221_cast_fp16)[name = tensor<string, []>("input_1223_cast_fp16")];
            tensor<fp16, [1, 32, 256, 256]> x4_135_cast_fp16 = leaky_relu(alpha = var_7_to_fp16, x = input_1223_cast_fp16)[name = tensor<string, []>("x4_135_cast_fp16")];
            tensor<bool, []> input_1225_interleave_0 = const()[name = tensor<string, []>("input_1225_interleave_0"), val = tensor<bool, []>(false)];
            tensor<fp16, [1, 192, 256, 256]> input_1225_cast_fp16 = concat(axis = var_8, interleave = input_1225_interleave_0, values = (input_1209_cast_fp16, x1_135_cast_fp16, x2_135_cast_fp16, x3_135_cast_fp16, x4_135_cast_fp16))[name = tensor<string, []>("input_1225_cast_fp16")];
            tensor<string, []> x5_135_pad_type_0 = const()[name = tensor<string, []>("x5_135_pad_type_0"), val = tensor<string, []>("custom")];
            tensor<int32, [4]> x5_135_pad_0 = const()[name = tensor<string, []>("x5_135_pad_0"), val = tensor<int32, [4]>([1, 1, 1, 1])];
            tensor<int32, [2]> x5_135_strides_0 = const()[name = tensor<string, []>("x5_135_strides_0"), val = tensor<int32, [2]>([1, 1])];
            tensor<int32, [2]> x5_135_dilations_0 = const()[name = tensor<string, []>("x5_135_dilations_0"), val = tensor<int32, [2]>([1, 1])];
            tensor<int32, []> x5_135_groups_0 = const()[name = tensor<string, []>("x5_135_groups_0"), val = tensor<int32, []>(1)];
            tensor<fp16, [64, 192, 3, 3]> var_3922_weight_0_to_fp16 = const()[name = tensor<string, []>("op_3922_weight_0_to_fp16"), val = tensor<fp16, [64, 192, 3, 3]>(BLOBFILE(path = tensor<string, []>("@model_path/weights/weight.bin"), offset = tensor<uint64, []>(32450112)))];
            tensor<fp16, [64]> var_3922_bias_0_to_fp16 = const()[name = tensor<string, []>("op_3922_bias_0_to_fp16"), val = tensor<fp16, [64]>(BLOBFILE(path = tensor<string, []>("@model_path/weights/weight.bin"), offset = tensor<uint64, []>(32671360)))];
            tensor<fp16, [1, 64, 256, 256]> var_3922_cast_fp16 = conv(bias = var_3922_bias_0_to_fp16, dilations = x5_135_dilations_0, groups = x5_135_groups_0, pad = x5_135_pad_0, pad_type = x5_135_pad_type_0, strides = x5_135_strides_0, weight = var_3922_weight_0_to_fp16, x = input_1225_cast_fp16)[name = tensor<string, []>("op_3922_cast_fp16")];
            tensor<fp16, [1, 64, 256, 256]> input_1227_cast_fp16 = add(x = var_3922_cast_fp16, y = input_1209_cast_fp16)[name = tensor<string, []>("input_1227_cast_fp16")];
            tensor<string, []> input_1229_pad_type_0 = const()[name = tensor<string, []>("input_1229_pad_type_0"), val = tensor<string, []>("custom")];
            tensor<int32, [4]> input_1229_pad_0 = const()[name = tensor<string, []>("input_1229_pad_0"), val = tensor<int32, [4]>([1, 1, 1, 1])];
            tensor<int32, [2]> input_1229_strides_0 = const()[name = tensor<string, []>("input_1229_strides_0"), val = tensor<int32, [2]>([1, 1])];
            tensor<int32, [2]> input_1229_dilations_0 = const()[name = tensor<string, []>("input_1229_dilations_0"), val = tensor<int32, [2]>([1, 1])];
            tensor<int32, []> input_1229_groups_0 = const()[name = tensor<string, []>("input_1229_groups_0"), val = tensor<int32, []>(1)];
            tensor<fp16, [32, 64, 3, 3]> rrdb_body_22_rdb3_conv1_weight_to_fp16 = const()[name = tensor<string, []>("rrdb_body_22_rdb3_conv1_weight_to_fp16"), val = tensor<fp16, [32, 64, 3, 3]>(BLOBFILE(path = tensor<string, []>("@model_path/weights/weight.bin"), offset = tensor<uint64, []>(32671552)))];
            tensor<fp16, [32]> rrdb_body_22_rdb3_conv1_bias_to_fp16 = const()[name = tensor<string, []>("rrdb_body_22_rdb3_conv1_bias_to_fp16"), val = tensor<fp16, [32]>(BLOBFILE(path = tensor<string, []>("@model_path/weights/weight.bin"), offset = tensor<uint64, []>(32708480)))];
            tensor<fp16, [1, 32, 256, 256]> input_1229_cast_fp16 = conv(bias = rrdb_body_22_rdb3_conv1_bias_to_fp16, dilations = input_1229_dilations_0, groups = input_1229_groups_0, pad = input_1229_pad_0, pad_type = input_1229_pad_type_0, strides = input_1229_strides_0, weight = rrdb_body_22_rdb3_conv1_weight_to_fp16, x = input_1227_cast_fp16)[name = tensor<string, []>("input_1229_cast_fp16")];
            tensor<fp16, [1, 32, 256, 256]> x1_cast_fp16 = leaky_relu(alpha = var_7_to_fp16, x = input_1229_cast_fp16)[name = tensor<string, []>("x1_cast_fp16")];
            tensor<bool, []> input_1231_interleave_0 = const()[name = tensor<string, []>("input_1231_interleave_0"), val = tensor<bool, []>(false)];
            tensor<fp16, [1, 96, 256, 256]> input_1231_cast_fp16 = concat(axis = var_8, interleave = input_1231_interleave_0, values = (input_1227_cast_fp16, x1_cast_fp16))[name = tensor<string, []>("input_1231_cast_fp16")];
            tensor<string, []> input_1233_pad_type_0 = const()[name = tensor<string, []>("input_1233_pad_type_0"), val = tensor<string, []>("custom")];
            tensor<int32, [4]> input_1233_pad_0 = const()[name = tensor<string, []>("input_1233_pad_0"), val = tensor<int32, [4]>([1, 1, 1, 1])];
            tensor<int32, [2]> input_1233_strides_0 = const()[name = tensor<string, []>("input_1233_strides_0"), val = tensor<int32, [2]>([1, 1])];
            tensor<int32, [2]> input_1233_dilations_0 = const()[name = tensor<string, []>("input_1233_dilations_0"), val = tensor<int32, [2]>([1, 1])];
            tensor<int32, []> input_1233_groups_0 = const()[name = tensor<string, []>("input_1233_groups_0"), val = tensor<int32, []>(1)];
            tensor<fp16, [32, 96, 3, 3]> rrdb_body_22_rdb3_conv2_weight_to_fp16 = const()[name = tensor<string, []>("rrdb_body_22_rdb3_conv2_weight_to_fp16"), val = tensor<fp16, [32, 96, 3, 3]>(BLOBFILE(path = tensor<string, []>("@model_path/weights/weight.bin"), offset = tensor<uint64, []>(32708608)))];
            tensor<fp16, [32]> rrdb_body_22_rdb3_conv2_bias_to_fp16 = const()[name = tensor<string, []>("rrdb_body_22_rdb3_conv2_bias_to_fp16"), val = tensor<fp16, [32]>(BLOBFILE(path = tensor<string, []>("@model_path/weights/weight.bin"), offset = tensor<uint64, []>(32763968)))];
            tensor<fp16, [1, 32, 256, 256]> input_1233_cast_fp16 = conv(bias = rrdb_body_22_rdb3_conv2_bias_to_fp16, dilations = input_1233_dilations_0, groups = input_1233_groups_0, pad = input_1233_pad_0, pad_type = input_1233_pad_type_0, strides = input_1233_strides_0, weight = rrdb_body_22_rdb3_conv2_weight_to_fp16, x = input_1231_cast_fp16)[name = tensor<string, []>("input_1233_cast_fp16")];
            tensor<fp16, [1, 32, 256, 256]> x2_cast_fp16 = leaky_relu(alpha = var_7_to_fp16, x = input_1233_cast_fp16)[name = tensor<string, []>("x2_cast_fp16")];
            tensor<bool, []> input_1235_interleave_0 = const()[name = tensor<string, []>("input_1235_interleave_0"), val = tensor<bool, []>(false)];
            tensor<fp16, [1, 128, 256, 256]> input_1235_cast_fp16 = concat(axis = var_8, interleave = input_1235_interleave_0, values = (input_1227_cast_fp16, x1_cast_fp16, x2_cast_fp16))[name = tensor<string, []>("input_1235_cast_fp16")];
            tensor<string, []> input_1237_pad_type_0 = const()[name = tensor<string, []>("input_1237_pad_type_0"), val = tensor<string, []>("custom")];
            tensor<int32, [4]> input_1237_pad_0 = const()[name = tensor<string, []>("input_1237_pad_0"), val = tensor<int32, [4]>([1, 1, 1, 1])];
            tensor<int32, [2]> input_1237_strides_0 = const()[name = tensor<string, []>("input_1237_strides_0"), val = tensor<int32, [2]>([1, 1])];
            tensor<int32, [2]> input_1237_dilations_0 = const()[name = tensor<string, []>("input_1237_dilations_0"), val = tensor<int32, [2]>([1, 1])];
            tensor<int32, []> input_1237_groups_0 = const()[name = tensor<string, []>("input_1237_groups_0"), val = tensor<int32, []>(1)];
            tensor<fp16, [32, 128, 3, 3]> rrdb_body_22_rdb3_conv3_weight_to_fp16 = const()[name = tensor<string, []>("rrdb_body_22_rdb3_conv3_weight_to_fp16"), val = tensor<fp16, [32, 128, 3, 3]>(BLOBFILE(path = tensor<string, []>("@model_path/weights/weight.bin"), offset = tensor<uint64, []>(32764096)))];
            tensor<fp16, [32]> rrdb_body_22_rdb3_conv3_bias_to_fp16 = const()[name = tensor<string, []>("rrdb_body_22_rdb3_conv3_bias_to_fp16"), val = tensor<fp16, [32]>(BLOBFILE(path = tensor<string, []>("@model_path/weights/weight.bin"), offset = tensor<uint64, []>(32837888)))];
            tensor<fp16, [1, 32, 256, 256]> input_1237_cast_fp16 = conv(bias = rrdb_body_22_rdb3_conv3_bias_to_fp16, dilations = input_1237_dilations_0, groups = input_1237_groups_0, pad = input_1237_pad_0, pad_type = input_1237_pad_type_0, strides = input_1237_strides_0, weight = rrdb_body_22_rdb3_conv3_weight_to_fp16, x = input_1235_cast_fp16)[name = tensor<string, []>("input_1237_cast_fp16")];
            tensor<fp16, [1, 32, 256, 256]> x3_cast_fp16 = leaky_relu(alpha = var_7_to_fp16, x = input_1237_cast_fp16)[name = tensor<string, []>("x3_cast_fp16")];
            tensor<bool, []> input_1239_interleave_0 = const()[name = tensor<string, []>("input_1239_interleave_0"), val = tensor<bool, []>(false)];
            tensor<fp16, [1, 160, 256, 256]> input_1239_cast_fp16 = concat(axis = var_8, interleave = input_1239_interleave_0, values = (input_1227_cast_fp16, x1_cast_fp16, x2_cast_fp16, x3_cast_fp16))[name = tensor<string, []>("input_1239_cast_fp16")];
            tensor<string, []> input_1241_pad_type_0 = const()[name = tensor<string, []>("input_1241_pad_type_0"), val = tensor<string, []>("custom")];
            tensor<int32, [4]> input_1241_pad_0 = const()[name = tensor<string, []>("input_1241_pad_0"), val = tensor<int32, [4]>([1, 1, 1, 1])];
            tensor<int32, [2]> input_1241_strides_0 = const()[name = tensor<string, []>("input_1241_strides_0"), val = tensor<int32, [2]>([1, 1])];
            tensor<int32, [2]> input_1241_dilations_0 = const()[name = tensor<string, []>("input_1241_dilations_0"), val = tensor<int32, [2]>([1, 1])];
            tensor<int32, []> input_1241_groups_0 = const()[name = tensor<string, []>("input_1241_groups_0"), val = tensor<int32, []>(1)];
            tensor<fp16, [32, 160, 3, 3]> rrdb_body_22_rdb3_conv4_weight_to_fp16 = const()[name = tensor<string, []>("rrdb_body_22_rdb3_conv4_weight_to_fp16"), val = tensor<fp16, [32, 160, 3, 3]>(BLOBFILE(path = tensor<string, []>("@model_path/weights/weight.bin"), offset = tensor<uint64, []>(32838016)))];
            tensor<fp16, [32]> rrdb_body_22_rdb3_conv4_bias_to_fp16 = const()[name = tensor<string, []>("rrdb_body_22_rdb3_conv4_bias_to_fp16"), val = tensor<fp16, [32]>(BLOBFILE(path = tensor<string, []>("@model_path/weights/weight.bin"), offset = tensor<uint64, []>(32930240)))];
            tensor<fp16, [1, 32, 256, 256]> input_1241_cast_fp16 = conv(bias = rrdb_body_22_rdb3_conv4_bias_to_fp16, dilations = input_1241_dilations_0, groups = input_1241_groups_0, pad = input_1241_pad_0, pad_type = input_1241_pad_type_0, strides = input_1241_strides_0, weight = rrdb_body_22_rdb3_conv4_weight_to_fp16, x = input_1239_cast_fp16)[name = tensor<string, []>("input_1241_cast_fp16")];
            tensor<fp16, [1, 32, 256, 256]> x4_cast_fp16 = leaky_relu(alpha = var_7_to_fp16, x = input_1241_cast_fp16)[name = tensor<string, []>("x4_cast_fp16")];
            tensor<bool, []> input_1243_interleave_0 = const()[name = tensor<string, []>("input_1243_interleave_0"), val = tensor<bool, []>(false)];
            tensor<fp16, [1, 192, 256, 256]> input_1243_cast_fp16 = concat(axis = var_8, interleave = input_1243_interleave_0, values = (input_1227_cast_fp16, x1_cast_fp16, x2_cast_fp16, x3_cast_fp16, x4_cast_fp16))[name = tensor<string, []>("input_1243_cast_fp16")];
            tensor<string, []> x5_pad_type_0 = const()[name = tensor<string, []>("x5_pad_type_0"), val = tensor<string, []>("custom")];
            tensor<int32, [4]> x5_pad_0 = const()[name = tensor<string, []>("x5_pad_0"), val = tensor<int32, [4]>([1, 1, 1, 1])];
            tensor<int32, [2]> x5_strides_0 = const()[name = tensor<string, []>("x5_strides_0"), val = tensor<int32, [2]>([1, 1])];
            tensor<int32, [2]> x5_dilations_0 = const()[name = tensor<string, []>("x5_dilations_0"), val = tensor<int32, [2]>([1, 1])];
            tensor<int32, []> x5_groups_0 = const()[name = tensor<string, []>("x5_groups_0"), val = tensor<int32, []>(1)];
            tensor<fp16, [64, 192, 3, 3]> var_3977_weight_0_to_fp16 = const()[name = tensor<string, []>("op_3977_weight_0_to_fp16"), val = tensor<fp16, [64, 192, 3, 3]>(BLOBFILE(path = tensor<string, []>("@model_path/weights/weight.bin"), offset = tensor<uint64, []>(32930368)))];
            tensor<fp16, [64]> var_3977_bias_0_to_fp16 = const()[name = tensor<string, []>("op_3977_bias_0_to_fp16"), val = tensor<fp16, [64]>(BLOBFILE(path = tensor<string, []>("@model_path/weights/weight.bin"), offset = tensor<uint64, []>(33151616)))];
            tensor<fp16, [1, 64, 256, 256]> var_3977_cast_fp16 = conv(bias = var_3977_bias_0_to_fp16, dilations = x5_dilations_0, groups = x5_groups_0, pad = x5_pad_0, pad_type = x5_pad_type_0, strides = x5_strides_0, weight = var_3977_weight_0_to_fp16, x = input_1243_cast_fp16)[name = tensor<string, []>("op_3977_cast_fp16")];
            tensor<fp16, [1, 64, 256, 256]> out_cast_fp16 = add(x = var_3977_cast_fp16, y = input_1227_cast_fp16)[name = tensor<string, []>("out_cast_fp16")];
            tensor<fp16, []> var_3979_to_fp16 = const()[name = tensor<string, []>("op_3979_to_fp16"), val = tensor<fp16, []>(0x1.998p-3)];
            tensor<fp16, [1, 64, 256, 256]> var_3980_cast_fp16 = mul(x = out_cast_fp16, y = var_3979_to_fp16)[name = tensor<string, []>("op_3980_cast_fp16")];
            tensor<fp16, [1, 64, 256, 256]> input_1245_cast_fp16 = add(x = var_3980_cast_fp16, y = input_1191_cast_fp16)[name = tensor<string, []>("input_1245_cast_fp16")];
            tensor<string, []> body_feat_pad_type_0 = const()[name = tensor<string, []>("body_feat_pad_type_0"), val = tensor<string, []>("custom")];
            tensor<int32, [4]> body_feat_pad_0 = const()[name = tensor<string, []>("body_feat_pad_0"), val = tensor<int32, [4]>([1, 1, 1, 1])];
            tensor<int32, [2]> body_feat_strides_0 = const()[name = tensor<string, []>("body_feat_strides_0"), val = tensor<int32, [2]>([1, 1])];
            tensor<int32, [2]> body_feat_dilations_0 = const()[name = tensor<string, []>("body_feat_dilations_0"), val = tensor<int32, [2]>([1, 1])];
            tensor<int32, []> body_feat_groups_0 = const()[name = tensor<string, []>("body_feat_groups_0"), val = tensor<int32, []>(1)];
            tensor<fp16, [64, 64, 3, 3]> rrdb_conv_body_weight_to_fp16 = const()[name = tensor<string, []>("rrdb_conv_body_weight_to_fp16"), val = tensor<fp16, [64, 64, 3, 3]>(BLOBFILE(path = tensor<string, []>("@model_path/weights/weight.bin"), offset = tensor<uint64, []>(33151808)))];
            tensor<fp16, [64]> rrdb_conv_body_bias_to_fp16 = const()[name = tensor<string, []>("rrdb_conv_body_bias_to_fp16"), val = tensor<fp16, [64]>(BLOBFILE(path = tensor<string, []>("@model_path/weights/weight.bin"), offset = tensor<uint64, []>(33225600)))];
            tensor<fp16, [1, 64, 256, 256]> body_feat_cast_fp16 = conv(bias = rrdb_conv_body_bias_to_fp16, dilations = body_feat_dilations_0, groups = body_feat_groups_0, pad = body_feat_pad_0, pad_type = body_feat_pad_type_0, strides = body_feat_strides_0, weight = rrdb_conv_body_weight_to_fp16, x = input_1245_cast_fp16)[name = tensor<string, []>("body_feat_cast_fp16")];
            tensor<fp16, [1, 64, 256, 256]> input_1247_cast_fp16 = add(x = input_3_cast_fp16, y = body_feat_cast_fp16)[name = tensor<string, []>("input_1247_cast_fp16")];
            tensor<fp32, []> input_1249_scale_factor_height_0 = const()[name = tensor<string, []>("input_1249_scale_factor_height_0"), val = tensor<fp32, []>(0x1p+1)];
            tensor<fp32, []> input_1249_scale_factor_width_0 = const()[name = tensor<string, []>("input_1249_scale_factor_width_0"), val = tensor<fp32, []>(0x1p+1)];
            tensor<fp16, [1, 64, 512, 512]> input_1249_cast_fp16 = upsample_nearest_neighbor(scale_factor_height = input_1249_scale_factor_height_0, scale_factor_width = input_1249_scale_factor_width_0, x = input_1247_cast_fp16)[name = tensor<string, []>("input_1249_cast_fp16")];
            tensor<string, []> input_1251_pad_type_0 = const()[name = tensor<string, []>("input_1251_pad_type_0"), val = tensor<string, []>("custom")];
            tensor<int32, [4]> input_1251_pad_0 = const()[name = tensor<string, []>("input_1251_pad_0"), val = tensor<int32, [4]>([1, 1, 1, 1])];
            tensor<int32, [2]> input_1251_strides_0 = const()[name = tensor<string, []>("input_1251_strides_0"), val = tensor<int32, [2]>([1, 1])];
            tensor<int32, [2]> input_1251_dilations_0 = const()[name = tensor<string, []>("input_1251_dilations_0"), val = tensor<int32, [2]>([1, 1])];
            tensor<int32, []> input_1251_groups_0 = const()[name = tensor<string, []>("input_1251_groups_0"), val = tensor<int32, []>(1)];
            tensor<fp16, [64, 64, 3, 3]> rrdb_conv_up1_weight_to_fp16 = const()[name = tensor<string, []>("rrdb_conv_up1_weight_to_fp16"), val = tensor<fp16, [64, 64, 3, 3]>(BLOBFILE(path = tensor<string, []>("@model_path/weights/weight.bin"), offset = tensor<uint64, []>(33225792)))];
            tensor<fp16, [64]> rrdb_conv_up1_bias_to_fp16 = const()[name = tensor<string, []>("rrdb_conv_up1_bias_to_fp16"), val = tensor<fp16, [64]>(BLOBFILE(path = tensor<string, []>("@model_path/weights/weight.bin"), offset = tensor<uint64, []>(33299584)))];
            tensor<fp16, [1, 64, 512, 512]> input_1251_cast_fp16 = conv(bias = rrdb_conv_up1_bias_to_fp16, dilations = input_1251_dilations_0, groups = input_1251_groups_0, pad = input_1251_pad_0, pad_type = input_1251_pad_type_0, strides = input_1251_strides_0, weight = rrdb_conv_up1_weight_to_fp16, x = input_1249_cast_fp16)[name = tensor<string, []>("input_1251_cast_fp16")];
            tensor<fp16, [1, 64, 512, 512]> input_1253_cast_fp16 = leaky_relu(alpha = var_7_to_fp16, x = input_1251_cast_fp16)[name = tensor<string, []>("input_1253_cast_fp16")];
            tensor<fp32, []> input_1255_scale_factor_height_0 = const()[name = tensor<string, []>("input_1255_scale_factor_height_0"), val = tensor<fp32, []>(0x1p+1)];
            tensor<fp32, []> input_1255_scale_factor_width_0 = const()[name = tensor<string, []>("input_1255_scale_factor_width_0"), val = tensor<fp32, []>(0x1p+1)];
            tensor<fp16, [1, 64, 1024, 1024]> input_1255_cast_fp16 = upsample_nearest_neighbor(scale_factor_height = input_1255_scale_factor_height_0, scale_factor_width = input_1255_scale_factor_width_0, x = input_1253_cast_fp16)[name = tensor<string, []>("input_1255_cast_fp16")];
            tensor<string, []> input_1257_pad_type_0 = const()[name = tensor<string, []>("input_1257_pad_type_0"), val = tensor<string, []>("custom")];
            tensor<int32, [4]> input_1257_pad_0 = const()[name = tensor<string, []>("input_1257_pad_0"), val = tensor<int32, [4]>([1, 1, 1, 1])];
            tensor<int32, [2]> input_1257_strides_0 = const()[name = tensor<string, []>("input_1257_strides_0"), val = tensor<int32, [2]>([1, 1])];
            tensor<int32, [2]> input_1257_dilations_0 = const()[name = tensor<string, []>("input_1257_dilations_0"), val = tensor<int32, [2]>([1, 1])];
            tensor<int32, []> input_1257_groups_0 = const()[name = tensor<string, []>("input_1257_groups_0"), val = tensor<int32, []>(1)];
            tensor<fp16, [64, 64, 3, 3]> rrdb_conv_up2_weight_to_fp16 = const()[name = tensor<string, []>("rrdb_conv_up2_weight_to_fp16"), val = tensor<fp16, [64, 64, 3, 3]>(BLOBFILE(path = tensor<string, []>("@model_path/weights/weight.bin"), offset = tensor<uint64, []>(33299776)))];
            tensor<fp16, [64]> rrdb_conv_up2_bias_to_fp16 = const()[name = tensor<string, []>("rrdb_conv_up2_bias_to_fp16"), val = tensor<fp16, [64]>(BLOBFILE(path = tensor<string, []>("@model_path/weights/weight.bin"), offset = tensor<uint64, []>(33373568)))];
            tensor<fp16, [1, 64, 1024, 1024]> input_1257_cast_fp16 = conv(bias = rrdb_conv_up2_bias_to_fp16, dilations = input_1257_dilations_0, groups = input_1257_groups_0, pad = input_1257_pad_0, pad_type = input_1257_pad_type_0, strides = input_1257_strides_0, weight = rrdb_conv_up2_weight_to_fp16, x = input_1255_cast_fp16)[name = tensor<string, []>("input_1257_cast_fp16")];
            tensor<fp16, [1, 64, 1024, 1024]> input_1259_cast_fp16 = leaky_relu(alpha = var_7_to_fp16, x = input_1257_cast_fp16)[name = tensor<string, []>("input_1259_cast_fp16")];
            tensor<string, []> input_1261_pad_type_0 = const()[name = tensor<string, []>("input_1261_pad_type_0"), val = tensor<string, []>("custom")];
            tensor<int32, [4]> input_1261_pad_0 = const()[name = tensor<string, []>("input_1261_pad_0"), val = tensor<int32, [4]>([1, 1, 1, 1])];
            tensor<int32, [2]> input_1261_strides_0 = const()[name = tensor<string, []>("input_1261_strides_0"), val = tensor<int32, [2]>([1, 1])];
            tensor<int32, [2]> input_1261_dilations_0 = const()[name = tensor<string, []>("input_1261_dilations_0"), val = tensor<int32, [2]>([1, 1])];
            tensor<int32, []> input_1261_groups_0 = const()[name = tensor<string, []>("input_1261_groups_0"), val = tensor<int32, []>(1)];
            tensor<fp16, [64, 64, 3, 3]> rrdb_conv_hr_weight_to_fp16 = const()[name = tensor<string, []>("rrdb_conv_hr_weight_to_fp16"), val = tensor<fp16, [64, 64, 3, 3]>(BLOBFILE(path = tensor<string, []>("@model_path/weights/weight.bin"), offset = tensor<uint64, []>(33373760)))];
            tensor<fp16, [64]> rrdb_conv_hr_bias_to_fp16 = const()[name = tensor<string, []>("rrdb_conv_hr_bias_to_fp16"), val = tensor<fp16, [64]>(BLOBFILE(path = tensor<string, []>("@model_path/weights/weight.bin"), offset = tensor<uint64, []>(33447552)))];
            tensor<fp16, [1, 64, 1024, 1024]> input_1261_cast_fp16 = conv(bias = rrdb_conv_hr_bias_to_fp16, dilations = input_1261_dilations_0, groups = input_1261_groups_0, pad = input_1261_pad_0, pad_type = input_1261_pad_type_0, strides = input_1261_strides_0, weight = rrdb_conv_hr_weight_to_fp16, x = input_1259_cast_fp16)[name = tensor<string, []>("input_1261_cast_fp16")];
            tensor<fp16, [1, 64, 1024, 1024]> input_cast_fp16 = leaky_relu(alpha = var_7_to_fp16, x = input_1261_cast_fp16)[name = tensor<string, []>("input_cast_fp16")];
            tensor<string, []> var_4024_pad_type_0 = const()[name = tensor<string, []>("op_4024_pad_type_0"), val = tensor<string, []>("custom")];
            tensor<int32, [4]> var_4024_pad_0 = const()[name = tensor<string, []>("op_4024_pad_0"), val = tensor<int32, [4]>([1, 1, 1, 1])];
            tensor<int32, [2]> var_4024_strides_0 = const()[name = tensor<string, []>("op_4024_strides_0"), val = tensor<int32, [2]>([1, 1])];
            tensor<int32, [2]> var_4024_dilations_0 = const()[name = tensor<string, []>("op_4024_dilations_0"), val = tensor<int32, [2]>([1, 1])];
            tensor<int32, []> var_4024_groups_0 = const()[name = tensor<string, []>("op_4024_groups_0"), val = tensor<int32, []>(1)];
            tensor<fp16, [3, 64, 3, 3]> rrdb_conv_last_weight_to_fp16 = const()[name = tensor<string, []>("rrdb_conv_last_weight_to_fp16"), val = tensor<fp16, [3, 64, 3, 3]>(BLOBFILE(path = tensor<string, []>("@model_path/weights/weight.bin"), offset = tensor<uint64, []>(33447744)))];
            tensor<fp16, [3]> rrdb_conv_last_bias_to_fp16 = const()[name = tensor<string, []>("rrdb_conv_last_bias_to_fp16"), val = tensor<fp16, [3]>([0x1.964p-8, 0x1.d34p-8, 0x1.2c4p-7])];
            tensor<fp16, [1, 3, 1024, 1024]> output = conv(bias = rrdb_conv_last_bias_to_fp16, dilations = var_4024_dilations_0, groups = var_4024_groups_0, pad = var_4024_pad_0, pad_type = var_4024_pad_type_0, strides = var_4024_strides_0, weight = rrdb_conv_last_weight_to_fp16, x = input_cast_fp16)[name = tensor<string, []>("op_4024_cast_fp16")];
        } -> (output);
}